dqn_cartpole.pth (torch, 6033 bytes, 6 tensors)

fc1.weight f4 [24, 4]
000000 bb 58 a4 bd 8a 28 22 bd 48 5e dc 3e 30 21 4d 3e
       -0.080247365 -0.039589442 0.4304068 0.20032191
000010 a9 a7 1d bd 6d c3 83 be ec 8d a0 3b bd 0f e3 bd
       -0.03848997 -0.25735036 0.004899731 -0.11086986
000020 e9 44 96 bd 7a 5d dd bd d0 ff f7 3e 07 b5 0d 3e
       -0.07337362 -0.10808845 0.48437357 0.13838588
000030 33 7f a7 3d bd 72 1a bf 60 78 bb bf cd 18 35 bf
       0.08178558 -0.60331327 -1.464611 -0.7074097
000040 c1 a4 ed be 32 2a 94 be 18 5b 52 bf 38 a9 be be
       -0.4641476 -0.28938442 -0.8217025 -0.3723848
000050 86 c5 64 bf 11 c7 d4 be 76 8c dc 3e 34 20 87 3c
       -0.89363897 -0.41558126 0.43075913 0.016494848
000060 e5 51 5d be 6c 98 24 3e bd 89 ac 3e c1 1b 3b be
       -0.21613272 0.1607377 0.33698836 -0.18272306
000070 0e 45 a2 3d 25 25 10 be 25 32 19 bf 99 48 91 be
       0.079233274 -0.1407667 -0.5984214 -0.283757
000080 da 2c 95 be 2b 8d 78 3d 35 0d 3c 3d 49 1e 2d be
       -0.29135782 0.060681503 0.045911033 -0.16906084
000090 7f 73 09 3f 2e 6f 43 3e 87 b9 f0 3d e8 e2 40 3e
       0.5369186 0.1908538 0.117541365 0.18836558
0000a0 bb d6 c5 bd bd 82 14 bd 6b a2 b4 3f 9b 75 c8 3e
       -0.09660097 -0.036257494 1.4112066 0.39152226
0000b0 d8 89 51 bf 73 02 0b be 7d 86 5e 3f 5f 5e 8f 3e
       -0.8185096 -0.13575153 0.8692396 0.28001687
0000c0 0e 5c a3 3d 5b 01 16 be 1d c6 0e 3f 39 63 c7 3c
       0.079765424 -0.14648955 0.55771047 0.024339305
0000d0 67 ce c0 3d 64 a8 92 3d 2f 73 62 3e 4e 66 b6 bc
       0.09414368 0.07161024 0.22114252 -0.02226558
0000e0 dd f2 c6 3e 4d d6 32 be 6b ea a6 bf ab 53 1c bf
       0.38857165 -0.17464562 -1.3040289 -0.6106517
0000f0 59 45 e5 bd 1d 9f a8 bd 35 5b a7 3d db 7b fd bd
       -0.11194868 -0.082334734 0.08171693 -0.12377139
000100 58 0e 07 3e 1f 0e 94 bd 60 31 c0 3e c3 80 8e be
       0.13189065 -0.07229256 0.3753767 -0.27832612
000110 3e 79 40 3e 0a a6 5d 3d 46 7a fb be 88 df f9 bd
       0.1879625 0.054113425 -0.49116725 -0.12200838
000120 47 f2 73 bd 53 5a 99 be cf de 81 3e 57 39 95 3c
       -0.059557226 -0.29951724 0.25365302 0.018215818
000130 b3 d0 61 3e b6 fb 6b bd cb c1 76 3e 57 d1 60 3e
       0.22052269 -0.057613097 0.24097364 0.21954857
000140 0d 07 92 3e 87 10 13 3f 7c df b9 3f ac dd 20 3f
       0.28521004 0.57447094 1.4521327 0.62838244
000150 bc 19 d4 be 16 13 d6 3e ed 0e 1a 3e 6b 4c 97 3e
       -0.41425884 0.41811436 0.15044756 0.2955049
000160 2d b7 b5 be 32 07 b6 3e 93 22 d7 3f 11 82 c6 3e
       -0.35491315 0.35552365 1.6807426 0.38771108
000170 ab fd cc 3d ca 01 e8 bd 3f 39 cf 3d d7 9a 0c be
       0.10009321 -0.11328466 0.10118341 -0.13730942

fc1.bias f4 [24]
000000 32 a8 25 3f 81 45 3f 3f 44 14 1b 3f 8b a3 05 bf
       0.6470977 0.7471543 0.605778 -0.5220267
000010 e3 1b b7 3e c0 bb 38 bf 2b 74 26 3f 05 39 34 3e
       0.35763463 -0.72161484 0.6502101 0.17599876
000020 74 fa 50 3f 4c 6c 68 bf 68 f0 3b bf d8 c2 64 3e
       0.8163216 -0.9079025 -0.73413706 0.22339952
000030 36 53 24 3f 79 9f 44 3f a5 ff 2f 3a d1 c1 1b 3f
       0.6418947 0.76805836 0.0006713814 0.60842615
000040 a0 56 37 3f d5 0b 6a 3f f6 92 55 3f 6b c4 44 3f
       0.71616554 0.91424304 0.8342737 0.7686221
000050 dd f1 a1 be 0f e5 07 3f 40 31 cd 3d f1 2a f5 3e
       -0.3162984 0.5308389 0.10019159 0.47884324

fc2.weight f4 [24, 24]
000000 6f ac f5 bd 84 3a 0a be fa 6e 06 be 56 ae ce bd
       -0.1199578 -0.13498884 -0.13128272 -0.10091846
000010 51 fb de 3d 24 11 98 bd 71 e3 d7 bd 01 f3 16 be
       0.108877786 -0.07425144 -0.10541428 -0.14741136
000020 a3 e5 7a 3d aa 0b 4b 3e 7d 96 b7 bd 8c b3 70 bd
       0.061254155 0.19828668 -0.0896425 -0.05876498
000030 ba f5 24 bd 3a bb c3 bd 16 5e 19 3e dc 1e 7f bd
       -0.040273406 -0.09557195 0.14977297 -0.06228529
000040 db a8 1b 3e e2 7f 1e bc 10 d4 97 3d 19 3e a5 3d
       0.15201132 -0.009674044 0.074134946 0.08068485
000050 8c ea 5f bd 90 b0 55 be 00 6b 14 3e c7 e1 42 be
       -0.05466704 -0.20868134 0.14493942 -0.1903144
000060 b6 5a 49 be 55 14 99 3d c0 e6 97 bd 5e 5a 15 bd
       -0.1966351 0.07474581 -0.07417059 -0.036463134
000070 4f 90 18 3e a5 e9 89 bd 89 70 0c be 72 2f 82 3e
       0.148988 -0.06734017 -0.13714804 0.25426823
000080 ee 68 0b be 40 0a 2f be ac 89 bd be 9f fd 70 be
       -0.13614246 -0.17093754 -0.37019098 -0.23534249
000090 0d 1c ab 3d 03 74 b9 3d 28 f1 6c 3e 33 7b 5f be
       0.0835496 0.090553306 0.23138869 -0.2182434
0000a0 e3 e3 f9 3d 12 5f 0a bc 49 35 25 be 30 1e 7b be
       0.12201669 -0.008445518 -0.16133608 -0.24523234
0000b0 e7 a5 3d be 99 08 c1 be 45 fb 2c bf 1b a2 d4 3c
       -0.18520318 -0.37701872 -0.67570907 0.025956204
0000c0 f3 ea 49 be cb 7d 98 be cb f7 8c be 5a 0f 41 be
       -0.19718532 -0.29783472 -0.275328 -0.18853512
0000d0 e3 4e 70 3e 03 55 9f 3a 5d de 6a bd 7e 11 7e bd
       0.23467593 0.0012156073 -0.05734097 -0.0620284
0000e0 dc 91 b6 bd 76 85 34 3e 10 e3 7c 3d 96 aa 22 3d
       -0.08914539 0.17629036 0.06173998 0.039713465
0000f0 b4 7c b4 bd d4 ec 04 3e 64 e6 97 3c e4 b4 a1 3d
       -0.08812848 0.12980968 0.018542476 0.0789583
000100 c5 6e 9e 3d d7 e4 5a be 8f e5 6e be 55 4c 0c be
       0.07735971 -0.21376358 -0.23329757 -0.13700993
000110 3c 86 92 3c 82 46 08 3e 48 22 e2 3d ad 37 b3 3d
       0.017886274 0.13308147 0.11041695 0.08750854
000120 80 0c 85 3d 47 1d 97 3e 28 d2 04 3d 69 10 86 bf
       0.06496525 0.29514524 0.032426983 -1.0473758
000130 76 e4 dc be ba bc d0 be e6 75 ef 3c 52 89 c0 bd
       -0.43143052 -0.40768987 0.029231023 -0.09401192
000140 64 c8 1b 3f 8e f4 0c bf c1 60 c0 be 19 9f 93 be
       0.60852647 -0.5506066 -0.37573817 -0.2883232
000150 79 a1 87 3e 5a a2 ca 3e 14 23 2b bf 7d 54 0a 3f
       0.2649038 0.3957699 -0.668504 0.5403517
000160 aa 1e 8c 3e 4e 69 52 3e d9 dc 00 3f d6 e6 cf 3e
       0.27367145 0.20547983 0.50336987 0.406058
000170 6f 5a 44 bf 12 6c 13 3f 08 03 e0 be 3b 5b 61 bd
       -0.7670049 0.5758678 -0.43752313 -0.055018645
000180 3f 43 06 3e fb a6 e2 3d ac eb 5b 3e 19 ac 61 c0
       0.1311159 0.11067005 0.2147662 -3.526129
000190 b4 04 2e bf 21 5a 01 c0 4b d2 51 3e cf 7e 1d bd
       -0.67975926 -2.021126 0.20490377 -0.038451012
0001a0 f2 3b b7 3d 60 2e 5e 3e 59 1e 38 3d b9 20 ca 3d
       0.089469805 0.21697378 0.044950817 0.098695226
0001b0 bd 7f e9 3e f5 19 d0 3e 08 2f d7 bf 28 d4 04 3e
       0.4560527 0.40644804 -1.6811228 0.12971556
0001c0 93 c0 40 3e 42 37 20 3c 60 10 f8 bb 47 af f4 3e
       0.18823461 0.0097787995 -0.0075703114 0.47789976
0001d0 44 69 cc 3e 8e 39 19 3f 3f 9f 55 3f a3 b0 76 3e
       0.3992406 0.59853446 0.83446115 0.24090819
0001e0 59 2e d0 bc 74 0f 30 3e 91 a8 28 be e0 be b1 bd
       -0.025412725 0.17193395 -0.16470553 -0.08678985
0001f0 c2 f5 4c bd 6a 87 23 be 65 e0 12 be f8 37 f7 3d
       -0.05003906 -0.15969625 -0.14343412 0.12071222
000200 18 24 37 be d8 4f a8 bc ba de 2c 3e b1 60 a8 bd
       -0.17884862 -0.020545885 0.16881838 -0.082215674
000210 b9 ca 63 3d 74 6f 06 be d4 2f a0 3d 4a 32 01 3d
       0.055613253 -0.13128453 0.078216225 0.0315421
000220 01 19 37 3d 3a ce 0e 3e c0 28 47 be c6 17 ad bd
       0.04470158 0.13945857 -0.19449139 -0.084518
000230 f8 ab 95 3d ba 19 71 3c 0e 1e 23 be 80 cd 05 3e
       0.07308191 0.014715606 -0.15929434 0.13066673
000240 4c 08 87 3e 7b 92 03 3f e4 d7 60 3e b7 1e 8d bf
       0.26373518 0.51395386 0.21957356 -1.1024998
000250 99 d0 5a be fa 08 31 bf 78 0f a9 3e 92 74 85 be
       -0.21368636 -0.6915432 0.33019614 -0.260655
000260 84 f1 76 3e 3f fd da be ae 11 9b be 0d ab b3 be
       0.24115568 -0.42771336 -0.30286926 -0.3509144
000270 cc 6f 53 bc 30 83 26 3e 2a 06 7c bf a0 34 eb 3e
       -0.012905072 0.16260982 -0.98446906 0.45938587
000280 48 8a 26 3e 36 01 90 3d 4d 7f f1 3e 1e c2 a0 3e
       0.16263688 0.07031481 0.47167435 0.313981
000290 9c 4e 3d bf bc d4 10 3f 1a d9 5e bf 5e d3 8b 3e
       -0.73948073 0.56574607 -0.8705002 0.27309698
0002a0 d4 6b 2b 3e fa 23 fd 3d 04 59 aa 3e 0f 58 3d bf
       0.16740352 0.123603776 0.3327104 -0.7396249
0002b0 0d 40 b4 be a2 d1 bc be 94 a2 99 3e 22 69 62 be
       -0.35205117 -0.36878687 0.3000685 -0.22110417
0002c0 4b 58 a1 3e e9 d9 8e be c2 eb 95 bd 21 3a a3 bd
       0.31512675 -0.27900627 -0.07320358 -0.079700716
0002d0 e1 3e 9d 3b f7 1a ba bd a4 d7 97 be 07 26 a3 3e
       0.0047987555 -0.090871744 -0.29656708 0.3186495
0002e0 52 32 76 be 2d 70 17 3e 17 33 9a 3e fc 92 7b 3d
       -0.24042633 0.14788885 0.30117103 0.061419472
0002f0 f2 4f 9a be 66 3d 10 3f 61 d1 b6 be 89 3c 04 be
       -0.30139118 0.56343687 -0.35706618 -0.12913717
000300 71 c1 4c 3e 38 7b fd be c0 ec d9 bd 32 77 e8 be
       0.19995667 -0.4950807 -0.106408596 -0.4540344
000310 6f f4 97 bf 77 2e b3 be cd 3b 80 be 60 f8 85 be
       -1.187147 -0.34996387 -0.25045624 -0.26166058
000320 8b e5 9a be f2 b5 06 3f 76 dd 17 3e 99 3a 0a 3d
       -0.30253252 0.52621377 0.14830574 0.03374729
000330 fe 9b 8b 3e 9d f3 fa 3c 1c 38 fc bd 5d a0 25 be
       0.2726745 0.030633742 -0.123153895 -0.16174455
000340 35 4a 75 be 29 c5 5d be e8 0d e8 be 00 9d b0 3e
       -0.23954089 -0.21657242 -0.4532311 0.34494781
000350 71 8c ab 3e 60 e1 67 3e 18 e7 ae 3e ea bf de 3c
       0.33505586 0.22644567 0.34160686 0.027191121
000360 9b b5 4b 3e fb 29 a4 3e fd 69 89 3e ab 93 8f bf
       0.19893496 0.3206328 0.26838675 -1.121694
000370 f6 06 25 be 61 54 01 bf 12 59 8b 3e e2 a9 55 be
       -0.16115937 -0.50519377 0.27216393 -0.20865586
000380 54 9f 96 3e 9b 98 14 bf 93 ec 05 bf e8 d5 f3 be
       0.29418433 -0.5804536 -0.5231411 -0.47624135
000390 f6 36 9a 3d 5c 9a d1 3e 62 02 3b bf 4b 24 f3 3e
       0.07530014 0.4093808 -0.7305051 0.47488627
0003a0 79 24 77 bd 59 bd bb 3e 18 a7 f1 3e e2 f0 9e 3e
       -0.060337517 0.36667898 0.47197795 0.31043154
0003b0 18 30 66 bf e5 c4 b2 3e 86 b6 5c bf 18 7c 90 3e
       -0.89917135 0.34915844 -0.8621601 0.28219676
0003c0 e7 d4 c8 3d 0d b1 43 3e 88 c9 6f 3e 1c a5 b6 bd
       0.09806233 0.19110508 0.23416722 -0.08918211
0003d0 cd 34 90 3e 48 2e d0 be ce fd 96 3e fa 2c b7 3d
       0.28165284 -0.4066031 0.29490513 0.089441255
0003e0 7d 82 97 3e f6 40 01 3e da e0 82 bf d3 0a 6f bf
       0.29591742 0.12622437 -1.0224869 -0.9337589
0003f0 c9 72 d3 3e 3c 16 5e 3e cc 08 98 3e 1a 05 c0 3e
       0.41298512 0.21688169 0.2969421 0.37503892

fc2.bias f4 [24]
000000 a3 ae 51 be c9 64 93 bd 49 32 06 be 70 59 a9 3e
       -0.20476775 -0.071969576 -0.1310512 0.33076048
000010 35 b1 67 3b 89 fb 66 be d2 a9 e5 3e ec d8 b6 3e
       0.0035353426 -0.2255689 0.44856125 0.35712373
000020 b8 91 64 bd 76 52 4c 3e ce af 82 3e 3d b1 06 3f
       -0.05580303 0.19953331 0.25524753 0.52614194
000030 dc 86 17 bd 03 8e d9 3e f2 23 c1 3e e0 77 2c 3e
       -0.036993846 0.4249116 0.37722737 0.16842604
000040 20 80 f9 bd b3 d4 83 3e 2e 25 83 3d 3c b3 88 3e
       -0.12182641 0.25748214 0.06403576 0.26699245
000050 b8 96 ec 3e 8a 10 af 3e 7c 7a e8 3e 40 db 86 3e
       0.4620874 0.34192306 0.45405948 0.2633915

fc3.weight f4 [2, 24]
000000 c7 83 8c 3d 35 7e 5f 3d 64 d3 53 3e f0 3d 6a 3f
       0.06861072 0.05456372 0.20686108 0.9150076
000010 b8 f5 39 bf d4 95 f5 bd 76 81 0b 3f 29 0e b7 3e
       -0.7264056 -0.11991468 0.54494417 0.3575299
000020 80 71 f6 be 6e 5f 49 3f e2 e7 e3 3e c6 96 85 be
       -0.4813347 0.7866124 0.4451285 -0.26091594
000030 a8 07 fe bd c9 ca b5 3e 48 d6 43 3f f1 2d 20 bf
       -0.12403804 0.35506275 0.7649884 -0.625701
000040 1e 72 3e bf b9 e4 41 3f 0a fe fb be 26 6c 5a 3f
       -0.7439288 0.7573963 -0.49217254 0.8532127
000050 88 57 4e 3f af 69 51 3f 55 7f 3f 3f 28 c7 55 bf
       0.8060231 0.81801885 0.7480367 -0.83507013
000060 10 67 4d 3d ff a1 85 bc df 97 d2 bc 98 a6 53 3f
       0.050147116 -0.016312597 -0.025707183 0.82676077
000070 4e c2 bc be a9 8c e8 bc e8 c8 21 3f 5d f2 4f 3f
       -0.36866993 -0.028387384 0.63197184 0.8122919
000080 8c 9d 43 be ae 9e 5d 3f 9a 41 9c bd 92 f5 35 bf
       -0.19103068 0.8657025 -0.076297 -0.71077836
000090 02 53 a9 bd a4 6d 3d 3f 74 5e 31 3f a9 47 a8 be
       -0.082677856 0.73995423 0.6928475 -0.32867172
0000a0 50 a0 10 bf c4 03 ef 3e a5 9a 9d be da fa 4d 3f
       -0.5649462 0.4668256 -0.30782047 0.80460894
0000b0 50 2d 51 3f 76 73 75 3f cd dd 2e 3f d5 8b 57 bf
       0.81709766 0.95879304 0.6830719 -0.8419774

fc3.bias f4 [2]
000000 cd 4d 62 3e 66 b2 cb 3e
       0.22099991 0.39784545
