checkpoints/dqn/dqn_cartpole.pth (torch, 72721 bytes, 6 tensors)

0.weight f4 [128, 4]
000000 63 7d b1 3e 11 49 c8 3e b9 61 9f bd 79 b8 fc 3e
       0.34665975 0.39118245 -0.07782311 0.4935949
000010 b0 5c e0 bd 38 a2 ce 3d 10 45 79 be 28 58 96 3e
       -0.10955179 0.100895345 -0.24342752 0.29364133
000020 3a ea d8 3e b5 ff c2 be c7 56 e7 3e 76 5e df 3d
       0.423662 -0.38085714 0.45183393 0.10906689
000030 94 22 bd 3e 50 ae 8a 3d 5c e1 76 3e 60 94 90 bd
       0.36940444 0.06771529 0.24109405 -0.0705955
000040 d4 98 bd 3e e7 a4 42 3d e0 09 75 be 79 45 fa 3d
       0.3703066 0.047520544 -0.23929548 0.12220282
000050 00 79 66 be b0 79 5a bd b7 60 55 be 4d 1c a7 3e
       -0.22507095 -0.053338706 -0.20837675 0.3263878
000060 83 c8 d0 be aa 1c 79 be 6b a4 16 be c0 43 a1 be
       -0.40777978 -0.2432734 -0.14711158 -0.31497002
000070 7c 4b 82 3d 85 b2 e7 be 4e 02 d7 3e a9 53 f0 be
       0.06362054 -0.45253387 0.41993946 -0.46938828
000080 a8 3f b0 3e 5d cb ea 3c fd fe 03 be 15 c1 b4 3e
       0.34423566 0.028661424 -0.12890239 0.3530356
000090 d8 9c 04 3d 5e b2 b6 3e f3 1c be 3d 70 44 f8 bd
       0.03237614 0.35682958 0.092828654 -0.121224284
0000a0 86 9a af 3d 4a 17 26 be 69 38 86 3e 2d df fa 3e
       0.08574395 -0.16219822 0.26214913 0.48998395
0000b0 94 fe 79 3e aa a1 7c be d7 0a a6 3e 94 cc e5 3d
       0.2441352 -0.24671045 0.32430145 0.11220661
0000c0 c4 79 5a 3e e9 01 aa be 5f 65 ed be 9c a2 34 be
       0.21335512 -0.33204582 -0.46366403 -0.17640156
0000d0 9c 5b c4 be d6 0e d2 3e d8 78 13 3e cc 13 54 3e
       -0.38351142 0.41026944 0.14401567 0.20710677
0000e0 b4 4c e7 3d 74 80 30 3c 7b 15 dc 3e 35 c1 bd be
       0.11293927 0.010772813 0.42985138 -0.37061468
0000f0 66 1b fd 3c f6 b5 b3 be d9 29 10 3e 26 ca 3c be
       0.030896854 -0.35099763 0.14078464 -0.18436489
000100 17 7a f7 3d 17 fa b9 bd 00 83 e0 3e ac ee 9c be
       0.12083834 -0.09080904 0.43849945 -0.30650842
000110 98 15 ad be 07 0b ae be dc 57 fa 3e 1f 3f 53 3e
       -0.33805537 -0.33992788 0.48895156 0.20629548
000120 b5 dc d9 3e 09 1e f0 be 91 84 e7 be f7 9c af be
       0.425512 -0.46897915 -0.45218328 -0.34299442
000130 c8 16 c8 be 08 0b 23 3e 24 6f 70 3e 4a d6 ed 3e
       -0.3907988 0.15922177 0.23479897 0.46452552
000140 74 34 84 be aa 84 ae be f8 d3 87 3e e4 f3 4e be
       -0.2582127 -0.3408559 0.26528907 -0.20210224
000150 33 e0 a1 3e d8 8b ec bd 37 85 92 3e d4 8d c1 be
       0.31616363 -0.115501106 0.2861726 -0.3780352
000160 a4 a6 91 be b7 17 f1 3d 77 f1 fe 3d 0c 6c ed bd
       -0.2844745 0.11772101 0.124483995 -0.11592874
000170 e8 65 9b 3e af fc b9 3e 67 42 bc be d5 15 93 be
       0.30351186 0.36325595 -0.3676941 -0.28727594
000180 ac 70 fc 3e e8 7b 09 be c5 66 58 be 30 9a 04 bf
       0.49304712 -0.13426173 -0.21132953 -0.5179777
000190 b3 bb ac be 97 87 26 3e 17 fd 12 bd f8 7d cd be
       -0.33736953 0.16262661 -0.035885897 -0.4013517
0001a0 40 28 40 3c 6e de ae be 86 30 d9 be 3a f8 8c be
       0.011728346 -0.34154075 -0.42419833 -0.27533132
0001b0 08 72 e3 be 17 19 a6 be a6 8f f7 3e a4 d5 99 3d
       -0.44422936 -0.32441017 0.48351783 0.07511452
0001c0 1c c7 1d 3e 66 c4 ee be 54 22 a8 be 14 6c 2a be
       0.15407985 -0.46634215 -0.3283869 -0.16642791
0001d0 f3 23 c7 3d 4b a2 d9 be 8c 51 68 be e8 5d 9f be
       0.09723654 -0.42506632 -0.22687358 -0.31126332
0001e0 5c b2 ec 3c de c9 28 be 51 95 64 bd c1 c7 b7 be
       0.028893642 -0.16483256 -0.05580646 -0.35894588
0001f0 c3 1b cd be a7 78 9d be b9 74 00 be a6 89 c6 be
       -0.40060243 -0.30756113 -0.12544526 -0.38776892
000200 5a 4d c6 3e 5f 8b d9 bd 9e 9b e9 3e 36 c3 29 3e
       0.3873089 -0.10622286 0.4562654 0.16578373
000210 47 52 ec be 40 cb cd 3e 35 8e 08 be 4c 87 7b be
       -0.46156523 0.4019413 -0.13335498 -0.2456333
000220 77 0d e4 be 7d 4c 05 bf 5e 19 20 3e 03 9f d9 bd
       -0.44541523 -0.52069837 0.15634677 -0.10626032
000230 24 9e 54 3e 6a 72 d1 be a5 a1 b0 3e d0 3f c8 be
       0.20763451 -0.40907604 0.34498325 -0.39111185
000240 d4 45 0a be 9c b7 81 3d c3 11 97 3e d0 54 da 3e
       -0.135032 0.06333849 0.2950574 0.42642832
000250 a0 34 e9 3e f2 fc ca be 88 da 00 3e 78 39 5c be
       0.45547962 -0.39646107 0.12583363 -0.21506298
000260 7e 21 43 bd 72 b7 b7 be 09 68 e5 3e ae a0 c2 be
       -0.047639363 -0.35882145 0.44805935 -0.38013214
000270 d1 25 55 3e c3 8b 22 3e 52 47 5f 3e 33 26 80 be
       0.20815207 0.15873627 0.2180455 -0.25029144
000280 dd 01 f7 3e 15 53 e2 3d b9 8e 3e 3d 79 da e2 be
       0.4824361 0.11051003 0.04652283 -0.44307306
000290 5e 0a 24 3e 62 10 02 be 5d 9b 3d be 9b 99 f0 3e
       0.1601958 -0.12701562 -0.18516298 0.46992192
0002a0 04 e3 eb 3d 5d 3b 9f be 8c 1e 85 be ee 66 c0 bb
       0.11517909 -0.31099978 -0.25999868 -0.005871645
0002b0 c4 f0 8e 3e 54 d5 02 be 32 11 92 be ac 54 2f be
       0.27918065 -0.1277669 -0.28528744 -0.17122144
0002c0 f4 87 dd be 93 e1 2c 3e 4b f8 e0 3e 87 48 eb be
       -0.43267787 0.16882925 0.43939433 -0.4595377
0002d0 d8 2d e7 3d 39 66 9d 3e f8 cc a5 3d 58 24 66 be
       0.11288041 0.30742052 0.08095735 -0.22474802
0002e0 98 39 64 3e a9 96 69 3e c4 ec 5b 3e 70 a1 8b bd
       0.22287595 0.22811379 0.21477038 -0.06817901
0002f0 05 36 23 be 90 7c 66 3d 0d fa a9 bd ff a6 2b be
       -0.15938576 0.056271136 -0.082996465 -0.16762923
000300 76 a6 8d 3e 18 d5 c2 3e 47 66 88 bc a0 94 9f bd
       0.27666062 0.38053203 -0.016650332 -0.0779202
000310 de 29 07 bc 7e ba 63 bd 9e 2e fa 3d 1b e8 12 3e
       -0.008249728 -0.055597775 0.12215923 0.14346354
000320 5f 95 03 bf 53 a0 7d be 77 6d f6 3e 86 7a 83 3e
       -0.513998 -0.2476819 0.4813039 0.25679415
000330 cd b4 95 3b a6 3b 8b be ca ad ab be e8 68 f4 be
       0.0045686723 -0.27193946 -0.33531028 -0.47736287
000340 8c e4 26 be 90 e7 2c 3e 2c 3b a3 3e 98 63 6c 3e
       -0.16298121 0.16885209 0.31881082 0.23084867
000350 b4 ec e9 be 3e 21 92 be 2d 61 6e bd b3 78 fb 3e
       -0.45688403 -0.28540987 -0.058198143 0.49115524
000360 18 21 94 3d d0 97 04 be 7c d2 53 3e e8 02 43 be
       0.07232875 -0.12948537 0.20685762 -0.19044077
000370 64 9b 96 be 00 6c c8 3e 67 fc 81 be c6 59 01 be
       -0.2941543 0.39144897 -0.2538788 -0.12631902
000380 7e ab fe be 52 55 ab 3e 58 f4 c1 3e f4 98 3a 3e
       -0.49740213 0.33463532 0.37881732 0.1822241
000390 04 97 c2 be 10 8d 02 bf 50 de be be 67 7e cc 3e
       -0.3800584 -0.50996494 -0.37278986 0.39940187
0003a0 6c d0 75 3e d6 6c d7 3e 56 1c 86 3e 4c 95 01 3e
       0.24005288 0.42075223 0.26193494 0.12654608
0003b0 80 71 a0 bb 86 b0 c2 be 6c 55 db be 02 73 ef be
       -0.0048963428 -0.38025302 -0.4283861 -0.46767431
0003c0 e4 97 51 3e 28 60 7b be 28 15 ce bd 50 54 93 be
       0.20468098 -0.245484 -0.10062629 -0.28775263
0003d0 8d 5d bf bd ac 6c bd be 3d 92 a9 be ab 97 2d 3e
       -0.09344015 -0.36996973 -0.33119383 0.16952388
0003e0 0d 60 59 be 70 c7 7d 3e 66 e3 cb bd 6e 98 9d be
       -0.21228047 0.2478311 -0.09955482 -0.30780357
0003f0 bd 3a 79 bd 29 05 60 be cb 55 33 be 2a 34 ff be
       -0.060847033 -0.21876968 -0.17513196 -0.49844486

0.bias f4 [128]
000000 d2 77 32 3e 96 4b c3 be 92 fc 9a be 7c d5 d4 be
       0.1742852 -0.38143605 -0.3027082 -0.41569126
000010 c1 3a fe 3e 08 21 f5 be 0a cb e1 3e 03 71 39 3d
       0.496542 -0.47876763 0.4410022 0.045273792
000020 c1 0b cc 3a 11 be c1 3e 25 4f fd bc 16 9a c1 3e
       0.0015567468 0.37840322 -0.030921528 0.3781287
000030 c4 47 da 3e 04 43 de be cb 5b 7d 3e 90 35 15 3e
       0.42632878 -0.43410504 0.24742047 0.14571214
000040 55 10 24 3e b4 a4 f4 3d 9a d5 47 3e dd 24 47 be
       0.16021855 0.11945477 0.19515076 -0.19447656
000050 00 03 83 bd c7 0f ee 3e ea 3a cd 3e cb e1 b3 3c
       -0.063970566 0.46496412 0.4008401 0.021958252
000060 12 6e e1 be 78 93 9b 3d 48 54 ae be 02 8f f1 3e
       -0.4402929 0.07596487 -0.34048676 0.4717942
000070 14 6a 9b be c3 c5 4d bd 9f f2 de bd 98 a6 1e 3e
       -0.3035437 -0.05023743 -0.1088612 0.15493238
000080 5a f2 04 3f b0 4b e3 3d 89 62 b5 3e c2 02 dc 3e
       0.519323 0.110984206 0.3542674 0.42970854
000090 16 45 f0 3e e8 d1 30 be 2a 59 cc bd 7e ae 99 3e
       0.46927708 -0.17267573 -0.09977944 0.3001594
0000a0 83 b4 2a be 62 45 99 3e da ae 84 bd f2 a1 ad be
       -0.16670422 0.29935747 -0.06478663 -0.33912617
0000b0 9e 8e 89 3e be 17 10 3e 3f 0d 93 3e c5 98 0f 3f
       0.2686662 0.14071557 0.28721043 0.5609248
0000c0 56 1e cd 3e 10 77 09 3f 02 60 bb 3d 4f 3e cd be
       0.40062207 0.536973 0.091491714 -0.400866
0000d0 4a 97 b3 be a7 01 ae be 7e 99 e1 be 1a 36 6f be
       -0.35076362 -0.33985636 -0.44062418 -0.23360482
0000e0 54 aa eb be aa ab e3 be 56 f9 98 be 9c 5f fc be
       -0.46028388 -0.44466907 -0.29877728 -0.49291694
0000f0 d0 22 9d be 4e db 68 3e 76 1a ee 3e d1 4b 10 be
       -0.30690622 0.22739908 0.46504563 -0.14091422
000100 a5 76 b8 bd 12 64 a7 3e 44 92 67 be cf 58 69 be
       -0.09007005 0.32693535 -0.2261439 -0.22787784
000110 3f eb be 3e a5 29 d9 be 56 36 bf 3d f5 38 f3 3e
       0.37288854 -0.42414585 0.09336536 0.47504392
000120 77 63 0c 3e 89 4e 38 3e 96 17 95 be 05 ce 36 bd
       0.13709818 0.17998709 -0.29119557 -0.04463007
000130 94 2f b1 3d 1e 39 3e 3e a1 03 85 3e 2b 5f ff 3e
       0.08651653 0.18576476 0.2597933 0.49877295
000140 a8 f6 ab be 14 6e 0b 3d ad aa 52 be 2a 83 ca be
       -0.3358662 0.034040526 -0.2057292 -0.39553195
000150 69 e2 62 bd d5 d3 d8 be 72 03 d4 3e 30 e7 cb 3d
       -0.055391703 -0.42349115 0.4140888 0.09956205
000160 28 f9 89 be 6a 13 a7 3e 1a 49 f2 be 54 d3 3d be
       -0.26947904 0.32632 -0.47321397 -0.18537647
000170 a5 b6 d1 bd 3c 89 d9 be 7d 13 9a be 67 8d 91 bd
       -0.10239915 -0.42487514 -0.30092993 -0.071070485
000180 c9 38 dc 3e 4d 56 09 3f dc e9 ba 3e 76 4e 94 be
       0.43012074 0.5364731 0.36506546 -0.2896611
000190 0a 7b a7 be c6 23 00 3f 8e 9d 78 3e 06 45 9f 3d
       -0.3271106 0.50054586 0.24278852 0.07776837
0001a0 87 ee 01 3e 0b 47 ca be 09 98 48 be c2 e3 0b 3f
       0.12688647 -0.39507326 -0.19589247 0.54644406
0001b0 33 83 ce bd 58 a3 96 bc 94 90 d4 be cc 3d 86 be
       -0.10083618 -0.018388435 -0.41516554 -0.26219022
0001c0 96 f1 b2 3c 4e 04 9f be 90 86 0d bd 60 4d 84 3e
       0.021843713 -0.31057972 -0.034552157 0.25840282
0001d0 d4 69 fa be 6c 52 38 3e c7 64 a0 be dc f3 62 be
       -0.48908865 0.18000191 -0.31326887 -0.22163337
0001e0 86 96 83 3e 92 3e ec 3e 1c ef 0b be 1c 36 52 be
       0.25700778 0.46141487 -0.13665432 -0.20528454
0001f0 85 ec e8 be 91 8b 6b be f6 29 dc be f9 59 d5 bd
       -0.4549295 -0.23002459 -0.43000764 -0.104175515

2.weight f4 [128, 128]
000000 7c c0 93 3c b6 97 a9 bd e9 0c 9e 3d c6 23 63 3d
       0.01803612 -0.0828089 0.07717306 0.055454038
000010 48 35 b1 bd ef eb 2c bd 5c 29 ec 3c c4 c4 94 bc
       -0.08652741 -0.04221719 0.028828315 -0.018160231
000020 98 d0 1d bc 54 77 23 bd f5 65 91 3d 04 61 4a bd
       -0.009632252 -0.039908722 0.07099525 -0.049408928
000030 79 1d 96 3d 60 e0 ba 3b 28 8e 91 3c 0d 38 8d 3d
       0.0732984 0.005703017 0.01776798 0.068954565
000040 28 9b 6e bc d2 1f 4e bd 58 37 6a bc fb d0 92 3d
       -0.014563359 -0.050323315 -0.014295422 0.07168766
000050 66 50 86 bd f4 59 a4 3c 7d e7 b1 bd 52 d1 3d 3d
       -0.065583035 0.020062424 -0.08686731 0.0463422
000060 f8 c2 05 3d e0 8f 75 3b 6e 62 1b 3d 00 7c d0 38
       0.03265664 0.003746979 0.037935667 9.94131e-05
000070 ca 55 48 3d 72 4c 8f bd 48 aa 54 bc 0a 9b 20 3d
       0.04890994 -0.06997003 -0.012980051 0.039210357
000080 19 43 b4 3d 5e 6b 38 3d f4 a1 83 bd ad 38 8b 3d
       0.0880186 0.04502427 -0.064273745 0.067979194
000090 cc 77 a1 bc d8 99 9a bc bd 87 a4 bd d8 f5 63 bc
       -0.019710444 -0.018872187 -0.080337025 -0.013913594
0000a0 31 0a 80 3d 08 f0 49 3c f0 de 52 bd 38 e1 de 3c
       0.06251944 0.012325294 -0.05148214 0.027207002
0000b0 dc 2b e8 bc 03 45 a5 3d d7 1d 9d bd e4 b7 e4 bc
       -0.028341226 0.080698036 -0.07671707 -0.027919717
0000c0 98 c9 ae bd ee 94 0e bd 80 43 e4 3c 7b 40 ae 3d
       -0.08534545 -0.03481 0.027864218 0.085083924
0000d0 58 36 73 3c bf 76 b1 3d d4 aa 8d 3c 22 17 51 3d
       0.0148444995 0.08665227 0.017293371 0.05104745
0000e0 c9 1d 91 3d 7b 51 97 3d 42 a4 4a bd 67 6d a6 3d
       0.07085759 0.07388588 -0.049473055 0.081263356
0000f0 7e 4f 5b 3d 1c 48 29 bd 1d c4 2c bd 4b d4 97 bd
       0.053542607 -0.041328534 -0.042179216 -0.074135385
000100 c0 d7 b5 3c 9f b9 92 bd 1e ef 18 3d 74 a9 e4 3c
       0.022197604 -0.07164311 0.037337415 0.027912833
000110 1e 45 9d bd cc 4f c5 3c f0 8e eb bb be 62 25 3d
       -0.07679199 0.024085902 -0.0071886703 0.04037737
000120 ea bb 4f 3d a0 f5 b3 bd 3b 03 a6 3d 77 cf 97 3d
       0.05071632 -0.087870836 0.08106085 0.07412618
000130 9c 0c 10 3d d3 71 a5 bd e6 53 01 bd 14 d8 d1 bc
       0.035168275 -0.08078351 -0.031574152 -0.02561573
000140 1c 16 ba bc 76 29 4c 3d 6a a0 03 3d 55 66 8f 3d
       -0.02271562 0.049844228 0.032135405 0.0700194
000150 85 97 07 bd 48 ae f3 3c c4 cf 00 3d 0c b7 96 bd
       -0.033103485 0.02974619 0.03144814 -0.07359132
000160 a4 97 af bd a0 db 3b bd 2e d5 77 3d 22 6c aa bd
       -0.08573845 -0.045863748 0.06050604 -0.08321406
000170 bb 90 9d bd 72 d0 4a 3d 92 54 43 3d 75 de 94 3d
       -0.07693621 0.049515195 0.047688074 0.07268993
000180 94 a8 88 bd ee 7c 84 bd 92 b8 39 3d 7d 6b 9d 3d
       -0.06672779 -0.06469141 0.045342036 0.076865174
000190 2e 9f 58 3d 40 db 62 3c 38 a3 ee 3c 6f cf ab 3d
       0.05288618 0.013846219 0.029130563 0.08389174
0001a0 c3 96 69 bd ad 5e 24 bd ee 3b 7d 3d a0 b8 77 bd
       -0.057028543 -0.040129352 0.06182473 -0.060478806
0001b0 f7 a1 47 bd 7b 24 84 3d 60 76 e4 3c 7c ed e9 3c
       -0.048738446 0.064522706 0.027888477 0.028555624
0001c0 55 72 19 bd c0 e1 9f ba c1 ac a5 3d 89 4d 59 bd
       -0.03746255 -0.0012198016 0.08089591 -0.05305246
0001d0 00 2c 36 3a 76 2f 2c 3d 87 ef 79 bd 41 cd af 3d
       0.00069493055 0.04203745 -0.061019447 0.08584071
0001e0 db e0 34 bd 88 e0 ad bc f0 e9 c3 bc fc ec 6b bd
       -0.04415975 -0.021225229 -0.023915261 -0.057599053
0001f0 bc a0 b1 bd d6 22 4c 3d 5c 5e c0 3c f8 8a a9 bd
       -0.08673236 0.04983791 0.023482494 -0.08278459
000200 c2 a1 87 bd e9 e9 b2 3d 46 62 0a 3d 1e 44 11 3d
       -0.0662265 0.08736021 0.033785127 0.035465352
000210 43 bf 98 bd 62 b7 1e bd 3e 1f 12 bd 4a 58 22 bd
       -0.07458355 -0.038749106 -0.035674326 -0.03963498
000220 1f 16 78 bd f2 e4 78 bc e0 ed 0f 3c ce 62 88 bc
       -0.06056797 -0.015191304 0.008784741 -0.016648676
000230 37 a4 20 bc 87 7e 0f bd ca e3 69 39 06 df 39 3c
       -0.009804777 -0.035032775 0.0002230547 0.011344677
000240 04 30 8e bd 0f ba c4 bd 80 47 c3 3c 14 b8 ac 3c
       -0.06942752 -0.096058 0.023837805 0.021083869
000250 e6 20 38 bd 4f bb 80 3d a4 df 7e bd 0b cc 16 3d
       -0.04495325 0.06285726 -0.062225 0.036815684
000260 49 be 9b 3c 99 a7 c6 bd 62 7e 69 3d c6 9e 82 bd
       0.019011633 -0.096999355 0.057005294 -0.0637794
000270 22 93 48 bd 21 18 1a bd 69 49 aa bd 8d 61 82 3d
       -0.04896844 -0.037620667 -0.08314783 0.063662626
000280 72 a9 18 bd ef 42 45 3c 30 fe c4 bd 74 51 ea 3c
       -0.03727097 0.012039884 -0.09618795 0.028603293
000290 8e 6e ce bc 3a b2 89 bd 71 05 43 bc a5 e2 a4 3c
       -0.025199201 -0.06723447 -0.011903153 0.020127604
0002a0 98 6c 5a 3d 33 00 55 bd 29 29 32 bd 94 36 8b 3c
       0.05332622 -0.052002143 -0.043496285 0.016993798
0002b0 a3 59 a2 3a 57 64 33 3c a6 b9 d5 3c 2f 8a 2d bd
       0.0012386333 0.010949216 0.0260895 -0.04236811
0002c0 20 7c da 3c d7 38 36 3d 01 10 01 bd 01 2e 1f 3d
       0.026670516 0.0444878 -0.031509403 0.038862232
0002d0 7a e2 30 3d 29 ab 9f 3d b4 bc 4d bd 0d 9e 8d bd
       0.043184735 0.07796318 -0.05022879 -0.069149114
0002e0 e4 5b d1 bc 40 eb 92 3b 96 4b 59 3d a2 ac 4e bd
       -0.025556512 0.0044836104 0.0530506 -0.050457604
0002f0 8e 41 35 3d a1 61 a6 bc 0f 61 fd 3c 8c 49 e2 bc
       0.04425197 -0.020310225 0.03093007 -0.02762296
000300 b3 96 9e bd c5 d9 90 bd 79 bf b8 bd 62 e7 98 3c
       -0.07743587 -0.07072786 -0.090208955 0.01866502
000310 1a 94 a7 bd 63 23 03 bd ae b5 63 bb 53 b8 ed bc
       -0.08182545 -0.03201617 -0.003474574 -0.029018557
000320 84 8c 45 3b 52 51 dc bd 57 85 81 bd 28 1b d2 bd
       0.0030143568 -0.10757698 -0.06324261 -0.10259086
000330 c3 4e 4d bd ae f4 1c bd cf 05 01 bb a9 e3 1d bd
       -0.05012394 -0.038319282 -0.00196873 -0.03854719
000340 1a 30 2a 3d 98 43 6e 3d 72 e5 01 3d a8 a1 0e bd
       0.04154978 0.05816993 0.031712957 -0.034822136
000350 50 d3 d8 bd b0 cd d3 3b 5f 1f 87 bd 5b c2 15 3d
       -0.1058718 0.006463729 -0.065977804 0.036562305
000360 72 04 72 3d b2 a4 16 3d 35 da a9 3d 54 44 77 3d
       0.05908627 0.03677816 0.08293573 0.060367897
000370 e8 50 99 3c b8 e5 83 bd d3 df 60 3d 2b c9 2b bd
       0.018715337 -0.064403 0.054900955 -0.041939896
000380 09 c8 83 bd 14 ea 53 3d 87 69 3c 3d c1 08 9d 3a
       -0.06434638 0.051736906 0.045999076 0.0011980758
000390 40 8d b5 3b c6 7b c5 bd c0 d1 02 bd fc 1b 7c 3d
       0.00554052 -0.096427485 -0.031938314 0.061550125
0003a0 ae d0 ad b9 f0 f9 f7 3b c0 44 2a bd 86 f7 58 bd
       -0.0003315261 0.0075676367 -0.04156947 -0.05297043
0003b0 86 c8 57 3d 70 9c b2 3b 72 88 6b 3d 24 29 80 bc
       0.05268147 0.0054507777 0.05750317 -0.015644617
0003c0 0b 13 80 3c 4c 70 15 3d fd 74 11 bc af 4d 06 3d
       0.01563408 0.036484048 -0.00887799 0.03278893
0003d0 ba de 62 3d c2 ce 8a 3d cf 29 8b 3d e8 24 b9 bc
       0.05538819 0.06777717 0.06795084 -0.022600606
0003e0 13 6d be bd a4 2e a4 bb 00 3d 4a ba 94 db bc bc
       -0.09298148 -0.005010443 -0.0007714778 -0.023053922
0003f0 11 8c 1e bd c0 38 88 3b 6a 27 23 3d c6 cc 89 3b
       -0.038707796 0.0041571558 0.03983251 0.004205319

2.bias f4 [128]
000000 58 71 56 bc e8 c0 03 bd 84 d9 83 bd 27 7c ba bc
       -0.013088547 -0.03216639 -0.06437972 -0.022764279
000010 4f d3 14 3d 30 f6 c5 bd 92 49 92 3d ad ca 96 3d
       0.036334332 -0.09666097 0.07142939 0.07362876
000020 af fc b4 3c ef 24 b6 3c d8 f8 c3 bc 2e 2c d3 bc
       0.022093145 0.022234408 -0.023922369 -0.025777902
000030 4c 92 9a bd 0b 35 2f bd cf b3 a2 3d a4 6c b8 3d
       -0.07547435 -0.042775195 0.07944452 0.090050966
000040 7e f0 e4 3d cb eb cb 3b 04 c8 a7 3d e9 25 7e bd
       0.11178683 0.006223177 0.08192447 -0.062047873
000050 a4 c8 13 bb 19 7b 33 bd db 38 76 bd 56 f2 09 3c
       -0.002255001 -0.043818567 -0.060112815 0.008419594
000060 cd 51 50 3c fb 33 ef 3d c9 50 db 3d 24 28 8d 3c
       0.012714815 0.11679836 0.10708768 0.017231055
000070 b7 93 a6 3d f8 d9 dd 3c ce 2c ab bd c4 96 aa 3c
       0.08133643 0.027081475 -0.08358155 0.020823844
000080 54 06 a0 bd 70 13 e4 3b ef 43 a3 3b ab 2c e4 3d
       -0.07813707 0.006960325 0.0049824635 0.11141332
000090 43 61 f8 3d 4a 4a 4d bd 69 49 9e 3d 81 05 53 3d
       0.12127926 -0.050119676 0.077288456 0.05151892
0000a0 ea b5 d4 3c 0b cd 81 bc 98 8e 31 3c 14 7d 9c 3d
       0.02596565 -0.015844842 0.01083722 0.07641044
0000b0 72 2d da bb 0a 7c 5f 3d 7a a6 08 3e 13 4a 3e bd
       -0.0066582495 0.054561652 0.13344756 -0.04645736
0000c0 f1 2a 6a 3d ad 9a b0 bd fc f3 7d bc 1f 6e c4 3d
       0.05716986 -0.08623252 -0.015500065 0.095913164
0000d0 53 98 7d 3d 78 e1 0a 3e 38 33 ee 3d ed 32 cb bc
       0.061912846 0.13562572 0.11630863 -0.024804557
0000e0 35 e4 16 3e 40 e9 81 bd 14 f1 86 3c 97 94 b6 3b
       0.14735492 -0.06343317 0.016472377 0.0055719125
0000f0 26 72 01 3e bd 21 96 3d ab c7 d0 3d 72 71 6c 3c
       0.126412 0.07330654 0.10194334 0.014431344
000100 84 bc 03 3e ed d5 f8 3d d9 b8 70 3d de 19 fe 3d
       0.12864882 0.12150178 0.058770034 0.124072775
000110 d0 b3 66 3c c9 07 e0 bc 73 55 8e 3c c8 d3 56 bc
       0.014080957 -0.027347462 0.01737473 -0.013112016
000120 6a f5 d6 3c 40 e6 ea 3b 80 62 1a ba 91 bc 78 bd
       0.02624007 0.007168561 -0.00058893114 -0.060726706
000130 e9 33 90 bd bc f2 8d 3d fe e9 2e bd b5 26 17 bc
       -0.07041151 0.069310635 -0.04270362 -0.009225537
000140 0d 3b 84 3d 1a fc 39 3d 27 b9 26 3d 42 a4 d8 3d
       0.064565755 0.04540644 0.04070392 0.10578205
000150 4e fb d1 3d c4 61 92 b9 b2 13 8e 3d 5d 5c 96 bd
       0.10253011 -0.0002792013 0.0693735 -0.07341836
000160 aa 9a 6a bd 81 51 67 bc 61 f8 99 3d 95 5f 0b 3d
       -0.057276405 -0.014118553 0.07518078 0.0340267
000170 2b fe 99 3c 9b 35 1e 3d 00 91 cf bd 41 a7 ac bd
       0.018797955 0.03862534 -0.101350784 -0.08430339
000180 25 4c 91 3c 1b fe 60 bd 53 b4 51 3d 55 1e 8b bd
       0.017736504 -0.054929834 0.05119736 -0.06792895
000190 4b 7e 11 3e 66 ea 9d bd 65 85 d6 3d 32 0c 91 3d
       0.14208333 -0.077107236 0.10474662 0.07082404
0001a0 44 15 8e 3c 44 35 78 3d 6e 43 37 3d 4b 7a 95 bd
       0.017344125 0.060597673 0.04474204 -0.07298716
0001b0 0a 43 3c bd c1 f4 f3 3d cc 59 b2 bc a9 95 25 bc
       -0.04596237 0.119119175 -0.021771334 -0.010106483
0001c0 43 4e c9 3d 2a 5c 98 3d 59 79 78 3c c7 1e 01 3e
       0.0982938 0.07439454 0.01516565 0.12609397
0001d0 cd 84 04 3c b0 20 e9 3c c1 39 28 bd e7 05 ed 3c
       0.008088303 0.02845797 -0.041070703 0.028933479
0001e0 72 da 3e 3d d7 00 e2 3d ad b3 5e 3d 3e eb c4 3d
       0.046595044 0.110353164 0.05437057 0.096151814
0001f0 97 b4 c0 bc 48 64 af 3d 7b 0f 03 3e 55 73 a1 3d
       -0.023523612 0.08564049 0.12798874 0.07883326

4.weight f4 [2, 128]
000000 30 af b6 bb ca b1 21 bd 4b dc 3a bd 48 d7 d7 3d
       -0.005575083 -0.039476193 -0.045620244 0.105391085
000010 95 1e 44 bd fa 2b 0a bd 1a 55 dd 3d 10 38 07 bd
       -0.047880728 -0.033733346 0.108072475 -0.03301245
000020 ba c1 32 bd 5f d0 68 3d 86 40 1c 3d ee 55 77 bd
       -0.043641783 0.056839343 0.03814747 -0.060384683
000030 50 24 39 3c a1 98 8b bd 0d 95 cc 3d 2e 31 e4 3d
       0.0113001615 -0.06816221 0.09989367 0.11142193
000040 46 6d bb 3d 1d 16 19 3e 2c 1d 41 3d bc 3d c6 bc
       0.09151702 0.14949842 0.04714696 -0.02419936
000050 48 71 b2 3d 11 6b 0b 3d 56 ca 21 bd 9a d6 55 bd
       0.08713013 0.034037653 -0.039499603 -0.052206613
000060 41 66 d8 3c 83 79 cb 3d 50 81 d0 3d 49 53 20 bd
       0.026415946 0.09935286 0.101809144 -0.039141927
000070 f2 0e 0a 3e 50 8a 86 bd f0 11 28 bc aa ac aa 3d
       0.13482264 -0.0656935 -0.010258183 0.08333714
000080 f3 4d 6c bd b4 8b 12 3e 96 5d 63 bb e1 75 e0 3d
       -0.057691526 0.14311105 -0.0034693233 0.109599836
000090 35 90 81 3d bb 95 19 bd 74 c7 12 3e 78 b4 1a 3d
       0.063263334 -0.03749631 0.14333898 0.037769765
0000a0 45 d7 94 3d f5 2d 16 3e c2 77 aa bd c6 e9 05 3e
       0.07267622 0.14665969 -0.08323623 0.13077459
0000b0 db 41 bf bc 0a 24 47 bd 63 77 e2 3d a4 68 f0 3c
       -0.023346832 -0.048618354 0.110579275 0.029346772
0000c0 30 80 80 bd ca 7c fd 3a ec e7 ec 3d ca dc cf 3d
       -0.0627445 0.0019339558 0.11567673 0.10149534
0000d0 fd f4 71 3d cb 8b d9 3d 7e 76 a5 3d 56 89 87 bd
       0.05907153 0.106223665 0.08079241 -0.066179916
0000e0 70 2f a4 3d 9f e5 80 3d a0 b5 07 bc 25 9e 1c 3c
       0.080168605 0.06293797 -0.008283049 0.009559189
0000f0 85 8e 17 3e de 66 55 bc 2f 3a 15 3e 08 94 0f 3e
       0.1480046 -0.013025014 0.14572977 0.14021313
000100 0e 36 09 3e 6b 04 a9 3d da eb b3 3d a2 4d ac 3d
       0.13399526 0.08252796 0.087852195 0.08413245
000110 10 ed a5 bd 0b 17 85 bc 88 45 25 bd 7b 12 19 bb
       -0.08101857 -0.01624634 -0.040349513 -0.0023356962
000120 bd 4b ae 3c 79 d4 bc bc 68 80 76 bd 13 a1 83 bd
       0.02127635 -0.023050534 -0.06018105 -0.06427207
000130 ec 0b ea 3c e2 56 18 3e 25 aa f1 bc 38 f8 45 bd
       0.028570138 0.14876893 -0.029500077 -0.048332423
000140 d4 b7 0e 3c 64 ac 9c bc 8c 0d a4 bd 68 53 10 3e
       0.00871082 -0.019125171 -0.08010396 0.14094317
000150 3b f6 f3 3d 68 0f 01 3e 3e e5 33 bc fa 3b 50 bd
       0.11912199 0.12603533 -0.010979949 -0.050838448
000160 bd 83 ad 3d 36 d5 af ba a9 a9 85 bd 3e 78 7c bd
       0.08472393 -0.0013414982 -0.06526501 -0.06163811
000170 aa aa 06 3d af 17 c2 3c 28 0f 02 bd 2f 24 9a 3d
       0.0328776 0.023692934 -0.031752735 0.07526433
000180 ec 0a 83 bc 2c 1c 17 3d 56 80 cb 3d ca 3e 2d 3d
       -0.015996419 0.0368921 0.099365875 0.04229621
000190 13 5d 0b 3e c8 69 33 bc 47 27 dd 3d 5f 95 34 3d
       0.13609724 -0.010950513 0.10798507 0.044087764
0001a0 ad 51 9c 3d c5 a8 eb bc a2 72 dc 3d 4b 42 5e 3d
       0.07632766 -0.028766999 0.10764052 0.05426244
0001b0 a8 24 91 3c 38 a2 65 3d 00 84 12 3d d7 26 91 bd
       0.017717674 0.056062907 0.035770416 -0.07087486
0001c0 f4 c8 09 3e 98 1e 07 3e 96 b6 df 3d 68 7b 76 3d
       0.13455564 0.13195264 0.109234974 0.060176283
0001d0 85 2d 87 bd 24 27 c4 bc 00 6e 91 bd 3c dd ff bc
       -0.06600479 -0.023944445 -0.07101059 -0.031233422
0001e0 c3 b3 07 3e 84 1a 52 3d e1 2f e3 3d e0 87 f0 3b
       0.13252167 0.05129482 0.110931166 0.0073404163
0001f0 de 6f fc bc ac 03 90 bc 33 ec c5 3d 26 61 c4 3d
       -0.030815061 -0.017579876 0.09664192 0.09588842
000200 ea d1 36 3d 8b 95 70 3d ae ab 59 3d 2a 58 7c bd
       0.044633783 0.058736365 0.053142242 -0.061607517
000210 0a 5c 09 bc 88 60 88 3d 01 f3 d5 3d 26 5f 39 3d
       -0.00838376 0.06659037 0.1044674 0.045256756
000220 f7 06 b0 bd 78 0c 81 bd 0f 7b ae 3d b1 d9 51 bd
       -0.085950784 -0.06301206 0.08519565 -0.051232997
000230 38 83 f7 3c b8 b5 c3 bc 5b f4 51 3c f8 85 c2 3d
       0.030213937 -0.023890361 0.012814607 0.09498209
000240 e2 d9 13 3e f0 60 90 3b 9d ff d2 3d f1 da c1 3c
       0.14438584 0.004406087 0.103026606 0.02366397
000250 71 f9 24 3d 25 60 08 3c b0 94 f0 3c 9a bd 93 3d
       0.04027695 0.008323704 0.029367775 0.07213898
000260 51 d7 a8 bd 03 c9 e4 3d 34 c7 b6 3c 14 cd 0e 3d
       -0.08244193 0.111711524 0.022311784 0.034863546
000270 90 ad 5f bc b6 52 73 3d 51 90 98 3d 8a 88 a2 3d
       -0.01365222 0.05940505 0.07449401 0.07936199
000280 a2 cc 55 bb 0e 27 99 3d 6d 4e f3 bd 17 22 da bc
       -0.0032623191 0.07478152 -0.11880193 -0.026627583
000290 f3 2a 03 3e 43 97 88 bd 30 eb 14 3d 7b 5f d4 bd
       0.12809353 -0.06669476 0.036357105 -0.10369774
0002a0 7f a1 fc bd 8a ce 7d 3a 00 04 3b ba c4 b5 16 bc
       -0.123354904 0.0009681961 -0.000713408 -0.00919861
0002b0 06 1f a3 bd 89 c1 89 bd e7 24 57 3d a2 9d 96 bd
       -0.079649016 -0.06726367 0.052525427 -0.07354285
0002c0 be 41 64 3d e6 3f db bd 62 3c c2 bc f4 69 01 3d
       0.05572676 -0.10705547 -0.023710433 0.031595185
0002d0 39 18 1c 3e c0 70 0d 3e 2b a1 48 3d 30 81 94 bc
       0.15243615 0.13812542 0.048981827 -0.018128008
0002e0 9d 54 6b 3d a0 63 73 3b 38 20 08 3c e3 ac 2e bd
       0.05745374 0.0037138239 0.008308463 -0.042645346
0002f0 f4 7a 57 3d 23 82 91 3b 92 39 eb 3d 40 d5 99 3b
       0.05260749 0.0044405623 0.1148559 0.004694611
000300 6e d3 1d 3d 30 9b d8 3d ef 50 d9 3d 9c be e0 3d
       0.038531713 0.10576475 0.1061114 0.10973856
000310 b8 9d af bc da ce a5 3c 5e db ca bc 7e 11 83 3d
       -0.02143751 0.020240236 -0.024762806 0.06399821
000320 eb 16 ee 3d 46 ea 97 bd f6 da 2f 3d 73 b3 b1 3d
       0.11625465 -0.07417731 0.042933427 0.08676805
000330 91 66 93 3c 9f ad 0d bd 25 71 52 3d 0d 96 a2 bb
       0.017993243 -0.034589406 0.051377434 -0.004961735
000340 5f 10 89 bd 5d bc b2 3c c0 97 7d 3d df 3a ba 3d
       -0.06692576 0.021818334 0.0619123 0.0909326
000350 f6 72 86 bc a1 59 c4 3d 10 b4 c1 bd 9f 50 9a bd
       -0.01641224 0.09587408 -0.09458172 -0.075349085
000360 6d 90 33 bd 8f ac bc 3d 6e 42 93 3d 3e f3 c1 3c
       -0.043838907 0.092126004 0.07190405 0.023675557
000370 e8 0d 46 3d 6e 78 da bd 35 57 95 bd cc 91 4e bd
       0.048353106 -0.106675014 -0.07292024 -0.05043201
000380 83 60 ee bd 1a c1 84 bd ea fd b5 bd 0e af 8c bd
       -0.11639502 -0.06482144 -0.08886321 -0.068693265
000390 41 53 89 3d 87 bf 28 bd 91 2c 37 3d c0 ff c6 3c
       0.067053325 -0.04119828 0.044720236 0.024291873
0003a0 c8 06 2c 3d c5 08 d6 bd 8b cd 92 bd 2d d0 b4 bd
       0.041998655 -0.104508914 -0.071681105 -0.08828769
0003b0 d5 7a 63 3d 30 b4 88 3d ae 12 9a bd 71 01 39 bd
       0.055537064 0.06674993 -0.07523094 -0.04516739
0003c0 b4 6d 3f 3d ff e3 1c bd 22 7b 06 3e 05 d2 02 3e
       0.04673548 -0.03830337 0.13132909 0.12775429
0003d0 78 f9 20 3d f0 5f 79 bc aa 92 52 3d 9c 6c 11 3d
       0.039300412 -0.015220627 0.0514094 0.03550397
0003e0 62 d5 3a 3d b8 c7 99 3d 75 d0 bb bd cd 64 ad 3d
       0.045613654 0.075087965 -0.091706194 0.08466492
0003f0 1f ec 28 3d 2d bb f0 3d b4 a4 c4 3d 36 f1 0a 3e
       0.041240808 0.11754451 0.09601727 0.13568577

4.bias f4 [2]
000000 b0 7e 4f 3b dd b0 81 3d
       0.0031661205 0.06332562
