checkpoints/dqn/20251120-2108/model_last.pth (torch, 72697 bytes, 6 tensors)

0.weight f4 [128, 4]
0	0x3ecb2780	0.39678574
1	0x3ec6db85	0.38839355
2	0xbdea87a8	-0.114516556
3	0x3ef67684	0.48137295
4	0xbde05cb0	-0.10955179
5	0x3dcea238	0.100895345
6	0xbe794510	-0.24342752
7	0x3e965828	0.29364133
8	0x3eda4563	0.42631063
9	0xbec8a8d6	-0.39191312
10	0x3ee601d6	0.44923276
11	0x3dec0fdc	0.115264624
12	0x3ebd2294	0.36940444
13	0x3d8aae50	0.06771529
14	0x3e76e15c	0.24109405
15	0xbd909460	-0.0705955
16	0x3ec831d1	0.39100507
17	0x3d1d1f37	0.038359847
18	0xbe42c71f	-0.19021271
19	0x3e280f69	0.16412129
20	0xbe660053	-0.22461061
21	0xbd58971b	-0.05287848
22	0xbe55d95f	-0.20883702
23	0x3ea6dff9	0.32592753
24	0xbecb8a2c	-0.39753854
25	0xbe872bea	-0.2640069
26	0xbdc157d1	-0.09440578
27	0xbe872669	-0.26396492
28	0x3c86f9f3	0.016476607
29	0xbef5f355	-0.4803721
30	0x3ef80f81	0.4844933
31	0xbee46fba	-0.4461649
32	0x3ecfd0b4	0.40588915
33	0x3d1eac91	0.03873879
34	0xbe3a4164	-0.18189007
35	0x3eb34f90	0.3502164
36	0x3d2bb8c9	0.04192427
37	0x3ecbb20f	0.39784285
38	0x3dcbfa34	0.09959832
39	0xbe01e607	-0.12685405
40	0x3de8cd8d	0.11367331
41	0xbe145061	-0.14483787
42	0x3e7efc4a	0.24900928
43	0x3ef0da7d	0.47041693
44	0x3e8cf427	0.27530023
45	0xbe7b4898	-0.24539411
46	0x3eabd4b9	0.33560732
47	0x3df27d11	0.11840261
48	0x3e80c578	0.25150657
49	0xbea5cd80	-0.32383347
50	0xbee7e2ff	-0.45290372
51	0xbe28340d	-0.16426106
52	0xbec45b9c	-0.38351142
53	0x3ed20ed6	0.41026944
54	0x3e1378d8	0.14401567
55	0x3e5413cc	0.20710677
56	0x3e04a113	0.1295207
57	0x3b0561df	0.0020352525
58	0x3ee13085	0.4398233
59	0xbea7982c	-0.32733285
60	0x3d474cb2	0.048657127
61	0xbeb6cf5f	-0.35705087
62	0x3e4b82d9	0.19874133
63	0xbe1724de	-0.14760157
64	0x3dfcf586	0.123515174
65	0xbdccef64	-0.10006598
66	0x3eed40c3	0.46338472
67	0xbe86d0f1	-0.26331285
68	0xbe974071	-0.29541352
69	0xbeabfcfa	-0.33591443
70	0x3eedafe6	0.46423262
71	0x3e4c7541	0.19966604
72	0x3ef5b6fa	0.47991163
73	0xbee064c7	-0.43826887
74	0xbee49674	-0.44646037
75	0xbeb855a5	-0.36002842
76	0xbec2b9a5	-0.3803226
77	0x3e3a3d1e	0.18187377
78	0x3e51e016	0.20495638
79	0x3eda3ee5	0.4262611
80	0xbe8c0292	-0.2734571
81	0xbec65b9c	-0.38741767
82	0x3e83610f	0.25659987
83	0xbe2fef17	-0.1718105
84	0x3e91da7f	0.28487012
85	0xbdd897e6	-0.10575847
86	0x3e9dd606	0.3082735
87	0xbecac35e	-0.39602178
88	0xbe8535ce	-0.26017612
89	0x3e0366db	0.12832205
90	0x3e19599c	0.1497559
91	0xbdc0dda1	-0.09417272
92	0x3e9de8ec	0.30841768
93	0x3eb4a4ab	0.35281882
94	0xbeb03f3b	-0.3442324
95	0xbe8e7aba	-0.27828008
96	0x3eed83c5	0.46389595
97	0xbe232da7	-0.15935384
98	0xbe37520a	-0.17902389
99	0xbefc0d76	-0.4922902
100	0xbe8d104e	-0.27551502
101	0x3e0f9d6b	0.14024894
102	0xbd0e6f73	-0.034774255
103	0xbebe15bd	-0.3712596
104	0x3c402840	0.011728346
105	0xbeaede6e	-0.34154075
106	0xbed93086	-0.42419833
107	0xbe8cf83a	-0.27533132
108	0xbed96d6c	-0.42466295
109	0xbeb7306a	-0.35779124
110	0x3f070f5e	0.52757823
111	0x3e0a6dfa	0.13518515
112	0x3e1dc71c	0.15407985
113	0xbeeec466	-0.46634215
114	0xbea82254	-0.3283869
115	0xbe2a6c14	-0.16642791
116	0x3cf6f01a	0.030143786
117	0xbef8e944	-0.48615468
118	0xbe5bf6b8	-0.21480834
119	0xbe81e8b3	-0.25372848
120	0x3b6cd86a	0.0036139735
121	0xbe3e0195	-0.18555291
122	0xbd34f33b	-0.044177275
123	0xbeaeb065	-0.34118953
124	0xbec2a323	-0.38015088
125	0xbe9d857f	-0.30765912
126	0xbdf5ad66	-0.11995964
127	0xbebf2bf3	-0.37338218
128	0x3ed8ecb0	0.42368078
129	0xbda76668	-0.08173829
130	0x3ef0f887	0.4706461
131	0x3e2492cb	0.16071622
132	0xbec7ff60	-0.39062023
133	0x3ec3a712	0.38213402
134	0xbdd19841	-0.10234118
135	0xbe64817f	-0.22315024
136	0xbed3f09e	-0.41394514
137	0xbf0a20aa	-0.5395609
138	0x3e38697e	0.18008992
139	0xbd8bc161	-0.068239935
140	0x3e5be324	0.21473366
141	0xbeda3fee	-0.426269
142	0x3ec3bc5a	0.38229638
143	0xbeb7fcc5	-0.35935035
144	0xbd9b019d	-0.07568667
145	0x3d810291	0.06299318
146	0x3e990e3c	0.29893672
147	0x3ee3d881	0.44501117
148	0x3ee934a0	0.45547962
149	0xbecafcf2	-0.39646107
150	0x3e00da88	0.12583363
151	0xbe5c3978	-0.21506298
152	0xbd438bd5	-0.047740776
153	0xbebbdd38	-0.36692214
154	0x3ee45d4c	0.4460243
155	0xbebfb852	-0.37445313
156	0x3e7c2006	0.24621591
157	0x3e2a0755	0.1660436
158	0x3e57b813	0.21066312
159	0xbe7a7c2e	-0.24461433
160	0x3ee2d8f1	0.44306138
161	0x3dcc3c4e	0.0997244
162	0x3d915e16	0.070980236
163	0xbedba2ff	-0.42897794
164	0x3e608b6a	0.21928182
165	0xbdedf7db	-0.1161954
166	0xbe475552	-0.19466141
167	0x3ef0a93c	0.47004116
168	0x3db265a0	0.0871079
169	0xbea20871	-0.31647065
170	0xbe6ce2bc	-0.23133367
171	0x3c17a8e4	0.009256575
172	0x3e8ef0c4	0.27918065
173	0xbe02d554	-0.1277669
174	0xbe921132	-0.28528744
175	0xbe2f54ac	-0.17122144
176	0xbeca65ac	-0.39530694
177	0x3e43c859	0.19119395
178	0x3ee04e5a	0.43809777
179	0xbeecff31	-0.46288446
180	0x3e25399d	0.16135259
181	0x3e991e15	0.29905763
182	0x3e0d9f59	0.13830318
183	0xbe4504fb	-0.19240181
184	0x3e83f40a	0.25772125
185	0x3e81b327	0.25331995
186	0x3e67b303	0.22626881
187	0xbd821b2f	-0.06352841
188	0xbe134f0d	-0.14385624
189	0x3cb926e3	0.02260155
190	0xbd2ae659	-0.041723583
191	0xbddf0df4	-0.10891333
192	0x3ea0edac	0.3143133
193	0x3ecdf71f	0.402276
194	0xbca8dac0	-0.02061212
195	0xbdb189df	-0.08668875
196	0x3cff26b6	0.031146389
197	0xbd7308b5	-0.059334476
198	0x3e003381	0.12519647
199	0x3e2576e7	0.16158639
200	0xbee62211	-0.44947866
201	0xbe6e266b	-0.23256843
202	0x3edfcf62	0.43712908
203	0x3e77f691	0.24215151
204	0xbc4b4a7f	-0.012407898
205	0xbe940738	-0.28911757
206	0xbea3b024	-0.31970322
207	0xbeebc78a	-0.46050674
208	0xbe26e48c	-0.16298121
209	0x3e2ce790	0.16885209
210	0x3ea33b2c	0.31881082
211	0x3e6c6398	0.23084867
212	0xbed3a6a2	-0.41338068
213	0xbea10ee2	-0.31456667
214	0xbdcad613	-0.09904113
215	0x3efbe0b0	0.4919486
216	0x3d942118	0.07232875
217	0xbe0497d0	-0.12948537
218	0x3e53d27c	0.20685762
219	0xbe4302e8	-0.19044077
220	0xbe98f23f	-0.2987232
221	0x3ec7a9a0	0.389966
222	0xbe7758f9	-0.24155034
223	0xbe0113d9	-0.12605228
224	0xbefeab7e	-0.49740213
225	0x3eab5552	0.33463532
226	0x3ec1f458	0.37881732
227	0x3e3a98f4	0.1822241
228	0xbea5e1a3	-0.3239871
229	0xbf067017	-0.52514786
230	0xbee1035b	-0.43947873
231	0x3ec39422	0.38198954
232	0x3e8548cc	0.26032102
233	0x3ee16362	0.44021136
234	0x3e74c79b	0.23904268
235	0x3dda2e1b	0.10653325
236	0x3a4fba79	0.000792421
237	0xbebfc782	-0.374569
238	0xbede4424	-0.43411362
239	0xbef25d20	-0.47336674
240	0x3e6a2947	0.22867309
241	0xbe62df01	-0.22155382
242	0xbe008316	-0.12550005
243	0xbe9fae3d	-0.3118762
244	0xbdc522a8	-0.09625751
245	0xbec20464	-0.37893975
246	0xbea32626	-0.31865042
247	0x3e3ca84b	0.18423574
248	0xbe250034	-0.16113359
249	0x3e9276be	0.28606218
250	0xbde19cae	-0.110162124
251	0xbea82a9c	-0.32845008
252	0xbd983d05	-0.074335136
253	0xbe65d911	-0.22446086
254	0xbe25070f	-0.16115974
255	0xbefd031d	-0.49416438

0.bias f4 [128]
0	0x3e2b965a	0.16756573
1	0xbec34b96	-0.38143605
2	0xbe948457	-0.29007217
3	0xbed4d57c	-0.41569126
4	0x3efb2a76	0.49055833
5	0xbef55d5b	-0.47922787
6	0x3edcb9e8	0.43110585
7	0x3d1ae66c	0.037817404
8	0xbbe7b88c	-0.0070715602
9	0x3eba447c	0.36380374
10	0xbc08bbf0	-0.008345589
11	0x3ebc2f92	0.36755043
12	0x3ed4fc9c	0.41598976
13	0xbede4304	-0.43410504
14	0x3e736da7	0.23772298
15	0x3e0d1e3b	0.13781063
16	0x3e198c9e	0.14995047
17	0x3de75700	0.11295891
18	0x3e43af31	0.19109799
19	0xbe701c35	-0.2344826
20	0xbc8f0865	-0.017460058
21	0x3eecb70d	0.46233407
22	0x3ec7eea6	0.39049262
23	0x3caa7d18	0.020811602
24	0xbee9d0e0	-0.4566717
25	0x3d878afc	0.06618306
26	0xbeae5448	-0.34048676
27	0x3eec6b3b	0.4617556
28	0xbe9b6a14	-0.3035437
29	0x3c4754f8	0.012166254
30	0xbe019dad	-0.12657805
31	0x3e13c04d	0.14428826
32	0x3f006052	0.50146973
33	0x3dcd9cf9	0.10039706
34	0x3eb00d5e	0.34385198
35	0x3ed6c819	0.41949537
36	0x3eeaae29	0.45836
37	0xbe30d1e8	-0.17267573
38	0xbdddf5d7	-0.10837906
39	0x3e94d40d	0.29068032
40	0xbe036b87	-0.12833987
41	0x3e938cd7	0.2881839
42	0xbd82c5f2	-0.06385411
43	0xbeada1f2	-0.33912617
44	0x3e84111b	0.257943
45	0x3e04f2d1	0.12983252
46	0x3e872cd7	0.26401398
47	0x3f0d15b0	0.5511122
48	0x3ec8f49f	0.3924913
49	0x3f072adf	0.5279979
50	0x3da5cd4c	0.08095798
51	0xbed72bb5	-0.42025533
52	0xbeb3974a	-0.35076362
53	0xbe958b49	-0.2920783
54	0xbee1997e	-0.44062418
55	0xbe6d3195	-0.23163445
56	0xbeebaa54	-0.46028388
57	0xbee0ea89	-0.43928936
58	0xbe9156e8	-0.28386617
59	0xbef97f3b	-0.48729882
60	0xbe91b59a	-0.28458863
61	0x3e60f3d5	0.21968015
62	0x3eebf912	0.46088463
63	0xbe0241d0	-0.12720418
64	0xbdbbe46b	-0.09174427
65	0x3ea212f4	0.31655085
66	0xbe8e28ea	-0.2776559
67	0xbe77f343	-0.2421389
68	0x3eba12c0	0.3634243
69	0xbed9c62c	-0.42534006
70	0x3daf10b4	0.08548108
71	0x3eeee834	0.46661532
72	0x3e038b7c	0.12846178
73	0x3e250351	0.16114546
74	0xbe951796	-0.29119557
75	0xba9399d3	-0.0011261053
76	0x3da4a60e	0.08039485
77	0x3e340a4f	0.17582057
78	0x3e7f25a9	0.2491671
79	0x3efa23c8	0.48855424
80	0xbeb2aedd	-0.34899035
81	0x3d4c5086	0.04988148
82	0xbe5e3a58	-0.21701944
83	0xbeca832a	-0.39553195
84	0xbc855a7c	-0.016278498
85	0xbeeab892	-0.4584394
86	0x3ece6b41	0.40316203
87	0x3dceb798	0.100936115
88	0xbe8bfc26	-0.27340811
89	0x3ea1b06a	0.31579906
90	0xbef2491a	-0.47321397
91	0xbe1cf620	-0.15328264
92	0xbdbbf6cf	-0.091779344
93	0xbed4f7f1	-0.41595414
94	0xbe9724b9	-0.29520205
95	0xbd8ccd6b	-0.06875118
96	0x3ed68b26	0.41903037
97	0x3f080d33	0.5314514
98	0x3eb582e4	0.35451424
99	0xbe9a74e0	-0.30167294
100	0xbea27588	-0.31730294
101	0x3efb033f	0.49025914
102	0x3e6d2b22	0.23160985
103	0x3d85337f	0.06503963
104	0x3df54851	0.11976684
105	0xbed5efcb	-0.4178451
106	0xbe1c2e56	-0.15252051
107	0x3f093193	0.5359127
108	0xbe001a6d	-0.1251008
109	0x3cea46ea	0.028598268
110	0xbed49094	-0.41516554
111	0xbe844584	-0.25834286
112	0x3d2ac5df	0.04169261
113	0xbe9f044e	-0.31057972
114	0xbd5439ac	-0.051812813
115	0x3e7bb304	0.24580008
116	0xbefa69d4	-0.48908865
117	0x3e25710d	0.16156407
118	0xbea12c11	-0.31478932
119	0xbe87b233	-0.26503143
120	0x3e7c8a22	0.24662068
121	0x3ee78944	0.45221913
122	0xbe113b3a	-0.1418275
123	0xbe52361c	-0.20528454
124	0xbee05aae	-0.43819183
125	0xbe52fcd7	-0.20604263
126	0xbeee9403	-0.465973
127	0xbda33bf0	-0.079704165

2.weight f4 [128, 128]
0	0x3c93c07c	0.01803612
1	0xbda997b6	-0.0828089
2	0x3d9e0ce9	0.07717306
3	0x3d6323c6	0.055454038
4	0xbdb13548	-0.08652741
5	0xbd2cebef	-0.04221719
6	0x3cec295c	0.028828315
7	0xbc94c4c4	-0.018160231
8	0xbc1dd098	-0.009632252
9	0xbd237754	-0.039908722
10	0x3d9165f5	0.07099525
11	0xbd4a6104	-0.049408928
12	0x3d961d79	0.0732984
13	0x3bbae060	0.005703017
14	0x3c918e28	0.01776798
15	0x3d8d380d	0.068954565
16	0xbc6e9b28	-0.014563359
17	0xbd4e1fd2	-0.050323315
18	0xbc6a3758	-0.014295422
19	0x3d92d0fb	0.07168766
20	0xbd865066	-0.065583035
21	0x3ca459f4	0.020062424
22	0xbdb1e77d	-0.08686731
23	0x3d3dd152	0.0463422
24	0x3d05c2f8	0.03265664
25	0x3b758fe0	0.003746979
26	0x3d1b626e	0.037935667
27	0x38d07c00	9.94131e-05
28	0x3d4855ca	0.04890994
29	0xbd8f4c72	-0.06997003
30	0xbc54aa48	-0.012980051
31	0x3d209b0a	0.039210357
32	0x3db44319	0.0880186
33	0x3d386b5e	0.04502427
34	0xbd83a1f4	-0.064273745
35	0x3d8b38ad	0.067979194
36	0xbca177cc	-0.019710444
37	0xbc9a99d8	-0.018872187
38	0xbda487bd	-0.080337025
39	0xbc63f5d8	-0.013913594
40	0x3d800a31	0.06251944
41	0x3c49f008	0.012325294
42	0xbd52def0	-0.05148214
43	0x3cdee138	0.027207002
44	0xbce82bdc	-0.028341226
45	0x3da54503	0.080698036
46	0xbd9d1dd7	-0.07671707
47	0xbce4b7e4	-0.027919717
48	0xbdaec998	-0.08534545
49	0xbd0e94ee	-0.03481
50	0x3ce44380	0.027864218
51	0x3dae407b	0.085083924
52	0x3c733658	0.0148444995
53	0x3db176bf	0.08665227
54	0x3c8daad4	0.017293371
55	0x3d511722	0.05104745
56	0x3d911dc9	0.07085759
57	0x3d97517b	0.07388588
58	0xbd4aa442	-0.049473055
59	0x3da66d67	0.081263356
60	0x3d5b4f7e	0.053542607
61	0xbd29481c	-0.041328534
62	0xbd2cc41d	-0.042179216
63	0xbd97d44b	-0.074135385
64	0x3cb5d7c0	0.022197604
65	0xbd92b99f	-0.07164311
66	0x3d18ef1e	0.037337415
67	0x3ce4a974	0.027912833
68	0xbd9d451e	-0.07679199
69	0x3cc54fcc	0.024085902
70	0xbbeb8ef0	-0.0071886703
71	0x3d2562be	0.04037737
72	0x3d4fbbea	0.05071632
73	0xbdb3f5a0	-0.087870836
74	0x3da6033b	0.08106085
75	0x3d97cf77	0.07412618
76	0x3d100c9c	0.035168275
77	0xbda571d3	-0.08078351
78	0xbd0153e6	-0.031574152
79	0xbcd1d814	-0.02561573
80	0xbcba161c	-0.02271562
81	0x3d4c2976	0.049844228
82	0x3d03a06a	0.032135405
83	0x3d8f6655	0.0700194
84	0xbd079785	-0.033103485
85	0x3cf3ae48	0.02974619
86	0x3d00cfc4	0.03144814
87	0xbd96b70c	-0.07359132
88	0xbdaf97a4	-0.08573845
89	0xbd3bdba0	-0.045863748
90	0x3d77d52e	0.06050604
91	0xbdaa6c22	-0.08321406
92	0xbd9d90bb	-0.07693621
93	0x3d4ad072	0.049515195
94	0x3d435492	0.047688074
95	0x3d94de75	0.07268993
96	0xbd88a894	-0.06672779
97	0xbd847cee	-0.06469141
98	0x3d39b892	0.045342036
99	0x3d9d6b7d	0.076865174
100	0x3d589f2e	0.05288618
101	0x3c62db40	0.013846219
102	0x3ceea338	0.029130563
103	0x3dabcf6f	0.08389174
104	0xbd6996c3	-0.057028543
105	0xbd245ead	-0.040129352
106	0x3d7d3bee	0.06182473
107	0xbd77b8a0	-0.060478806
108	0xbd47a1f7	-0.048738446
109	0x3d84247b	0.064522706
110	0x3ce47660	0.027888477
111	0x3ce9ed7c	0.028555624
112	0xbd197255	-0.03746255
113	0xba9fe1c0	-0.0012198016
114	0x3da5acc1	0.08089591
115	0xbd594d89	-0.05305246
116	0x3a362c00	0.00069493055
117	0x3d2c2f76	0.04203745
118	0xbd79ef87	-0.061019447
119	0x3dafcd41	0.08584071
120	0xbd34e0db	-0.04415975
121	0xbcade088	-0.021225229
122	0xbcc3e9f0	-0.023915261
123	0xbd6becfc	-0.057599053
124	0xbdb1a0bc	-0.08673236
125	0x3d4c22d6	0.04983791
126	0x3cc05e5c	0.023482494
127	0xbda98af8	-0.08278459
128	0xbd8affc7	-0.06787067
129	0x3db2e9e9	0.08736021
130	0x3d0a6246	0.033785127
131	0x3d11441e	0.035465352
132	0xbd087f4d	-0.03332453
133	0xbd1eb762	-0.038749106
134	0x3b2d2922	0.0026422222
135	0xbc7a4a88	-0.015276559
136	0xbd9ce7b2	-0.0766138
137	0x3c49595a	0.0122893695
138	0xbbe84c6d	-0.007089189
139	0x3b415dfe	0.0029505487
140	0x3cfc7b10	0.0308204
141	0xbd0f7e87	-0.035032775
142	0x3cecda9f	0.02891284
143	0x3d89bfdf	0.0672605
144	0xbd228d6d	-0.039685655
145	0xbdbaaa64	-0.09114531
146	0x3d584429	0.052799378
147	0x3cacb814	0.021083869
148	0xbd48fa36	-0.049066745
149	0x3dc156e4	0.09440401
150	0xbcf34cb4	-0.02969966
151	0x3d72815d	0.0592054
152	0x3ce24267	0.027619554
153	0xbd955581	-0.07291699
154	0x3d697e62	0.057005294
155	0xbd951012	-0.07278456
156	0xbd489322	-0.04896844
157	0xbcfbaf12	-0.030723128
158	0xbd8b3ef6	-0.06799118
159	0x3dbcf6f5	0.09226791
160	0x3bc71b4a	0.006076251
161	0x3d145304	0.036211982
162	0xbd66c25d	-0.056337703
163	0x3d8b2c8a	0.067956045
164	0xbcdfe56f	-0.027331082
165	0xbd89b23a	-0.06723447
166	0xbc1d04ad	-0.009583634
167	0x3d441c72	0.04787869
168	0x3d9a0164	0.075197965
169	0xbd9cae7e	-0.07650469
170	0xbd322929	-0.043496285
171	0x3c8b3694	0.016993798
172	0x3ce89326	0.028390478
173	0x3d12bba3	0.035823476
174	0x3d5bb584	0.053639904
175	0xbbeee592	-0.0072905505
176	0x3d5ddbc3	0.05416466
177	0x3dbc4616	0.09193055
178	0xbcd8833c	-0.026429765
179	0x3d1aaa8b	0.0377603
180	0x3d30e27a	0.043184735
181	0x3d9fab29	0.07796318
182	0xbd4dbcb4	-0.05022879
183	0xbd528e9d	-0.051405538
184	0xbcd15be4	-0.025556512
185	0x3b92eb40	0.0044836104
186	0x3cd6a83f	0.026203273
187	0xbd9eb7dd	-0.07749913
188	0x3c6e1475	0.0145312445
189	0xbcee55dd	-0.029093677
190	0x3d721882	0.059105404
191	0xbc35b8bf	-0.01109141
192	0xbd9e96b3	-0.07743587
193	0xbcc15996	-0.023602288
194	0xbd96a79a	-0.07356186
195	0x3ca7692c	0.020435892
196	0xbd5baf63	-0.05363406
197	0xbc8b4264	-0.016999431
198	0x3cdcf881	0.026973965
199	0xbd4481b0	-0.047975242
200	0x3cfee46d	0.031114781
201	0xbd6f3493	-0.058399748
202	0xbd818557	-0.06324261
203	0xbdabb899	-0.083848186
204	0xbce94aa3	-0.028477972
205	0xbd5ae0ca	-0.05343703
206	0x3cf160d2	0.029465113
207	0xbc0b12c3	-0.00848836
208	0x3d2a301a	0.04154978
209	0x3d9ec187	0.07751756
210	0x3d01e572	0.031712957
211	0xbd0ea1a8	-0.034822136
212	0xbdaf156d	-0.085490085
213	0x3c4a49cb	0.012346695
214	0xbca7f659	-0.02050321
215	0x3c67295a	0.01410898
216	0x3d1bf05f	0.038071033
217	0x3c643da9	0.013930717
218	0x3da9da35	0.08293573
219	0x3dac7399	0.08420486
220	0x3ae0ed7d	0.0017160621
221	0xbdb7e0da	-0.08978434
222	0x3d9b32a5	0.07578019
223	0xbd25b9b3	-0.0404603
224	0xbd186ec6	-0.037215017
225	0x3db30cb8	0.0874266
226	0x3d96b83f	0.07359361
227	0x3bb39f8f	0.0054816674
228	0xbcc74d8e	-0.024328973
229	0xbd4459fe	-0.047937386
230	0xbb6ca351	-0.0036108086
231	0x3daf6a8f	0.08565246
232	0x3cc9e39d	0.024644667
233	0x3bf7f9f0	0.0075676367
234	0xbc8f111b	-0.017464211
235	0xbc8a0edd	-0.01685279
236	0x3d3bc520	0.04584229
237	0x3c9719b0	0.018444866
238	0x3d6b8872	0.05750317
239	0xbc802924	-0.015644617
240	0x3d1e2f9b	0.03861962
241	0x3d15704c	0.036484048
242	0x3c4fd345	0.012684648
243	0x3d7711d9	0.060319755
244	0x3d62deba	0.05538819
245	0x3db434e8	0.087991536
246	0x3d8b29cf	0.06795084
247	0xbcb924e8	-0.022600606
248	0xbd68ee32	-0.056867786
249	0x3d423030	0.047409236
250	0xbca1e145	-0.019760737
251	0xbcbcdb94	-0.023053922
252	0xbcc66e4a	-0.024222512
253	0x3b8838c0	0.0041571558
254	0x3d500dd3	0.050794434
255	0x3cd10231	0.02551374

2.bias f4 [128]
0	0xbc567158	-0.013088547
1	0x3bed48a3	0.007241325
2	0xbd83d984	-0.06437972
3	0xbafab22e	-0.0019126588
4	0x3d1207ce	0.035651974
5	0xbdbd12fc	-0.092321366
6	0x3d7e2a98	0.06205234
7	0x3d8cee66	0.068814084
8	0x3ca51bb6	0.020154815
9	0x3ce69e62	0.028151695
10	0xbcc3f8d8	-0.023922369
11	0xbcd50a2c	-0.026005827
12	0xbd9a924c	-0.07547435
13	0xbd2f350b	-0.042775195
14	0x3d971daf	0.073787086
15	0x3da510ce	0.08059846
16	0x3dd05ec0	0.10174322
17	0xbc88bdc7	-0.016692055
18	0x3d92b362	0.07163121
19	0xbc5eec92	-0.013606207
20	0xbc43d6d4	-0.0119530745
21	0xbc2ba5d4	-0.010476548
22	0xbd7638db	-0.060112815
23	0x3d292579	0.041295502
24	0x3ba2f30c	0.004972821
25	0x3ddb580c	0.10710153
26	0x3dc10a2f	0.094257705
27	0x3c8d2824	0.017231055
28	0x3da08638	0.078381
29	0x3cddd9f8	0.027081475
30	0xbdab2cce	-0.08358155
31	0x3c31b040	0.010845244
32	0xbda4a79a	-0.0803978
33	0xbacf9a10	-0.0015838761
34	0x3b67d9d3	0.0035377636
35	0x3de81a2d	0.11333118
36	0x3de47af4	0.11156264
37	0xbd4a718e	-0.0494247
38	0x3d8ea693	0.06965365
39	0x3d3cc0d4	0.046082333
40	0x3c2c6d16	0.010524055
41	0xbda4a747	-0.08039718
42	0x3c318e98	0.01083722
43	0x3da615ca	0.08109625
44	0xbb8759e5	-0.0041305893
45	0x3d5a1fb2	0.053252883
46	0x3dff530c	0.12467012
47	0xbd5197f3	-0.0511703
48	0x3d7ae694	0.061255053
49	0xbdac3aee	-0.084096774
50	0xbc79d6d8	-0.015248977
51	0x3db356e1	0.08756805
52	0x3d569d16	0.052395903
53	0x3e00fedf	0.12597226
54	0x3dd9ea24	0.10640362
55	0xbcd6e4fe	-0.026232239
56	0x3e0c26c8	0.13686669
57	0xbd81e940	-0.06343317
58	0x3d855d12	0.065118924
59	0x3c2e4dd1	0.01063867
60	0x3df28527	0.11841803
61	0x3de435c0	0.111430645
62	0x3dbf49d8	0.093402565
63	0x3c097dd6	0.008391818
64	0x3df76a90	0.12080872
65	0x3de48bd9	0.11159486
66	0x3d46ae18	0.048505872
67	0x3de9d34d	0.114172556
68	0x3c66b3d0	0.014080957
69	0xbc5f4856	-0.013628086
70	0x3c8c03bf	0.01709163
71	0x3cffe9b1	0.031239362
72	0xbd0e4b2d	-0.034739662
73	0x3c3d49dd	0.011553255
74	0xbbfad9c3	-0.0076553538
75	0xbd78bc91	-0.060726706
76	0xbd8ede09	-0.069759436
77	0x3d9040b8	0.07043594
78	0xbd255593	-0.040364813
79	0xbc263355	-0.010144074
80	0x3d732fdc	0.059371814
81	0x3da79913	0.081834935
82	0x3d91e301	0.07123376
83	0x3dc6b9a1	0.09703375
84	0x3dcfa9b1	0.10139788
85	0xbc1b47a5	-0.009477531
86	0x3d84241e	0.06452201
87	0xbd962833	-0.07331886
88	0xbd6a9aaa	-0.057276405
89	0xbcdfe2f4	-0.0273299
90	0x3d9b944b	0.07596644
91	0x3d0aa9d9	0.033853386
92	0x3cd254e6	0.025675248
93	0x3d0b0292	0.033937998
94	0xbdc96b13	-0.09834876
95	0xbdb24668	-0.08704835
96	0x3c723ec1	0.0147854695
97	0xbd2d863e	-0.04236435
98	0x3d6c955f	0.05775964
99	0xbd8011c3	-0.06253388
100	0x3e08a168	0.13342822
101	0xbd9dea66	-0.077107236
102	0x3dc4c292	0.09607424
103	0x3d80015a	0.06250258
104	0x3bc34653	0.005959311
105	0x3d8bf3f8	0.06833643
106	0x3d2b9a2d	0.04189508
107	0xbd4ee005	-0.05050661
108	0x3c421dff	0.011847972
109	0x3dd167e7	0.10224896
110	0xbcb259cc	-0.021771334
111	0xbc26d136	-0.010181716
112	0x3db8c3b8	0.090217054
113	0x3d0746e8	0.033026606
114	0x3bb4e45e	0.0055203876
115	0x3defa250	0.117008805
116	0x3c042c2b	0.008067171
117	0x3ce920b0	0.02845797
118	0xbd2839c1	-0.041070703
119	0x3ce3f2f3	0.027825808
120	0x3d1ee9fa	0.038797356
121	0x3dd35829	0.103195496
122	0x3d59e3b0	0.053195655
123	0x3daf81bc	0.08569667
124	0x3c90fca2	0.01769859
125	0x3d79c1fb	0.06097601
126	0x3ddd411e	0.10803436
127	0x3d8e901c	0.069610804

4.weight f4 [2, 128]
0	0xbbb6af30	-0.005575083
1	0xbc3771e4	-0.011196587
2	0xbd3adc4b	-0.045620244
3	0x3dd0a302	0.10187341
4	0xbd44bf74	-0.048034146
5	0xbd1c1418	-0.0381051
6	0x3dcba4ec	0.09943566
7	0xbd06a960	-0.032876372
8	0xbd599b2e	-0.053126507
9	0x3d255ed6	0.040373646
10	0x3d1c4086	0.03814747
11	0xbd778af5	-0.060435254
12	0x3c392450	0.0113001615
13	0xbd8b98a1	-0.06816221
14	0x3dbb4624	0.09144238
15	0x3dd1dde3	0.102474
16	0x3daa3674	0.08311167
17	0x3dfcea3a	0.12349363
18	0x3d1b07bb	0.03784917
19	0x3c933ac3	0.017972356
20	0x3d9fe058	0.07806462
21	0x3d97f08b	0.07418927
22	0xbd21ca56	-0.039499603
23	0xbc97fe2d	-0.018553818
24	0xbc97e1bb	-0.018540254
25	0x3db9b900	0.09068489
26	0x3db5122a	0.08841355
27	0xbd205349	-0.039141927
28	0x3e02345e	0.12715289
29	0xbd868a50	-0.0656935
30	0xbc2811f0	-0.010258183
31	0x3d996891	0.074906476
32	0xbd67956c	-0.056538984
33	0x3e099bc4	0.13438326
34	0xbcfdd76c	-0.03098651
35	0x3dd1ca87	0.10243707
36	0x3d635d1e	0.055508725
37	0xbd1e7051	-0.038681332
38	0x3e0a7c7b	0.13524048
39	0x3b779694	0.003777896
40	0x3c80e264	0.015732951
41	0x3db6705a	0.08908148
42	0xbdaa77c2	-0.08323623
43	0x3dfffc2f	0.12499272
44	0xbcde96df	-0.02717155
45	0xbd4f4dd2	-0.050611325
46	0x3dd0edab	0.102015816
47	0xbc46be1f	-0.012130289
48	0xbd844cba	-0.06459947
49	0xbd1d0dd3	-0.038343262
50	0x3ddcdb06	0.10783963
51	0x3dbdf96a	0.092760876
52	0x3d4a0708	0.04932311
53	0x3dc87156	0.09787242
54	0x3d933749	0.07188279
55	0xbd75d0c0	-0.060013533
56	0x3d915ddd	0.07097981
57	0x3d80e59f	0.06293797
58	0x3d36ff34	0.044676974
59	0x3bb3d819	0.0054884073
60	0x3e0f2360	0.13978338
61	0x3cac500f	0.021034269
62	0x3e0bd97d	0.13657184
63	0x3e06b0bd	0.13153358
64	0x3e005f1d	0.12536283
65	0x3d9963a9	0.07489712
66	0x3da0367b	0.07822891
67	0x3d9a8132	0.07544173
68	0xbda5ed10	-0.08101857
69	0xbc520333	-0.012818146
70	0xbd26e227	-0.04074302
71	0x3d1fc138	0.039002627
72	0xbd156782	-0.036475666
73	0xbcded794	-0.027202405
74	0xbd620ef5	-0.055190045
75	0xbd83a113	-0.06427207
76	0x3cea0bec	0.028570138
77	0x3e0fb637	0.14034353
78	0xbcf4f580	-0.02990222
79	0xbd42b88c	-0.04753928
80	0xbc3ac99a	-0.011400605
81	0x3c2a7354	0.010403473
82	0xbd4ecad5	-0.050486404
83	0x3e072b2d	0.13200064
84	0x3de550a7	0.11197024
85	0x3df1a1f6	0.1179847
86	0xbcfd1e34	-0.030898191
87	0xbd527763	-0.051383387
88	0x3dad83bd	0.08472393
89	0xbc25a023	-0.01010898
90	0xbd858077	-0.06518643
91	0xbd7bfd63	-0.061520945
92	0x3d35c644	0.044378534
93	0x3af7b0f8	0.0018897345
94	0xbd2cf1d1	-0.0422228
95	0x3dce8b34	0.10085145
96	0xbd18b64e	-0.037283234
97	0x3cad3973	0.021145558
98	0x3dbe19c6	0.0928226
99	0x3d9d8c84	0.07692817
100	0x3e0255c5	0.12728031
101	0xbc3369c8	-0.010950513
102	0x3dcbaed9	0.09945459
103	0x3d056b5a	0.03257308
104	0x3d88782c	0.06663546
105	0xbd3038bc	-0.043022856
106	0x3d7bee32	0.061506458
107	0x3d5a4585	0.053288955
108	0x3d927173	0.07150545
109	0x3d2a4502	0.041569717
110	0x3d128400	0.035770416
111	0xbd91bca0	-0.071160555
112	0x3e010a7d	0.12601657
113	0x3d9a2fd9	0.075286575
114	0x3dce1d69	0.10064203
115	0x3d514914	0.051095083
116	0xbd87609a	-0.06610222
117	0xbcc42724	-0.023944445
118	0xbd916e00	-0.07101059
119	0xbd016b0e	-0.031596236
120	0x3dfd0f32	0.12356414
121	0x3d31298c	0.043252513
122	0x3dd5ca8c	0.104390234
123	0x3b31ca9e	0.0027128826
124	0x3bdcd612	0.0067393864
125	0xbd15d546	-0.036580347
126	0x3dab6233	0.083683394
127	0x3db1dc7f	0.086846344
128	0x3d36d1ea	0.044633783
129	0x3db775bc	0.08958003
130	0x3d59abae	0.053142242
131	0xbd4dce17	-0.05024537
132	0xbbeeebc2	-0.007291288
133	0x3d9de89b	0.077103816
134	0x3dcc8214	0.09985748
135	0x3ce6cca7	0.028173758
136	0xbcccc22f	-0.024994938
137	0xbd858c4b	-0.065208994
138	0x3dae7b0f	0.08519565
139	0xbccafb1b	-0.02477794
140	0x3cf78338	0.030213937
141	0xbcc3b5b8	-0.023890361
142	0x3c534350	0.0128944665
143	0x3da52970	0.08064544
144	0x3e0700ac	0.1318385
145	0xbc884c26	-0.016637873
146	0x3db58306	0.08862881
147	0x3d7cd03f	0.061722036
148	0x3d10a282	0.03531123
149	0x3d4dcff1	0.050247137
150	0x3cf094b0	0.029367775
151	0x3dafebbf	0.08589887
152	0xbcd8d50d	-0.026468778
153	0x3ddbe0ae	0.107362136
154	0x3cb37505	0.021906385
155	0x3d0ecd14	0.034863546
156	0xbcbe2ecd	-0.023215676
157	0x3d7352b6	0.05940505
158	0x3d989051	0.07449401
159	0x3d885cc9	0.06658322
160	0x3c374965	0.011186932
161	0x3d6fdcad	0.058560062
162	0xbd5f5721	-0.054526452
163	0xbd080e79	-0.033216927
164	0x3deb30fc	0.114839524
165	0xbd954614	-0.07288757
166	0x3cc69e12	0.024245296
167	0xbd80c491	-0.06287492
168	0xbd998a1d	-0.07497046
169	0xbcf5f97c	-0.03002619
170	0xba3b0400	-0.000713408
171	0xbc9fa25d	-0.0194866
172	0xbd4a5dfe	-0.049406044
173	0xbd426dad	-0.047467876
174	0x3d386720	0.045020223
175	0xbd15060d	-0.036382724
176	0x3d8507b7	0.06495612
177	0xbdad4955	-0.084612526
178	0xbcefd36d	-0.02927562
179	0x3cb5937e	0.022165056
180	0x3e09aef5	0.13445647
181	0x3e02ddc8	0.12779915
182	0x3d1ff24c	0.03904943
183	0xbcc55d20	-0.024092257
184	0x3d6a96a9	0.057272587
185	0x3b7363a0	0.0037138239
186	0x3d725184	0.05915977
187	0xbcc66f98	-0.024223134
188	0x3d355ac4	0.044276014
189	0x3d198543	0.037480604
190	0x3dc8fe3b	0.098141156
191	0xbbf09ccc	-0.0073429104
192	0x3ced9cd3	0.029005444
193	0x3dbc5996	0.09196775
194	0x3dd1fc16	0.1025316
195	0x3dc582d9	0.09644098
196	0xbcaf9db8	-0.02143751
197	0x3d2337c5	0.039848108
198	0xbcacf5ea	-0.021113355
199	0x3dc7ac75	0.097496904
200	0x3d6a46f7	0.057196584
201	0xbda35a32	-0.07976188
202	0x3d1b3994	0.037896708
203	0x3db1b373	0.08676805
204	0x3c98be08	0.018645301
205	0xbd2aebb2	-0.041728683
206	0x3d68e146	0.056855462
207	0xbb5081c7	-0.0031815635
208	0xbc38409f	-0.011245876
209	0x3d825a55	0.06364886
210	0x3dae8b8e	0.08522712
211	0x3db6c6d9	0.08924646
212	0xbcc6b898	-0.024257943
213	0x3dafa00d	0.08575449
214	0xbd1c58fa	-0.038170792
215	0xbd9a3cd4	-0.07531133
216	0xbd33906d	-0.043838907
217	0x3db163f0	0.0866164
218	0x3d87a132	0.066225424
219	0x3d0f2b4e	0.034953408
220	0x3d368a03	0.044565212
221	0xbd8d509b	-0.0690014
222	0xbce0934f	-0.027413992
223	0xbd87e8f4	-0.06636229
224	0xbd7dc24f	-0.061952885
225	0xbd154117	-0.036439028
226	0xbd60d12c	-0.05488698
227	0xbd2e0ac6	-0.042490743
228	0x3d79c972	0.06098313
229	0xbd28bf87	-0.04119828
230	0x3d3e7dcb	0.046506684
231	0x3ce55dfd	0.027998919
232	0x3d57279f	0.05252802
233	0xbd937c1e	-0.07201408
234	0xbd883fcb	-0.066527925
235	0xbd55695e	-0.05210244
236	0x3de19807	0.11015325
237	0x3d4a3048	0.04936245
238	0xbd9a12ae	-0.07523094
239	0xbc7dbfc4	-0.015487615
240	0x3d333ff4	0.043762162
241	0xbd503630	-0.050832927
242	0x3df732bb	0.12070223
243	0x3dec44fe	0.11536597
244	0x3d1d5850	0.0384143
245	0xbc795ff0	-0.015220627
246	0x3d5292aa	0.0514094
247	0x3d0b3dd7	0.033994522
248	0x3d50139e	0.05079996
249	0x3d7b2686	0.061316036
250	0xbdb40acf	-0.08791124
251	0x3d942744	0.07234052
252	0x3da2158c	0.07914266
253	0x3dc6f3a2	0.09714438
254	0x3d75e855	0.060036022
255	0x3e00e170	0.12585998

4.bias f4 [2]
0	0xbb01fd27	-0.0019834728
1	0x3d5d910d	0.05409341
