checkpoints/dqn/20251120-2025/ckpt_ep50.pth (torch, 72685 bytes, 6 tensors)

0.weight f4 [128, 4]
00000000: 8f7d ab3e 456b bc3e 0388 8dbd 1bb5 013f
00000010: 326e 05be c7fe 9a3d f869 61be 6203 a33e
00000020: e221 e63e 15ef bebe 0c1e de3e 9165 ce3d
00000030: 9422 bd3e 50ae 8a3d 5ce1 763e 6094 90bd
00000040: 6154 d43e 6324 c83d c1ea 88be 02e1 cd3d
00000050: b8dc 80be 13ca a5bd e742 39be e41a b53e
00000060: d275 bdbe a2cd 62be 5d62 2dbe db98 a3be
00000070: ae37 9b3d c165 efbe 0ea2 d53e 207d e8be
00000080: 211f c93e c091 a23d 0964 2bbe 1e26 9f3e
00000090: ac73 c43d 4507 cb3e 5e9d eb3c 882c 23be
000000a0: 15ab a83d 70c4 3ebe 1687 863e 42e3 fe3e
000000b0: 00d2 763e 5a41 86be e88e ac3e b684 0b3e
000000c0: 662a 8c3e 587f 9bbe 839e 04bf 2de6 4ebe
000000d0: 9c5b c4be d60e d23e d878 133e cc13 543e
000000e0: ac5f 4f3e 1fdd 0b3d b8f6 af3e 39ae ccbe
000000f0: ac48 6ebc 157f c2be cc4f 493e 41c0 05be
00000100: 6b7f 463e 7185 94bd 3e75 bd3e 9968 acbe
00000110: 2160 b0be f475 b0be c40e fe3e c273 5a3e
00000120: 3fa5 023f 0ebd c4be 40f1 06bf c165 d7be
00000130: 0218 babe 0bca 333e 674c 543e 21cb e23e
00000140: 3fa6 8dbe bcf5 b5be 7ec6 903e 6750 40be
00000150: b040 9e3e 6fd1 c8bd f313 8b3e e375 d1be
00000160: 7c8d 5dbe ca65 413e 9d37 883d 64cf 28be
00000170: f512 9f3e dd67 b43e c202 c1be 56b6 8fbe
00000180: 59c9 f83e faaf 14be c809 5bbe dae6 02bf
00000190: 2d5b 84be 4256 1c3e e39c c1bd 233f c8be
000001a0: 0df7 5e3c cd44 adbe 98f6 d7be c252 8dbe
000001b0: b42e e4be eb23 a5be 4bdf 013f be6e cc3d
000001c0: f46f 243e 4c85 eebe ab1c b0be d7bc 2dbe
000001d0: a612 fc3d 59ec ccbe afa6 86be bdca afbe
000001e0: d408 a53c 835e 40be e404 89bd a6f0 b2be
000001f0: de2b a5be fc82 8cbe 60e8 49be f06f d5be
00000200: 23fe c53e 18be 08be 820e ec3e 9be8 3f3e
00000210: 3f9b c6be fb22 be3e 0d87 3bbe ff9e 66be
00000220: 7932 e2be 0c84 06bf 782b 323e 4a77 a3bd
00000230: ca31 4e3e eec9 d0be 3013 ba3e 7158 bdbe
00000240: 6623 dbbd 62d3 a13d 6754 8e3e 12c4 da3e
00000250: 74bf ec3e a370 c8be eed7 023e 54ca 63be
00000260: ceac 95bd d60e c4be 628b ee3e 02b9 b7be
00000270: e431 983e 7ef3 513e c490 fe3d 0651 9abe
00000280: f188 ff3e 747d 173e de7b 693c 2a94 f7be
00000290: 2434 343e 5cc0 debd a8d5 47be 2c45 ed3e
000002a0: 3450 953d d4f5 9fbe d68b 5bbe fcc4 5a3c
000002b0: c4f0 8e3e 54d5 02be 3211 92be ac54 2fbe
000002c0: 4223 bebe bfef 403e 58b9 c53e 2a04 f5be
000002d0: 08f6 243e b021 983e c267 323d eba1 61be
000002e0: 2b9e 8f3e 6d18 903e aaaa 233e 0293 e2bd
000002f0: 62c9 e1bd 86d3 7f3d e991 e8bd 1ef4 28be
00000300: 63ad a13e 6f0d db3e 3319 4abd 1f16 e6bd
00000310: 14a4 06bd 83ff 82bd a4fb 293e 7fd7 373e
00000320: 8f9b f6be f718 5cbe 5fe6 e53e 0016 663e
00000330: 996f 013c e50f 89be 758a aebe 5cd6 f6be
00000340: cf53 31be 73b6 223e 2f73 a83e 6797 763e
00000350: e57c f9be d265 b1be 5269 0abd 7883 073f
00000360: 1821 943d d097 04be 7cd2 533e e802 43be
00000370: 6827 a8be 3158 b83e 2277 6dbe 612c c9bd
00000380: 7eab febe 5255 ab3e 58f4 c13e f498 3a3e
00000390: 2122 bcbe 692f 03bf 32b2 c5be 979f c93e
000003a0: b7fe 853e 534a e33e da74 743e 5145 d33d
000003b0: 85eb 893b 4374 b9be 4c0e e5be b00a f9be
000003c0: 6f9a 583e 71a6 73be 8e06 debd 173a 97be
000003d0: 3d6d 0fbe a537 ccbe 13b7 8fbe e266 593e
000003e0: 74b8 00be 8538 a93e c859 3ebe 82c5 c7be
000003f0: 34ae 47bd 88d4 59be dc85 49be 6051 03bf
0.3349423 0.3680059 -0.06910708 0.5066697 -0.13030317 0.07568126 -0.2201308 0.31838518
0.44947726 -0.3729178 0.433823 0.10077966 0.36940444 0.06771529 0.24109405 -0.0705955
0.41470626 0.09772565 -0.26741603 0.100526825 -0.25168395 -0.08095183 -0.18091927 0.35372078
-0.37003952 -0.22148755 -0.16932054 -0.31952557 0.075789794 -0.4675732 0.417252 -0.45407963
0.39281562 0.07937956 -0.16737379 0.3108377 0.09592375 0.39653984 0.028761562 -0.15934956
0.08235756 -0.18629622 0.26274937 0.4978276 0.24103546 -0.26221734 0.3370278 0.13624844
0.27376097 -0.30370593 -0.5180437 -0.20204993 -0.38351142 0.41026944 0.14401567 0.20710677
0.2025134 0.034146424 0.3436792 -0.3997667 -0.0145436935 -0.3798758 0.19659346 -0.1306162
0.19384544 -0.072520144 0.3700351 -0.33673552 -0.3444834 -0.3446499 0.4962064 0.2133322
0.51033396 -0.38425487 -0.5271187 -0.4206982 -0.36346442 0.17557542 0.2073227 0.442956
-0.27665898 -0.35539043 0.28276438 -0.18780671 0.30908728 -0.09805571 0.27163658 -0.40910253
-0.21636003 0.18886486 0.066512324 -0.16485363 0.3106915 0.3523549 -0.37697417 -0.280688
0.48591116 -0.14520255 -0.2139045 -0.511335 -0.25850812 0.1526728 -0.09453752 -0.3911067
0.013608706 -0.33841553 -0.42180324 -0.27602202 -0.44566882 -0.32253966 0.50731343 0.0998206
0.16058332 -0.46586072 -0.34396872 -0.16966568 0.123082444 -0.4002407 -0.26299044 -0.34334365
0.020145811 -0.18786053 -0.06690386 -0.34949225 -0.3226003 -0.27443683 -0.1971755 -0.41686964
0.38670453 -0.13353765 0.4610482 0.18741076 -0.38790318 0.37136063 -0.18313237 -0.2252159
-0.44179133 -0.5254524 0.17399395 -0.07981737 0.2013618 -0.4077906 0.36342764 -0.36981538
-0.10700111 0.07901646 0.2779877 0.42727715 0.46239817 -0.39148435 0.12777683 -0.22245151
-0.073083505 -0.3829257 0.46590716 -0.35883337 0.29725564 0.20503041 0.124299556 -0.3013994
0.49909166 0.1479395 0.014250724 -0.48355228 0.17598015 -0.108765334 -0.19515097 0.46341836
0.07290688 -0.3124224 -0.21440062 0.013352629 0.27918065 -0.1277669 -0.28528744 -0.17122144
-0.37136275 0.18841456 0.3861797 -0.4785474 0.16109478 0.29713202 0.043555982 -0.22034423
0.2805036 0.28143635 0.15983072 -0.11063196 -0.11024739 0.062457584 -0.11355955 -0.16499373
0.31577596 0.42783687 -0.049340438 -0.11234688 -0.03287132 -0.06396391 0.165999 0.17953299
-0.48165557 -0.21493898 0.44902322 0.2246933 0.007900142 -0.2676994 -0.3409001 -0.48210418
-0.17317127 0.15889911 0.32900378 0.24081193 -0.487281 -0.34647995 -0.033791848 0.5293498
0.07232875 -0.12948537 0.20685762 -0.19044077 -0.32842565 0.36004785 -0.23189977 -0.09822918
-0.49740213 0.33463532 0.37881732 0.1822241 -0.36744788 -0.5124422 -0.38612515 0.3937957
0.26170895 0.44392642 0.238727 0.103159554 0.0042089843 -0.36221513 -0.4473747 -0.48640966
0.21152662 -0.23793961 -0.10841094 -0.29536507 -0.14006515 -0.39886203 -0.28069362 0.21230653
-0.12570363 0.33050933 -0.18588936 -0.39017874 -0.048750117 -0.2127248 -0.1967997 -0.51296043

0.bias f4 [128]
00000000: bd49 4c3e 3e04 b7be af14 a2be 7cd5 d4be
00000010: f098 ec3e b0b3 e6be 703d b93e d765 c53b
00000020: 2af3 67bd 90ab ab3e 73ca 523b 562d b83e
00000030: b129 c33e 0443 debe 19a3 543e 6cba 0c3e
00000040: ff51 ed3d ea5e e93d 590d 213e 9ae7 58be
00000050: 1e07 33bd df85 003f 2caf af3e 9034 45bc
00000060: b1e3 ddbe b554 223d ae96 afbe 6622 dc3e
00000070: 9a83 99be ab50 64bb bf0f b8bd fe94 003e
00000080: bec2 033f b542 993d 42c9 a03e 091e dd3e
00000090: ef96 db3e e717 35be eac0 f2bd 0eec 833e
000000a0: 7662 c4bd 8364 893e 2746 95bd f2a1 adbe
000000b0: 8c19 793e c6a1 e63d 61d7 803e aad6 fd3e
000000c0: 6130 a93e 83c6 ff3e fc2d 6e3d b37f cabe
000000d0: 757e aebe 57e6 88be 7e99 e1be 99aa 7bbe
000000e0: 54aa ebbe f145 e0be b633 8dbe bc03 f2be
000000f0: 2e32 99be 2fea 713e 6623 e43e c632 e6bd
00000100: 0c59 f5bd 5762 9d3e a2a7 54be 2f39 43be
00000110: c714 9c3e 86b7 d8be af00 a73d 6c21 f73e
00000120: 7d5e c93d f139 343e 5ae9 8abe ce78 9f3c
00000130: a15c 7b3d b4c9 fb3d 716d 4d3e 0612 dd3e
00000140: a51a a9be 6b71 293d 0d01 54be d21a c6be
00000150: 12c2 62bc b906 ccbe 1456 c33e adba da3d
00000160: 11d1 74be e439 923e 44a5 efbe f22d 49be
00000170: de58 55bd ff69 e1be e19a 91be 90fb 1bbd
00000180: 8172 c93e 17c1 ee3e 59fb a03e 8a83 a6be
00000190: f5e7 96be 0447 ea3e 4ed3 3c3e 0a00 683d
000001a0: 3b80 893d 0ba5 bebe cba3 04be 41cd 023f
000001b0: 8501 bbbd cca7 5a3c 9490 d4be 192c 72be
000001c0: 83d5 8d3c 4e04 9fbe 3f22 9ebd cc66 633e
000001d0: d469 fabe 01cc 3d3e 016e 92be bdf1 4dbe
000001e0: 6307 6a3e 3dd5 d93e 42bc e8bd 1c36 52be
000001f0: bca4 e8be b5ab 56be bcd2 d2be 03a3 9dbd
0.19950004 -0.35745424 -0.31656405 -0.41569126 0.46210432 -0.45058966 0.36179686 0.006024103
-0.056628384 0.3352933 0.0032164126 0.3597209 0.38117746 -0.43410504 0.20765342 0.1374299
0.11587905 0.113950565 0.15727748 -0.21182099 -0.04370796 0.5020427 0.34313333 -0.012036458
-0.43337777 0.039631564 -0.34294647 0.42994994 -0.29983217 -0.003483812 -0.08987378 0.12556836
0.5146903 0.074834265 0.31403548 0.43186978 0.4288859 -0.176849 -0.11853202 0.25766033
-0.095890924 0.26834497 -0.07288771 -0.33912617 0.24326152 0.112613246 0.2516432 0.49577838
0.33044723 0.4995614 0.058149323 -0.39550552 -0.34080854 -0.26738235 -0.44062418 -0.24576797
-0.46028388 -0.4380336 -0.27578515 -0.47268474 -0.29921097 0.2362449 0.44558257 -0.11240153
-0.11979875 0.3073909 -0.20767072 -0.19064783 0.30484602 -0.42327517 0.08154427 0.48267686
0.09832475 0.17600228 -0.27131158 0.019466784 0.061367635 0.12294331 0.2006128 0.43177813
-0.3302814 0.04136793 -0.20703526 -0.38692337 -0.013840215 -0.3984888 0.3815161 0.10680137
-0.23907878 0.28559792 -0.46805775 -0.19646433 -0.052086703 -0.4402618 -0.28438476 -0.038081706
0.39345172 0.4663169 0.31441763 -0.3252223 -0.29473844 0.45757306 0.18439981 0.056640662
0.06713911 -0.37235293 -0.12953107 0.5109444 -0.09131149 0.01334567 -0.41516554 -0.23649634
0.017313724 -0.31057972 -0.07721376 0.22207183 -0.48908865 0.18534853 -0.2859955 -0.20111747
0.2285438 0.425455 -0.11364032 -0.20528454 -0.45438182 -0.20963939 -0.41176403 -0.07697108

2.weight f4 [128, 128]
00000000: 687d 9b3b 083a c9bd 6122 823d c623 633d
00000010: e66f cbbd c476 64bd 9656 c23c c4c4 94bc
00000020: 72be bbbc 5477 23bd ff2f 6c3d 6a1a 80bd
00000030: 3608 7f3d 60e0 ba3b 288e 913c eebf 643d
00000040: 289b 6ebc 5f1c 82bd 866a b2bb 0d1f 703d
00000050: c7ed 85bd cd2f 083d 007b 96bd 52d1 3d3d
00000060: f8c2 053d e08f 753b 6e62 1b3d ffb3 52bc
00000070: ca55 483d 9de7 79bd 48aa 54bc 0a9b 203d
00000080: 888e 993d 5e6b 383d dd1b 9ebd 411e 693d
00000090: 3cf6 05bd d899 9abc bd87 a4bd d8f5 63bc
000000a0: 310a 803d 96e7 61ba 933d 85bd 38e1 de3c
000000b0: dc2b e8bc 0345 a53d d71d 9dbd e0d6 1bbd
000000c0: 98c9 aebd d1d3 43bd 7d69 723c 7b40 ae3d
000000d0: 5836 733c 2e0d 963d d4aa 8d3c 2217 513d
000000e0: c91d 913d 619f 773d 42a4 4abd 676d a63d
000000f0: 7e4f 5b3d fa82 5fbd 1dc4 2cbd 4bd4 97bd
00000100: cd7d 113c fddd acbd 1eef 183d 74a9 e43c
00000110: 1e45 9dbd cc4f c53c 0835 ba3b 8a11 df3c
00000120: eabb 4f3d c8ce cdbd 3b03 a63d 77cf 973d
00000130: 9c0c 103d 6ffc bfbd 9636 35bd bc7e f0bc
00000140: a465 14bd 7629 4c3d 5d6b 983c 5566 8f3d
00000150: 8597 07bd 48ae f33c edd7 9c3c 5eba b1bd
00000160: a497 afbd 41be 71bd 2ed5 773d 226c aabd
00000170: 4da7 b8bd 72d0 4a3d 9254 433d 68f2 723d
00000180: 94a8 88bd b824 96bd 92b8 393d 7d6b 9d3d
00000190: 2e9f 583d b9ca bc3a 38a3 ee3c 6fcf ab3d
000001a0: c396 69bd 53c0 5cbd ee3b 7d3d bed0 94bd
000001b0: c764 7cbd fc53 513d 6076 e43c a676 733c
000001c0: 5572 19bd c0e1 9fba c1ac a53d 894d 59bd
000001d0: 002c 363a e618 ed3c 8053 9bbd 3bcc 933d
000001e0: e452 6abd 176c 0bbd f0e9 c3bc fcec 6bbd
000001f0: bca0 b1bd 1728 153d 5c5e c03c f88a a9bd
00000200: 0249 febc e9e9 b23d 4662 0a3d 1e44 113d
00000210: 378a 6dbd 62b7 1ebd 50ee 90bc faa0 b6bc
00000220: 1f16 78bd fb5b 193c e0ed 0f3c d3f5 f4bc
00000230: db62 9d3b 877e 0fbd 1339 d03c 6f6b 333c
00000240: 5fc2 34bd e852 a3bd 9f93 293d 14b8 ac3c
00000250: 952e 0bbd e36a ab3d 1237 21bd 014f 833d
00000260: 8ed5 803d 0719 8fbd c60d 673d 823b b2bd
00000270: 2a09 52bd 27c6 c7bc f311 67bd 1ea9 aa3d
00000280: ae32 18bd fe1a 263d 30c2 c5bd 40b0 3c3d
00000290: 8ceb b7bc b56d 8ebd 52f5 e63c 3243 383d
000002a0: af11 aa3d 1b11 36bd fb9e 3bbd 9436 8b3c
000002b0: 6472 dd3c 76d6 203d aa84 523d 8213 b7bc
000002c0: c910 4f3d 39dc 473d 0425 bdbc 7c89 bc3d
000002d0: 7ae2 303d 29ab 9f3d b4bc 4dbd 87d7 d7bc
000002e0: e45b d1bc 40eb 923b 0b72 983d d154 93bc
000002f0: fd9e 893d 968d 46bd 1e4c 5f3d 47ed 6bba
00000300: b396 9ebd 103b 77bd 61f8 2fbd c04d 753d
00000310: 35c2 62bd b2a0 463c 56f1 653c 40cf 82bd
00000320: 3dee d23c c7be dbbd 8815 2fbd 09ed a0bd
00000330: fe33 52bc c7b0 c7bc 4e35 f03c d3b0 77bc
00000340: 1a30 2a3d 2c52 a13d 72e5 013d 8d1b 19bd
00000350: cc49 9abd eee9 593d c8a7 48bd b633 4b3d
00000360: 3124 b63d f651 323d 35da a93d 58f8 bc3d
00000370: e850 993c 133f 4dbd d224 be3d 2bc9 2bbd
00000380: f2c6 24bd 9408 913d 02f4 8f3d ca02 423d
00000390: 6b2a 263d 1a5e adbd 2358 08bc 868d bb3d
000003a0: 0791 cd3c f0f9 f73b ed25 48bc 19dd 08bd
000003b0: 86c8 573d 709c b23b 7288 6b3d 2429 80bc
000003c0: fe36 1b3d 4c70 153d fb0c af3c 5979 6e3d
000003d0: bade 623d c48f e43d cf29 8b3d e824 b9bc
000003e0: 95fe cabd b0d7 c239 ebff e63c 94db bcbc
000003f0: f6e1 9c3b c038 883b 72bb a93d 18ca 063d
0.004745174 -0.09825522 0.063542135 0.055454038 -0.09933452 -0.055777326 0.023722928 -0.018160231
-0.02291796 -0.039908722 0.05766296 -0.06255038 0.06226369 0.005703017 0.01776798 0.0558471
-0.014563359 -0.063530676 -0.0054448275 0.058623362 -0.06539493 0.03324871 -0.07347679 0.0463422
0.03265664 0.003746979 0.037935667 -0.012860297 0.04890994 -0.0610119 -0.012980051 0.039210357
0.07497889 0.04502427 -0.07720158 0.056913618 -0.03270553 -0.018872187 -0.080337025 -0.013913594
0.06251944 -0.0008617578 -0.06505885 0.027207002 -0.028341226 0.080698036 -0.07671707 -0.038046718
-0.08534545 -0.047809426 0.014795658 0.085083924 0.0148444995 0.073267326 0.017293371 0.05104745
0.07085759 0.06045473 -0.049473055 0.081263356 0.053542607 -0.05456827 -0.042179216 -0.074135385
0.008880091 -0.084407784 0.037337415 0.027912833 -0.07679199 0.024085902 0.0056825913 0.027230043
0.05071632 -0.10049206 0.08106085 0.07412618 0.035168275 -0.0937432 -0.04424151 -0.029357307
-0.036229745 0.049844228 0.018605882 0.0700194 -0.033103485 0.02974619 0.01914593 -0.08678125
-0.08573845 -0.05901933 0.06050604 -0.08321406 -0.09016285 0.049515195 0.047688074 0.059313208
-0.06672779 -0.07331222 0.045342036 0.076865174 0.05288618 0.0014403678 0.029130563 0.08389174
-0.057028543 -0.053894352 0.06182473 -0.07266377 -0.061619546 0.051105484 0.027888477 0.014859831
-0.03746255 -0.0012198016 0.08089591 -0.05305246 0.00069493055 0.028942537 -0.07584286 0.07216688
-0.057207957 -0.03403863 -0.023915261 -0.057599053 -0.08673236 0.036415186 0.023482494 -0.08278459
-0.031040672 0.08736021 0.033785127 0.035465352 -0.05799314 -0.038749106 -0.017691761 -0.022293556
-0.06056797 0.009360309 0.008784741 -0.029902374 0.0048030443 -0.035032775 0.02541784 0.010950907
-0.04413068 -0.079747975 0.041400548 0.021083869 -0.03397997 0.083699964 -0.03935916 0.06411553
0.06290732 -0.069871955 0.05640962 -0.087027565 -0.05127827 -0.024386479 -0.056413602 0.08333038
-0.037157707 0.040553086 -0.09656179 0.046066523 -0.022451185 -0.06954519 0.02819315 0.044985957
0.08304154 -0.044449907 -0.045805912 0.016993798 0.027032085 0.039267026 0.05139605 -0.02234817
0.050553117 0.048794005 -0.02308894 0.092059106 0.043184735 0.07796318 -0.05022879 -0.026347889
-0.025556512 0.0044836104 0.07443627 -0.01798478 0.06719778 -0.04847487 0.05451595 -0.00089998957
-0.07743587 -0.06035906 -0.042961482 0.0598886 -0.05536099 0.012123274 0.01403459 -0.06387186
0.025748366 -0.10729747 -0.042745143 -0.07857711 -0.012829779 -0.024376286 0.029322293 -0.015117842
0.04154978 0.07877001 0.031712957 -0.03737979 -0.07533607 0.05320161 -0.048988134 0.049609862
0.08893622 0.043535195 0.08293573 0.09227055 0.018715337 -0.05010898 0.09284367 -0.041939896
-0.04022879 0.07081714 0.07028963 0.04736594 0.040567797 -0.08465214 -0.008321795 0.09157853
0.025093568 0.0075676367 -0.012216073 -0.03341398 0.05268147 0.0054507777 0.05750317 -0.015644617
0.03789424 0.036484048 0.021368494 0.058221195 0.05538819 0.111602336 0.06795084 -0.022600606
-0.09911839 0.00037163263 0.028198203 -0.023053922 0.004787679 0.0041571558 0.082877055 0.032907575

2.bias f4 [128]
00000000: d1a0 d3bc e5da 84bc 8d2e 4dbd 7b2e 803b
00000010: 729a b13d af22 c4bd baa3 00bc 7824 f63d
00000020: 113e 9e3d 4d42 a23d d8f8 c3bc 6b88 713c
00000030: 4c92 9abd 3a6c eebb fe71 c23c d5ed 433d
00000040: 95a8 2a3d 0ba7 56bd de35 1f3d d9f7 7abd
00000050: 71a2 5abd 68e2 37bd db38 76bd 3110 de3b
00000060: a197 633d dc63 163d a00a 223d 2428 8d3c
00000070: 5183 d53c 2d4e d13c ce2c abbd 4a28 69bd
00000080: cef9 9fbd dff9 7cbd 0658 6c3d 7640 d13d
00000090: 8145 513d ce30 43bc baeb 7c3a 58cb cb3d
000000a0: 7d5a 4f3d e195 a5bd 988e 313c 511e 0e3d
000000b0: 472a 043d 0ad6 f53d c70a 693d 0e26 18bc
000000c0: 65a3 6e3d 1532 aebd b5cd 04bd 773d d43c
000000d0: 7763 403c 100e 643d e32d 3a3d 0279 e8bc
000000e0: 9673 933d 40e9 81bd 1aae 3a3c 01dc 8d3d
000000f0: e2df 583d 7e84 953d 8952 7b3d bafb 1dbd
00000100: 3ba0 733d bd1f 473d 9391 63bc ddf8 853d
00000110: d0b3 663c ba30 f539 08c8 863d 8ded 4abc
00000120: fcc3 0fbd 5570 e13b b14f d6bb 91bc 78bd
00000130: 965a 99bd e5d2 f13c cb27 2ebd 1064 0fbc
00000140: 8695 f53d 5f96 d03d a02b 273d 6dae 043d
00000150: 959a 6d3d ee21 9dbd 9f7c f83d 3b95 33bd
00000160: aa9a 6abd b340 05ba 801d ee3d d27a a23d
00000170: b05b 843c cb44 b03d 45f2 6abd 0bce b6bd
00000180: fb14 843d abe8 37bc 6855 813d 978d 64bd
00000190: 63f0 7b3d 66ea 9dbd 32b6 de3c 1342 b83d
000001a0: 660a 80bd 01ae c53d 25c4 593d ed6d febc
000001b0: a2a5 43bd cfe3 763d cc59 b2bc 7054 eb3c
000001c0: af44 bf3c 104b 133d 4426 80bd 30de b93d
000001d0: c983 783d 33ca bf3c c139 28bd 7050 f33c
000001e0: df95 eebc 4819 a43d 601d 233d 2c52 ce3d
000001f0: 5150 7f3c 02eb 2d3d 4250 823d e537 cf3c
-0.02583352 -0.016217658 -0.050093222 0.003911791 0.08672036 -0.09576928 -0.007851535 0.120186746
0.07726682 0.07922802 -0.023922369 0.014741997 -0.07547435 -0.007276085 0.023735996 0.047834236
0.04166468 -0.0524054 0.03886973 -0.061271522 -0.053377572 -0.044893652 -0.060112815 0.0067768325
0.055564526 0.036716327 0.039560914 0.017231055 0.026063593 0.025549972 -0.08358155 -0.05692319
-0.07811318 -0.061761733 0.057701133 0.10217373 0.051091675 -0.011913491 0.0009648163 0.09950894
0.050623406 -0.08085228 0.01083722 0.03469688 0.03226688 0.12003715 0.056895044 -0.009286417
0.058261294 -0.08505646 -0.03242274 0.025908215 0.011742464 0.055677474 0.045453917 -0.028378014
0.07199781 -0.06343317 0.011394048 0.06926728 0.052947886 0.073006615 0.06135801 -0.038570143
0.05947898 0.048614252 -0.013889688 0.065416075 0.014080957 0.00046766346 0.06581122 -0.012385738
-0.035099015 0.006879846 -0.0065402617 -0.060726706 -0.07487981 0.029519508 -0.04251842 -0.008751884
0.1199141 0.10184931 0.04081309 0.032392908 0.05800875 -0.07672487 0.121331446 -0.04384349
-0.057276405 -0.00050831883 0.116267204 0.07933582 0.016157001 0.08606871 -0.057359952 -0.08926018
0.06449314 -0.011224906 0.06315118 -0.055799093 0.061508548 -0.077107236 0.027186487 0.08996978
-0.06251983 0.09652329 0.053165574 -0.031058276 -0.04776538 0.06027585 -0.021771334 0.028726786
0.02334818 0.035960257 -0.062572986 0.09075582 0.060672555 0.023411846 -0.041070703 0.029701442
-0.029124198 0.080126345 0.039822936 0.10074267 0.015583114 0.04246045 0.06362964 0.025295207

4.weight f4 [2, 128]
00000000: e71a 71bc e944 aebd dcdd 5dbd 4dec 323c
00000010: bbdd d0bd 3034 10bd a983 253d 4190 b8bd
00000020: 8fef e6bd 1fb6 a8bc 8640 1c3d 0a53 e4bd
00000030: 5024 393c 8236 d6bd 6c4b 273c 3a1a c23d
00000040: f0ae f13c 2040 993d a974 cbbc 4b59 d7bc
00000050: 5071 8ebc 35ec 9d3c 56ca 21bd b5cb 4cbd
00000060: 2754 95bd 3c2f f73c fb9b 703c 4953 20bd
00000070: 2d38 3b3d 7e31 95bd f011 28bc efda 673c
00000080: ec66 6cbd ca28 993d ffba b4bd bbc7 7f3c
00000090: f35e 8a3b 03cf a7bd a023 763d cb09 52bd
000000a0: 21ad b7bc ec48 933d c277 aabd 77a9 323d
000000b0: 3f03 98bd 84b3 eabd 77cf 013d 43f5 8cbd
000000c0: 79ff 81bd 1b1f 19bd e698 893c 1824 f13b
000000d0: 18ee a03c fe4f f73c 53c8 6cbb af1d 66bd
000000e0: 5010 473c 9fe5 803d f00f 52bb e9e8 46bd
000000f0: 14fb 8d3d ca81 83bc 8ad2 033e 7575 823d
00000100: d141 633d 1ccc a03c 7664 b63c 47b9 c03c
00000110: 10ed a5bd 4d7a 7ebd 1f29 b2bd 04ca 6abb
00000120: 91c0 1bbd c230 e9bc 0a20 5ebd 13a1 83bd
00000130: 847d a83c a720 743d 881e e8bc cfc1 49bd
00000140: 4e16 98bd 8822 a5bd af0c a4bd 0c51 863d
00000150: d4dc 023d 718e 5b3d 5164 b9bd 0293 b6bd
00000160: bd83 ad3d d3ed c3bd 1579 f3bd b993 eebd
00000170: 9db3 0f3d c32c 64bd 5b23 b2bd 9a4b a43d
00000180: 858a c0bd 9b47 cbbc 539a 76bb 4936 2f3c
00000190: 377f 603d c869 33bc 942c f63c 592f 4abd
000001a0: df97 baba 730d afbd 66cb 5b3c 6c6f 26bc
000001b0: 5e2c 093c 5e91 453b 0084 123d 73ef efbd
000001c0: e199 6d3d 6232 833d b828 073d 6c56 303d
000001d0: b69c f2bd 9bd2 9abc 006e 91bd 4872 0fbd
000001e0: 2b64 513d acaa 14bd e814 a93d ada7 afbd
000001f0: 1db6 abbd f54e 6fbd da70 073d ba3d ee3c
00000200: e539 0d3d bc99 583d 48d0 573d 3d3a fdbd
00000210: 5876 3abd 8a43 8b3d e3aa 323d 7aa2 65bc
00000220: 7620 b0bd f78e efbd 0f7b ae3d 2448 80bd
00000230: 3883 f73c bedf 7cbd f81e 75bd 9f8e 9f3d
00000240: a86b 913d 5b1c 39bd c5d0 6a3d c349 dc3c
00000250: 5c85 6dbd e40d 423c b094 f03c c0e4 993d
00000260: 6344 a8bd 7f39 4b3d 6d4d 2bbd 14cd 0e3d
00000270: 3e44 cbbd 04a0 593d 5190 983d 1f0e 983b
00000280: bcf2 0d3c 8092 a13b f896 ebbd 920c eabd
00000290: 748b 5b3d 97d6 e7bd ec1c 33bd 44b4 c6bd
000002a0: 5ac7 fabd a9f9 3cbd 0004 3bba 25f1 c2bd
000002b0: 3333 cdbd 1201 e8bd 80b1 c6bc 91a4 85bd
000002c0: 2335 6b3d 3019 a1bd cffd efbd 9cb9 66bd
000002d0: e10f d33d c65e 7f3d 4876 2bbd 4d10 9cbc
000002e0: 87ad 8ebb a063 733b 3820 083c f503 a5bd
000002f0: e42a d4bc 6f44 e33b 7ca4 a53d 0164 94bd
00000300: 43e6 2dbd 411f 083d 861c 373d cd86 603d
00000310: b89d afbc c4eb cfbb d03d 99bd abdd 873d
00000320: 492a 2c3d 822b 97bd f6da 2f3d 73b3 b13d
00000330: 7580 943c bb08 d6bd d188 753d 06ac b63a
00000340: 9490 91bd 59d6 efbb 4ef3 763d cce3 c53c
00000350: dbc3 c8bd 563c a73c 6a29 ccbd 7a4e f2bd
00000360: 6d90 33bd 3628 a83b 9972 d63c 7e00 93bc
00000370: 3a4d 403d 1cbe 03be 9560 a1bd bc42 3abd
00000380: b564 f6bd 3445 b5bd f300 eabd 39e9 dfbd
00000390: 5c9c 1dbc 87bf 28bd 51b9 b2bc eb49 69bd
000003a0: a5e3 0cbc 9300 f3bd 06bb e2bd bd53 e6bd
000003b0: 8d43 773d 0867 193c ae12 9abd f5b0 8bbd
000003c0: daec cfbc 12fe 59bd bb27 683d f0ca ea3d
000003d0: 6837 b3bc f3b7 26bc aa92 523d 9416 e83c
000003e0: 4b13 6cbc 88fd ccbc bc8e 9dbd 7b9a 17bc
000003f0: 64e4 4abc eef1 313d 8c5c 183d e92c aa3d
-0.014715887 -0.08509237 -0.05416666 0.010920596 -0.10198542 -0.03520602 0.040408764 -0.09011889
-0.11276161 -0.020594655 0.03814747 -0.11148651 0.0113001615 -0.10459615 0.010210853 0.094776586
0.029502362 0.07482934 -0.024835901 -0.026287695 -0.017388016 0.019277671 -0.039499603 -0.049998958
-0.072914414 0.03017389 0.014685626 -0.039141927 0.04570787 -0.072848305 -0.010258183 0.014151319
-0.05771534 0.07478483 -0.08824729 0.015611584 0.0042227446 -0.08193781 0.06009257 -0.05127887
-0.022421421 0.07191643 -0.08323623 0.043618646 -0.07422494 -0.11460021 0.031691995 -0.068827175
-0.06347556 -0.03738318 0.01679654 0.007359039 0.019644782 0.03018951 -0.0036130145 -0.056180652
0.012149885 0.06293797 -0.0032052957 -0.048561964 0.06932655 -0.0160531 0.12873283 0.063700594
0.05548269 0.019628577 0.0222647 0.023525847 -0.08101857 -0.062128354 -0.086992495 -0.0035825977
-0.038025443 -0.028465632 -0.054229774 -0.06427207 0.020567663 0.059601452 -0.028334871 -0.049257096
-0.07426129 -0.08063227 -0.08010232 0.06558427 0.03194888 0.05360264 -0.09052337 -0.08914758
0.08472393 -0.09566846 -0.11888329 -0.116492696 0.035083402 -0.05570675 -0.0869815 0.08022232
-0.094014205 -0.024814418 -0.0037628605 0.010694095 0.05480882 -0.010950513 0.030050553 -0.04936156
-0.0014235935 -0.08547487 0.013415193 -0.010158401 0.008372394 0.003014646 0.035770416 -0.11715593
0.05800808 0.06406094 0.032997817 0.04305117 -0.118462965 -0.018899253 -0.07101059 -0.035021096
0.05112092 -0.036295578 0.08255941 -0.085769035 -0.08384345 -0.05842491 0.033066608 0.029082168
0.03447904 0.052880988 0.052688867 -0.12364624 -0.045523018 0.067999914 0.04362 -0.014015788
-0.085999414 -0.1169719 0.08519565 -0.0626376 0.030213937 -0.061736815 -0.059843987 0.07790875
0.07100612 -0.045193058 0.057328004 0.026890641 -0.05798851 0.011844132 0.029367775 0.07514334
-0.08216169 0.04961538 -0.041821886 0.034863546 -0.099251255 0.05313112 0.07449401 0.0046403552
0.008663829 0.0049307942 -0.115034044 -0.11428179 0.05359979 -0.11320227 -0.043728754 -0.09702352
-0.122450545 -0.046136532 -0.000713408 -0.09518651 -0.10019531 -0.11328329 -0.02425456 -0.06525529
0.057423722 -0.07866132 -0.11718332 -0.056329355 0.10305763 0.062346242 -0.04186085 -0.019050742
-0.004354182 0.0037138239 0.008308463 -0.08057395 -0.025899358 0.006935648 0.080880135 -0.07245637
-0.042455923 0.03323293 0.044704936 0.054816056 -0.02143751 -0.006345244 -0.07482493 0.06634077
0.042032514 -0.07381345 0.042933427 0.08676805 0.01812766 -0.10450884 0.05994493 0.0013936765
-0.07107654 -0.0073192534 0.060290627 0.024156474 -0.098029815 0.020414513 -0.099688366 -0.118313745
-0.043838907 0.0051317466 0.026177691 -0.01794457 0.04694865 -0.1286549 -0.0787975 -0.0454738
-0.12030927 -0.0885109 -0.11425962 -0.109331556 -0.0096197985 -0.04119828 -0.021816881 -0.05695526
-0.008599197 -0.11865344 -0.11070828 -0.112464406 0.060367156 0.0093629435 -0.07523094 -0.06820861
-0.025381494 -0.053220816 0.056678515 0.114644885 -0.021877006 -0.010175693 0.0514094 0.028331079
-0.014408897 -0.025023237 -0.0769324 -0.00925314 -0.012383554 0.043443613 0.037197635 0.08309347

4.bias f4 [2]
00000000: 008f a7bd 7154 d2bc
-0.08181572 -0.02567503
