checkpoints/dqn/20251120-2036/ckpt_ep50.pth (torch, 72685 bytes, 6 tensors)

0.weight f4 [128, 4]
0	0x3eae15e4	0.34001076
1	0x3ec26e68	0.37974858
2	0xbd9140fb	-0.07092472
3	0x3f003fd2	0.5009738
4	0xbdfc288d	-0.12312422
5	0x3db87778	0.09007162
6	0xbe6e2772	-0.23257235
7	0x3e9b7f56	0.30370587
8	0x3ecf7899	0.40521696
9	0xbecf8b88	-0.4053614
10	0x3ef5de76	0.48021287
11	0x3e0b23a8	0.1358782
12	0x3ebd2294	0.36940444
13	0x3d8aae50	0.06771529
14	0x3e76e15c	0.24109405
15	0xbd909460	-0.0705955
16	0x3edc9e93	0.43089733
17	0x3df1118f	0.11770927
18	0xbe8e79e6	-0.27827376
19	0x3dab3a48	0.08360726
20	0xbe71e622	-0.23622945
21	0xbd7ac4d9	-0.061222885
22	0xbe4ce1f3	-0.20008068
23	0x3eaaca38	0.33357406
24	0xbec2df8e	-0.38061184
25	0xbe64232f	-0.22279046
26	0xbe292746	-0.16518888
27	0xbea1c3cf	-0.31594703
28	0x3da84ecc	0.08218154
29	0xbeea20e5	-0.45728222
30	0x3ed33012	0.41247612
31	0xbeec7b1e	-0.4618768
32	0x3ebf579e	0.37371534
33	0x3d328f50	0.043593705
34	0xbe11336d	-0.14179774
35	0x3eb0f21c	0.34559715
36	0x3d84acec	0.06478295
37	0x3ec6181f	0.38690278
38	0x3d8c8924	0.06862095
39	0xbe102ec9	-0.14080347
40	0x3dcce76c	0.10005078
41	0xbe2c3660	-0.16817617
42	0x3e81ce0a	0.25352508
43	0x3ef89240	0.4854908
44	0x3e868657	0.26274368
45	0xbe73c202	-0.23804477
46	0x3ea723bf	0.3264446
47	0x3df112e3	0.117711805
48	0x3e916b7e	0.28402323
49	0xbe8f32de	-0.27968496
50	0xbf043fdc	-0.5165994
51	0xbe5da2d3	-0.21644144
52	0xbec45b9c	-0.38351142
53	0x3ed20ed6	0.41026944
54	0x3e1378d8	0.14401567
55	0x3e5413cc	0.20710677
56	0x3e4b85cd	0.1987526
57	0x3d16852c	0.036748096
58	0x3eb428c7	0.3518736
59	0xbecd3130	-0.4007659
60	0x3d98230f	0.07428562
61	0xbe997ada	-0.2997654
62	0x3de1ff13	0.1103498
63	0xbe5b91dd	-0.21442361
64	0x3e4ebafd	0.20188518
65	0xbd6d3e71	-0.057920877
66	0x3ebaec21	0.36508277
67	0xbeb018ef	-0.34394023
68	0xbea817b9	-0.328306
69	0xbea4e323	-0.32204542
70	0x3ef944a2	0.48685175
71	0x3e4afdc6	0.1982337
72	0x3f0795f8	0.5296321
73	0xbeba56fa	-0.36394483
74	0xbf0bc1d5	-0.5459264
75	0xbee18e09	-0.44053677
76	0xbebede02	-0.37278754
77	0x3e27fa35	0.1640404
78	0x3e632dd9	0.22185458
79	0x3eea2aee	0.45735878
80	0xbe8d5628	-0.27604795
81	0xbeb6636a	-0.35622722
82	0x3e9074b3	0.28214034
83	0xbe3f0a61	-0.18656303
84	0x3eb175b3	0.3466011
85	0xbd939e8a	-0.07207973
86	0x3e7baaa0	0.24576807
87	0xbede32ff	-0.43398282
88	0xbe5ae8bf	-0.21377848
89	0x3e47713f	0.19476794
90	0x3d8b6041	0.06805468
91	0xbe2d23ff	-0.16908263
92	0x3eaf073a	0.341852
93	0x3ec208c3	0.3789731
94	0xbed09f1c	-0.4074639
95	0xbe9e3a10	-0.30903673
96	0x3ef51d9f	0.47874162
97	0xbe164c28	-0.14677489
98	0xbe4e1051	-0.20123412
99	0xbf01960c	-0.5061958
100	0xbe728c0b	-0.23686235
101	0x3e2fb41e	0.17158553
102	0xbdee4ac1	-0.11635352
103	0xbed2716b	-0.41102156
104	0xbb205450	-0.0024464317
105	0xbeb5f38b	-0.3553737
106	0xbee07026	-0.43835562
107	0xbe943c0b	-0.2895206
108	0xbede68f5	-0.4343945
109	0xbe9f9131	-0.3116546
110	0x3efeed8e	0.49790615
111	0x3db8a20d	0.09015284
112	0x3e1eb39c	0.15498203
113	0xbeef100b	-0.46691927
114	0xbea59987	-0.32343695
115	0xbe28884f	-0.16458248
116	0x3de71e8f	0.112851255
117	0xbecfe603	-0.40605173
118	0xbe7c7f19	-0.24657859
119	0xbeaa6544	-0.33280385
120	0x3cf07f32	0.029357526
121	0xbe217e3e	-0.15770814
122	0xbd897e3c	-0.067135304
123	0xbebca882	-0.3684731
124	0xbe9e43ec	-0.30911195
125	0xbe85d85b	-0.2614163
126	0xbe4f75d5	-0.20259793
127	0xbed9f666	-0.425708
128	0x3ec255af	0.37955996
129	0xbe0742c5	-0.13209064
130	0x3ef253bd	0.47329512
131	0x3e471d1a	0.19444695
132	0xbec54b3c	-0.38533962
133	0x3ec4a8f8	0.38410163
134	0xbe36daab	-0.17856853
135	0xbe6c781f	-0.23092698
136	0xbed5a50a	-0.41727477
137	0xbefe2b83	-0.49642572
138	0x3e0dcf83	0.1384869
139	0xbded9beb	-0.116020046
140	0x3e6e849c	0.23292774
141	0xbebe6bb4	-0.37191546
142	0x3eaeac41	0.34115794
143	0xbecdf56c	-0.40226305
144	0xbdef49b5	-0.116839804
145	0x3d976af2	0.07393445
146	0x3e95a161	0.29224685
147	0x3ee06b3e	0.4383182
148	0x3ee4a0a1	0.446538
149	0xbec29cbe	-0.3801021
150	0x3e058347	0.1303836
151	0xbe6277e8	-0.22116053
152	0xbd189f80	-0.037261486
153	0xbeb6b769	-0.35686806
154	0x3edffcbc	0.4374751
155	0xbec4fbbb	-0.38473305
156	0x3e9bcad6	0.3042819
157	0x3e53d5f1	0.20687081
158	0x3e09bd80	0.13451195
159	0xbe9a9c4b	-0.30197367
160	0x3f00d4cc	0.503247
161	0x3e1e2db6	0.15447125
162	0x3c7a4f66	0.015277719
163	0xbef934b1	-0.48673013
164	0x3e2a43fa	0.16627494
165	0xbde8f864	-0.11375502
166	0xbe390980	-0.1807003
167	0x3ef34429	0.4751294
168	0x3d9a0ffc	0.0752258
169	0xbe9ee3c7	-0.31033155
170	0xbe5d1a32	-0.21592024
171	0x3c3114db	0.010808195
172	0x3e9dc541	0.30814555
173	0xbdc9418c	-0.09826955
174	0xbea164ae	-0.31522125
175	0xbe4da86a	-0.20083776
176	0xbeabaf8d	-0.33532372
177	0x3e5dca37	0.2165917
178	0x3eb358f9	0.35028818
179	0xbf01f4e5	-0.50764304
180	0x3e29bef5	0.1657675
181	0x3e9c0031	0.30468896
182	0x3d28c8fe	0.041207306
183	0xbe66a1e2	-0.22522691
184	0x3e9e8116	0.3095786
185	0x3e9f6d1f	0.3113794
186	0x3e0e1821	0.13876392
187	0xbe0b57c1	-0.13607694
188	0xbe18d005	-0.14923103
189	0x3d5f7c31	0.054561798
190	0xbd9fb85c	-0.07798836
191	0xbe1947e4	-0.1496883
192	0x3eabc924	0.33551896
193	0x3ee16157	0.44019577
194	0xbd46f665	-0.048574824
195	0xbdf08ffb	-0.11746212
196	0xbcf52274	-0.029923655
197	0xbd917256	-0.07101886
198	0x3e28c16f	0.16480039
199	0x3e3cae9e	0.18425986
200	0xbef4bd2e	-0.47800583
201	0xbe5840c9	-0.21118464
202	0x3ee77f4e	0.45214313
203	0x3e66956a	0.22517934
204	0x3cbdad89	0.023154037
205	0xbe822aad	-0.25423184
206	0xbeb5456a	-0.3540452
207	0xbefd8aa7	-0.49519846
208	0xbe2942f3	-0.16529445
209	0x3e2db5ff	0.16963957
210	0x3ea20cb9	0.31650332
211	0x3e6abf37	0.22924505
212	0xbef5e7aa	-0.48028308
213	0xbeaa3341	-0.3324223
214	0xbd1bdd45	-0.038052816
215	0x3f0558cb	0.5208861
216	0x3d942118	0.07232875
217	0xbe0497d0	-0.12948537
218	0x3e53d27c	0.20685762
219	0xbe4302e8	-0.19044077
220	0xbea3202a	-0.31860477
221	0x3ebff896	0.37494344
222	0xbe73c86a	-0.2380692
223	0xbde270a6	-0.11056642
224	0xbefeab7e	-0.49740213
225	0x3eab5552	0.33463532
226	0x3ec1f458	0.37881732
227	0x3e3a98f4	0.1822241
228	0xbeb96880	-0.3621254
229	0xbf038501	-0.5137482
230	0xbec334b1	-0.38126138
231	0x3ecad7a8	0.39617658
232	0x3e911715	0.28337923
233	0x3eed367a	0.46330625
234	0x3e5e52a3	0.21711211
235	0x3daaca71	0.08339394
236	0xbb853f4f	-0.004066385
237	0xbebebe87	-0.37254736
238	0xbee4bc97	-0.44675133
239	0xbef58c02	-0.4795838
240	0x3e7d2aa8	0.24723303
241	0xbe4f9e46	-0.2027522
242	0xbe11bff0	-0.14233375
243	0xbea94fe0	-0.33068752
244	0xbe0a99a2	-0.13535169
245	0xbec90522	-0.3926173
246	0xbe8d86ca	-0.27641898
247	0x3e5a471b	0.21316187
248	0xbdd5be71	-0.104367144
249	0x3eb3514a	0.35022956
250	0xbe4d10f4	-0.20025998
251	0xbed1ebe2	-0.41000277
252	0xbd30bd0a	-0.04314903
253	0xbe4a78f4	-0.19772702
254	0xbe4e4871	-0.20144822
255	0xbf05b4d2	-0.52229035

0.bias f4 [128]
0	0x3e375c23	0.17906241
1	0xbebdfb94	-0.37106
2	0xbe8eb801	-0.2787476
3	0xbed4d57c	-0.41569126
4	0x3eefc31d	0.46828547
5	0xbef1a833	-0.47198638
6	0x3ec32a65	0.38118282
7	0x3c307b32	0.01077156
8	0xbcef57ce	-0.029216673
9	0x3e995ff8	0.2995603
10	0xbc83e4e4	-0.016100354
11	0x3eaebbe6	0.3412773
12	0x3eccdf89	0.40014294
13	0xbede4304	-0.43410504
14	0x3e60c126	0.2194868
15	0x3e10537a	0.14094344
16	0x3e09af97	0.13445888
17	0x3db7f9ca	0.0898319
18	0x3e31fc6a	0.17381445
19	0xbe50f069	-0.20404209
20	0xbd287ab4	-0.041132644
21	0x3efa7f7d	0.4892539
22	0x3ec2f0e6	0.38074416
23	0x3bf8aa5e	0.0075886687
24	0xbee4e680	-0.44707108
25	0x3d7c77a2	0.06163753
26	0xbea71618	-0.32634044
27	0x3ed55b3b	0.41671166
28	0xbe9c53af	-0.30532596
29	0xbc65bfe5	-0.014022802
30	0xbda90c92	-0.08254351
31	0x3e03b9fc	0.12863916
32	0x3efae8d9	0.49005774
33	0x3db3cd7b	0.08779427
34	0x3ea2cf9f	0.31799027
35	0x3ed31046	0.41223353
36	0x3edf0e93	0.43565807
37	0xbe3a51fc	-0.18195337
38	0xbdc288f9	-0.09498782
39	0x3e8613af	0.26186892
40	0xbdc5210c	-0.09625444
41	0x3e8c11d4	0.27357352
42	0xbdaf3e7b	-0.08556839
43	0xbe9e4b67	-0.30916902
44	0x3e715bd2	0.23570183
45	0x3de9dffe	0.11419676
46	0x3e881370	0.2657733
47	0x3f034f35	0.51292735
48	0x3eb2402b	0.3481458
49	0x3ef92c45	0.48666587
50	0x3d61dce5	0.055142302
51	0xbec3df65	-0.38256374
52	0xbeb4c603	-0.3530732
53	0xbe8db3e0	-0.27676296
54	0xbee1997e	-0.44062418
55	0xbe756aab	-0.23966472
56	0xbeebaa54	-0.46028388
57	0xbee1fed9	-0.44139746
58	0xbe846b21	-0.25862983
59	0xbef1e58e	-0.4724545
60	0xbe88088d	-0.26569024
61	0x3e633e04	0.22191626
62	0x3ee0c276	0.43898362
63	0xbdd3b7b0	-0.1033777
64	0xbde34d28	-0.11098701
65	0x3ea1b55d	0.31583682
66	0xbe4d49c9	-0.20047678
67	0xbe3f61e0	-0.1868968
68	0x3eab826f	0.3349795
69	0xbece75b3	-0.40324172
70	0x3da8f7d1	0.08250392
71	0x3eed8c85	0.4639627
72	0x3dc5975f	0.09648012
73	0x3e2ac2f0	0.16675925
74	0xbe99e3cb	-0.30056605
75	0x3d0098c0	0.031395674
76	0x3d820e55	0.0635039
77	0x3e0e7ede	0.13915583
78	0x3e546a44	0.20743662
79	0x3ef2b0de	0.47400564
80	0xbeae5942	-0.34052473
81	0x3d439129	0.047745857
82	0xbe52ee9a	-0.20598832
83	0xbeca4792	-0.3950773
84	0xbc1a7643	-0.00942761
85	0xbec99c42	-0.39377028
86	0x3ec61e7a	0.38695127
87	0x3dae7c64	0.085198194
88	0xbe61b09b	-0.22040026
89	0x3e9425cc	0.28935087
90	0xbee4704e	-0.44616932
91	0xbe411ad4	-0.1885789
92	0xbd6cf3c5	-0.057849664
93	0xbee219e4	-0.44160378
94	0xbe943aeb	-0.289512
95	0xbd582d6e	-0.0527777
96	0x3ed24d35	0.4107453
97	0x3f0213a5	0.50811225
98	0x3eaf2a8b	0.34212145
99	0xbea6e7bc	-0.32598674
100	0xbea821f4	-0.32838404
101	0x3ef38126	0.4755947
102	0x3e476786	0.19473085
103	0x3d64691b	0.0557643
104	0x3dc7049c	0.09717676
105	0xbeb90d90	-0.3614316
106	0xbe02391f	-0.12717102
107	0x3efcf40e	0.4940495
108	0xbdb73081	-0.08944798
109	0xbd13bc7e	-0.036068432
110	0xbec0da02	-0.37666327
111	0xbe804fd2	-0.25060898
112	0x3c9d77a9	0.019222097
113	0xbe9f044e	-0.31057972
114	0xbd975763	-0.073897146
115	0x3e670779	0.22561444
116	0xbefa69d4	-0.48908865
117	0x3e2817c0	0.1641531
118	0xbe92c737	-0.28667614
119	0xbe59fef1	-0.21288659
120	0x3e664ef5	0.22491057
121	0x3ed154aa	0.40884906
122	0xbdb964df	-0.09052443
123	0xbe52361c	-0.20528454
124	0xbee96749	-0.45586613
125	0xbe5cff8b	-0.21581857
126	0xbec82cda	-0.3909672
127	0xbd959d8d	-0.07305441

2.weight f4 [128, 128]
0	0x3bb7ee00	0.0056130886
1	0xbdc17870	-0.094468
2	0x3d84ac95	0.0647823
3	0x3d6323c6	0.055454038
4	0xbdca93e2	-0.09891488
5	0xbd5f064c	-0.054449365
6	0x3c915e4b	0.017745158
7	0xbc94c4c4	-0.018160231
8	0xbcb573b3	-0.022149896
9	0xbd237754	-0.039908722
10	0x3d6f995f	0.058495875
11	0xbd7da800	-0.061927795
12	0x3d78dd48	0.060757905
13	0x3bbae060	0.005703017
14	0x3c918e28	0.01776798
15	0x3d67b66a	0.056570448
16	0xbc6e9b28	-0.014563359
17	0xbd8093ff	-0.06278228
18	0xbc6a3758	-0.014295422
19	0x3d725971	0.05916733
20	0xbd908f6f	-0.07058608
21	0x3ca459f4	0.020062424
22	0xbdbde500	-0.09272194
23	0x3d3dd152	0.0463422
24	0x3d05c2f8	0.03265664
25	0x3b758fe0	0.003746979
26	0x3d1b626e	0.037935667
27	0xbc4ac4b0	-0.0123759955
28	0x3d4855ca	0.04890994
29	0xbd8f4c72	-0.06997003
30	0xbc54aa48	-0.012980051
31	0x3d209b0a	0.039210357
32	0x3d9ac0a3	0.07556274
33	0x3d386b5e	0.04502427
34	0xbd9d2f0c	-0.07674989
35	0x3d64fcb5	0.055905063
36	0xbd03f661	-0.032217387
37	0xbc9a99d8	-0.018872187
38	0xbda487bd	-0.080337025
39	0xbc63f5d8	-0.013913594
40	0x3d800a31	0.06251944
41	0xb9394e16	-0.00017672064
42	0xbd828f88	-0.06375033
43	0x3cdee138	0.027207002
44	0xbce82bdc	-0.028341226
45	0x3da54503	0.080698036
46	0xbd9d1dd7	-0.07671707
47	0xbd1f704f	-0.038925465
48	0xbdaec998	-0.08534545
49	0xbd41b671	-0.04729313
50	0x3c7c1480	0.015385747
51	0x3dae407b	0.085083924
52	0x3c213ddd	0.0098414095
53	0x3d97fa9a	0.07420845
54	0x3c8daad4	0.017293371
55	0x3d511722	0.05104745
56	0x3d911dc9	0.07085759
57	0x3d7bd7d2	0.06148512
58	0xbd4aa442	-0.049473055
59	0x3da66d67	0.081263356
60	0x3d5b4f7e	0.053542607
61	0xbd5c7270	-0.053820074
62	0xbd2cc41d	-0.042179216
63	0xbd97d44b	-0.074135385
64	0x3c1f1c00	0.009711266
65	0xbdac241c	-0.08405325
66	0x3d18ef1e	0.037337415
67	0x3ce4a974	0.027912833
68	0xbd9d451e	-0.07679199
69	0x3cc54fcc	0.024085902
70	0xbbeb8ef0	-0.0071886703
71	0x3ce468e9	0.027882056
72	0x3d4fbbea	0.05071632
73	0xbdcd7880	-0.10032749
74	0x3da6033b	0.08106085
75	0x3d97cf77	0.07412618
76	0x3d100c9c	0.035168275
77	0xbdbeff5c	-0.0932605
78	0xbd34981d	-0.04409038
79	0xbd161356	-0.036639534
80	0xbd0ff785	-0.035148162
81	0x3d4c2976	0.049844228
82	0x3ca1ddb5	0.019759038
83	0x3d8f6655	0.0700194
84	0xbd079785	-0.033103485
85	0x3cf3ae48	0.02974619
86	0x3c9b5ede	0.018966135
87	0xbdb03518	-0.08603877
88	0xbdaf97a4	-0.08573845
89	0xbd6efa3f	-0.058344122
90	0x3d6357d8	0.055503696
91	0xbdaa6c22	-0.08321406
92	0xbdb72b77	-0.08943837
93	0x3d4ad072	0.049515195
94	0x3d435492	0.047688074
95	0x3d76a17c	0.060212597
96	0xbd88a894	-0.06672779
97	0xbd9a30f5	-0.07528869
98	0x3d39b892	0.045342036
99	0x3d9d6b7d	0.076865174
100	0x3d589f2e	0.05288618
101	0x3aacffb2	0.0013198762
102	0x3ceea338	0.029130563
103	0x3dabcf6f	0.08389174
104	0xbd6996c3	-0.057028543
105	0xbd57062a	-0.052496113
106	0x3d7d3bee	0.06182473
107	0xbd9408e6	-0.0722826
108	0xbd7a2471	-0.06106991
109	0x3d5632aa	0.05229441
110	0x3cbb7a7e	0.022885557
111	0x3c83dea6	0.016097378
112	0xbd197255	-0.03746255
113	0xba9fe1c0	-0.0012198016
114	0x3da5acc1	0.08089591
115	0xbd594d89	-0.05305246
116	0x3a362c00	0.00069493055
117	0x3cf30a23	0.02966792
118	0xbd961eca	-0.07330091
119	0x3d966950	0.073443055
120	0xbd6825c2	-0.056676634
121	0xbd0a2ed7	-0.033736076
122	0xbcc3e9f0	-0.023915261
123	0xbd6becfc	-0.057599053
124	0xbdb1a0bc	-0.08673236
125	0x3d1903ff	0.037357327
126	0x3cc05e5c	0.023482494
127	0xbda98af8	-0.08278459
128	0xbd4c4960	-0.049874663
129	0x3db2e9e9	0.08736021
130	0x3d0a6246	0.033785127
131	0x3d11441e	0.035465352
132	0xbd485463	-0.048908602
133	0xbd1eb762	-0.038749106
134	0xbc8d1daf	-0.017226068
135	0xbc990581	-0.018679382
136	0xbda3f213	-0.08005156
137	0x3c090f9e	0.00836554
138	0xbc211c21	-0.009833367
139	0xbc2ab20e	-0.010418428
140	0x3c73e9c7	0.01488728
141	0xbd0f7e87	-0.035032775
142	0x3cc69b50	0.02424398
143	0x3ceae4ce	0.028673556
144	0xbd3961f9	-0.04525945
145	0xbdb7db54	-0.089773804
146	0x3d5448ca	0.05182723
147	0x3cacb814	0.021083869
148	0xbd93be2a	-0.07214005
149	0x3db0b1e9	0.08627684
150	0xbd2b2243	-0.04178072
151	0x3d84026c	0.064457744
152	0x3d64aa15	0.055826265
153	0xbd96d63e	-0.07365082
154	0x3d3215ad	0.043477703
155	0xbdb327e3	-0.08747842
156	0xbd6df5e0	-0.058095813
157	0xbbcb8a13	-0.006211528
158	0xbd6caee9	-0.057783995
159	0x3daa6c09	0.08321387
160	0xbcc1891e	-0.023624953
161	0x3d0ea5af	0.034825977
162	0xbdc35dd0	-0.09539378
163	0x3d4e2699	0.05032978
164	0xbd164127	-0.036683228
165	0xbda74675	-0.081677355
166	0x3ce1ce45	0.027564177
167	0x3d38b4d3	0.045094322
168	0x3da7fecb	0.08202895
169	0xbd882c7f	-0.06649112
170	0xbd599b9c	-0.053126916
171	0xbbc0d10b	-0.005884295
172	0x3cbb9d4f	0.022902159
173	0x3d162c76	0.036663495
174	0x3d517c54	0.05114396
175	0xbcafa1e4	-0.0214395
176	0x3d5367b0	0.051612556
177	0x3d690e2c	0.05689828
178	0xbc937e62	-0.0180046
179	0x3d87ed8c	0.06637105
180	0x3d30e27a	0.043184735
181	0x3d9fab29	0.07796318
182	0xbd4dbcb4	-0.05022879
183	0xbd22c776	-0.039741002
184	0xbcd15be4	-0.025556512
185	0x3b92eb40	0.0044836104
186	0x3d57120a	0.052507438
187	0xbd39d69f	-0.045370694
188	0x3d2714dd	0.04079138
189	0xbcbb5249	-0.022866385
190	0x3d5d8bda	0.05408845
191	0xbb26736d	-0.002539839
192	0xbd9e96b3	-0.07743587
193	0xbd4045b9	-0.046941493
194	0xbd5fd4b3	-0.054646205
195	0x3d26f29e	0.04075872
196	0xbd6af982	-0.057366855
197	0xbb92360d	-0.0044620098
198	0x3c847510	0.016169101
199	0xbd1f059e	-0.038823716
200	0x3d024b92	0.03181035
201	0xbde563fa	-0.1120071
202	0xbd7d8a6b	-0.061899584
203	0xbd9e6cb6	-0.07735579
204	0xbcf34bd8	-0.029699251
205	0xbd47377c	-0.0486369
206	0xbcae94e1	-0.021311225
207	0xbc63c505	-0.013901954
208	0x3d2a301a	0.04154978
209	0x3da2c6e0	0.07948089
210	0x3d01e572	0.031712957
211	0xbd3c5891	-0.0459829
212	0xbda1e1a2	-0.07904364
213	0x3d1634a7	0.036671307
214	0xbd58de27	-0.052946236
215	0x3d0de50a	0.034642257
216	0x3d9c938f	0.07645332
217	0x3d1b154c	0.037862107
218	0x3da9da35	0.08293573
219	0x3db506b0	0.08839166
220	0x3d0cddb7	0.03439113
221	0xbd9d85d2	-0.0769154
222	0x3da9cf48	0.08291489
223	0xbd2bc92b	-0.041939896
224	0xbd23a972	-0.039956518
225	0x3d9acf26	0.07559042
226	0x3d913dfa	0.07091899
227	0x3ca595bd	0.020213002
228	0xbc37b73c	-0.01121312
229	0xbd9c008d	-0.076172926
230	0xbc230fd8	-0.009952508
231	0x3db80fa0	0.08987355
232	0x3cc461a4	0.02397234
233	0x3bf7f9f0	0.0075676367
234	0xbc504897	-0.012712619
235	0xbd086fcb	-0.03330974
236	0x3d0d7512	0.034535475
237	0x3bb29c70	0.0054507777
238	0x3d6b8872	0.05750317
239	0xbc802924	-0.015644617
240	0x3d321da1	0.043485288
241	0x3d15704c	0.036484048
242	0x3c818fb5	0.015815595
243	0x3d670fb8	0.056411475
244	0x3d62deba	0.05538819
245	0x3daaffb1	0.083495505
246	0x3d8b29cf	0.06795084
247	0xbcb924e8	-0.022600606
248	0xbd960c24	-0.073265344
249	0x39fb1886	0.00047892722
250	0x3c5b746a	0.0133944545
251	0xbcbcdb94	-0.023053922
252	0xbbaa4b26	-0.0051969467
253	0x3b8838c0	0.0041571558
254	0x3d98387b	0.07432648
255	0x3ced4bd5	0.028966824

2.bias f4 [128]
0	0xbcd10790	-0.025516301
1	0xbc499df6	-0.012305727
2	0xbd597405	-0.05308916
3	0x3beeebb4	0.0072912816
4	0x3d946fa7	0.072478585
5	0xbdc1e07f	-0.09466647
6	0xbb87fbe9	-0.004149903
7	0x3d8e1654	0.069378525
8	0x3d9a2bf8	0.075279176
9	0x3d990c6c	0.074730724
10	0xbcf10487	-0.029421104
11	0x3cc7ce80	0.024390459
12	0xbd9a924c	-0.07547435
13	0xbbb8f6d7	-0.00564466
14	0x3d15e3e0	0.03659427
15	0x3d188a29	0.037241135
16	0x3d6045a6	0.054753922
17	0xbd69c13a	-0.05706904
18	0x3cecbfca	0.028900046
19	0xbd188d97	-0.037244406
20	0xbd2d8555	-0.042363483
21	0xbd47da25	-0.048792023
22	0xbd7638db	-0.060112815
23	0x3c6e442e	0.0145426225
24	0x3d3b1032	0.045669742
25	0x3d2850e7	0.04109278
26	0x3d577ded	0.052610327
27	0x3c8d2824	0.017231055
28	0x3d53fb60	0.0517534
29	0x3cad1913	0.02113012
30	0xbdab2cce	-0.08358155
31	0xbd4d9c32	-0.050197788
32	0xbd3462a7	-0.044039395
33	0xbd82546e	-0.0636376
34	0x3d5a8a39	0.053354476
35	0x3ddef397	0.10886305
36	0x3d6dff05	0.058104534
37	0xbc2cd9ba	-0.010549957
38	0x3c5410e0	0.012943476
39	0x3dc4f9fe	0.09617995
40	0x3d3658b5	0.04451819
41	0xbd7e1a5a	-0.06203685
42	0x3c318e98	0.01083722
43	0x3cdf00a6	0.027221989
44	0x3d399f16	0.04531773
45	0x3dee7b08	0.1164456
46	0x3d9a9d6d	0.07549558
47	0xbb6d16be	-0.0036176885
48	0x3d9883e2	0.0744703
49	0xbd34f4f9	-0.044178937
50	0xbd041d23	-0.03225435
51	0x3d488099	0.048950765
52	0xbb075ab3	-0.0020653426
53	0x3d8a11eb	0.06741699
54	0x3d82372b	0.06358179
55	0xbcd70f42	-0.026252393
56	0x3d9d3d5b	0.07677718
57	0xbd81e940	-0.06343317
58	0x3cf5b138	0.029991731
59	0x3d84c607	0.06483083
60	0x3d8ddbe8	0.069267094
61	0x3dfe0ac0	0.12404394
62	0x3d6ecbe4	0.058299914
63	0xbcf7d035	-0.030250648
64	0x3d9b04c9	0.07569272
65	0x3d4c88f8	0.04993531
66	0xbc4466a4	-0.011987362
67	0x3d837bfd	0.06420133
68	0x3c66b3d0	0.014080957
69	0x3cb17bfa	0.021665562
70	0x3d417df9	0.047239278
71	0xbc494752	-0.0122850705
72	0xbc7a0b86	-0.015261536
73	0x3be17004	0.0068798084
74	0x3c9255e6	0.017863225
75	0xbd78bc91	-0.060726706
76	0xbd97a674	-0.07404795
77	0x3ca37317	0.01995234
78	0xbd2a2744	-0.041541353
79	0x3d366ef4	0.044539407
80	0x3de0457b	0.10950752
81	0x3d42cbaa	0.04755751
82	0x3d82739c	0.06369707
83	0x3d83c542	0.06434108
84	0x3daa43bb	0.083137
85	0xbd90b3c8	-0.070655406
86	0x3ddf966e	0.10917364
87	0xbd92c22a	-0.0716594
88	0xbd6a9aaa	-0.057276405
89	0xbd3c5afb	-0.045985203
90	0x3da2885c	0.07936165
91	0x3d99c0d7	0.075074844
92	0x3c872801	0.016498568
93	0x3d90e986	0.07075791
94	0xbd69ac35	-0.057048995
95	0xbdb46444	-0.08808187
96	0x3d52f081	0.051498894
97	0xbb81e8dc	-0.0039645266
98	0x3d80328c	0.06259641
99	0xbd8ca96e	-0.06868254
100	0x3da025cb	0.078197084
101	0xbd9dea66	-0.077107236
102	0x3cff218c	0.031143926
103	0x3db1062c	0.08643755
104	0xbd159cbd	-0.03652643
105	0x3deb990a	0.11503799
106	0x3da1e596	0.07905118
107	0xbc259d01	-0.010108233
108	0xbd3c2a00	-0.04593849
109	0x3dd24b16	0.10268228
110	0xbcb259cc	-0.021771334
111	0x3d03c721	0.032172326
112	0x3ccbe625	0.024890015
113	0x3d321437	0.04347631
114	0xbd325e3b	-0.043546896
115	0x3da5f1cd	0.081027605
116	0x3d607250	0.054796517
117	0x3cb88c3c	0.022527806
118	0xbd2839c1	-0.041070703
119	0x3d4bfc96	0.04980143
120	0xbcfe4050	-0.031036526
121	0x3db8d866	0.0902565
122	0x3d88e2ee	0.066839084
123	0x3d53313f	0.051560637
124	0xbc699f5f	-0.014259188
125	0x3d935db8	0.0719561
126	0x3d7645c8	0.060125142
127	0x3cc8ca30	0.024510473

4.weight f4 [2, 128]
0	0x39c5371c	0.00037615828
1	0xbdc270af	-0.09494149
2	0xbd14357a	-0.03618381
3	0x3b3a48e0	0.0028424785
4	0xbdad9229	-0.084751435
5	0xbd77d440	-0.06050515
6	0x3cd639d7	0.026150627
7	0xbd04c54d	-0.032414723
8	0xbde46849	-0.11152703
9	0xbcd76b84	-0.026296385
10	0x3d32b170	0.04362625
11	0xbdf9d00d	-0.12197886
12	0x3c392450	0.0113001615
13	0xbdcf713c	-0.101290196
14	0xbba84c9c	-0.0051360857
15	0x3d97446c	0.07386097
16	0x3d547a40	0.0518744
17	0x3d61eca9	0.055157337
18	0x3c98e205	0.018662462
19	0xbda0cfac	-0.0785211
20	0x3c2df9d5	0.010618647
21	0x3cd0a832	0.025470827
22	0xbd21ca56	-0.039499603
23	0xbdc3661f	-0.095409624
24	0xbd4e0a6b	-0.050302904
25	0x3c802fad	0.015647734
26	0xbb4dff1c	-0.0031432575
27	0xbd205349	-0.039141927
28	0x3d10f3e8	0.035388857
29	0xbd74b541	-0.05974317
30	0xbc2811f0	-0.010258183
31	0x3bef9b15	0.0073121884
32	0xbdded770	-0.10880935
33	0x3d6db6bf	0.05803561
34	0xbdbb9a22	-0.09160258
35	0x3bd7e54e	0.0065886145
36	0xbb53486b	-0.003223921
37	0xbdb57b00	-0.08861351
38	0x3d367090	0.04454094
39	0xbd6daf7e	-0.05802869
40	0xbc1b11b0	-0.009464666
41	0x3d87ce7f	0.06631183
42	0xbdaa77c2	-0.08323623
43	0x3dba260d	0.09089289
44	0xbdb0e0c0	-0.08636618
45	0xbdd3f575	-0.103495516
46	0x3d2d23ed	0.04227059
47	0xbd761b30	-0.06008452
48	0xbdebcb75	-0.11513416
49	0xbdb61306	-0.08890347
50	0x3d1d722b	0.038438957
51	0x3cdcc8e3	0.026951259
52	0xbcb1b89b	-0.021694472
53	0x3d356c6d	0.044292856
54	0x3c38d489	0.011281141
55	0xbd75b0aa	-0.059982933
56	0x3abd34fa	0.0014435344
57	0x3d80e59f	0.06293797
58	0x3ce16e72	0.027518485
59	0xbd683ca9	-0.056698475
60	0x3da8a9ad	0.08235488
61	0xbd8f2074	-0.06988612
62	0x3dfcf7be	0.123519406
63	0x3d79c695	0.0609804
64	0x3d47a8b8	0.048744887
65	0x3c6bc4ff	0.014390229
66	0x3c18b3bf	0.009320199
67	0x3cf682f1	0.030091735
68	0xbda5ed10	-0.08101857
69	0xbd9e93c5	-0.077430286
70	0xbdc1be40	-0.094601154
71	0xbcea31be	-0.028588172
72	0xbcd3c25d	-0.025849516
73	0xbce930c2	-0.028465632
74	0xbdd80b60	-0.105490446
75	0xbd83a113	-0.06427207
76	0x3d0d664c	0.034521386
77	0x3d9b10af	0.075715415
78	0xbd533570	-0.051564634
79	0xbdd61d64	-0.104548246
80	0xbd55217b	-0.052033883
81	0xbc9dab41	-0.0192467
82	0xbe068d94	-0.13139945
83	0x3dd4ec27	0.10396605
84	0x3c78e07b	0.015190239
85	0x3d90387f	0.07042026
86	0xbd896e16	-0.0671045
87	0xbd53efec	-0.05174248
88	0x3dad83bd	0.08472393
89	0xbd55e2b9	-0.052218173
90	0xbddf8bf1	-0.109153636
91	0xbdf01ba5	-0.11724023
92	0x3ca3a548	0.019976273
93	0xbcfe34b7	-0.031030996
94	0xbdc7ea57	-0.09761494
95	0x3d884d92	0.0665542
96	0xbd9315cf	-0.07181894
97	0xbd1b925d	-0.03798138
98	0x3cb6a2fa	0.02229451
99	0x3d2d3eca	0.04229621
100	0x3d8f5d53	0.07000222
101	0xbc3369c8	-0.010950513
102	0x3cd43f67	0.025909139
103	0xbd4a069c	-0.04932271
104	0xbb6bf07a	-0.003600149
105	0xbdccc4b2	-0.09998454
106	0x3bfb8c17	0.007676612
107	0xbcdb76fe	-0.026790138
108	0x3cc1e54a	0.023668904
109	0xbd4197b8	-0.04726383
110	0x3d128400	0.035770416
111	0xbe0355d3	-0.12825708
112	0x3d315f31	0.043303672
113	0x3d3bc411	0.04584128
114	0x3d8f4594	0.06995693
115	0x3cdac0c6	0.02670325
116	0xbdfff5b4	-0.12498036
117	0xbc9a419b	-0.018830111
118	0xbd916e00	-0.07101059
119	0xbda71604	-0.08158496
120	0x3d238485	0.039921302
121	0xbd5a901f	-0.0533601
122	0x3d7d0b4a	0.061778344
123	0xbd07fd38	-0.033200473
124	0xbdaf4ef8	-0.08559984
125	0xbde4444c	-0.11145839
126	0x3ce3134e	0.027719166
127	0x3d8facc5	0.07015375
128	0x3d14ce66	0.03632965
129	0x3d2b4cff	0.041821476
130	0x3db28dfd	0.08718488
131	0xbe048399	-0.12940826
132	0xbd3419bd	-0.04396986
133	0x3d769f0f	0.060210284
134	0x3d3c206b	0.045929354
135	0x3ce9ef03	0.028556352
136	0xbdb43d10	-0.08800709
137	0xbdecdbc4	-0.115653545
138	0x3da3383b	0.079697095
139	0xbd8d6d49	-0.0690561
140	0x3cf78338	0.030213937
141	0xbd7c1015	-0.061538775
142	0xbd917e81	-0.07104207
143	0x3d675e94	0.05648668
144	0x3dc11238	0.09427303
145	0xbd7fedca	-0.062482633
146	0x3d336712	0.043799467
147	0xbbcc6d71	-0.0062386324
148	0xbd5352c9	-0.051592622
149	0x3c2eee2d	0.010676903
150	0x3cf094b0	0.029367775
151	0x3d3f2333	0.046664428
152	0xbd9d6d3e	-0.07686852
153	0x3d5292d6	0.051409565
154	0xbd513127	-0.051072266
155	0x3d0ecd14	0.034863546
156	0xbddd64b2	-0.10810222
157	0x3d5af248	0.053453714
158	0x3d989051	0.07449401
159	0x3c182dd9	0.009288275
160	0xbd35f082	-0.04441882
161	0x3c0d8f8c	0.008640181
162	0xbdefa417	-0.117012195
163	0xbdf03954	-0.117296845
164	0x3d7ea6f4	0.062170938
165	0xbdf714dc	-0.120645255
166	0xbd49f5e7	-0.049306776
167	0xbdd08cb6	-0.101830885
168	0xbe012c5c	-0.12614578
169	0xbd9cbc55	-0.07653109
170	0xba3b0400	-0.000713408
171	0xbd5fb59b	-0.05461655
172	0xbddca9a4	-0.10774544
173	0xbde2c39e	-0.11072467
174	0xbcf298d2	-0.029613886
175	0xbd93a43f	-0.07209062
176	0x3c973a46	0.018460404
177	0xbe06ff2d	-0.1318328
178	0xbde7d90e	-0.11320697
179	0xbd6b87e0	-0.057502627
180	0x3da811f7	0.082065515
181	0x3d8a22a6	0.0674489
182	0xbd09cd55	-0.033643086
183	0xbc86f25e	-0.016472992
184	0xb908c640	-0.00013043825
185	0x3b7363a0	0.0037138239
186	0x3d635453	0.05550034
187	0xbda57b45	-0.080801524
188	0xbced7f68	-0.028991416
189	0xbcda6748	-0.026660576
190	0x3dc515bd	0.09623287
191	0xbd9e922c	-0.07742724
192	0xbd4a7b75	-0.049434144
193	0x3d183a7a	0.037165143
194	0x3d2f5e82	0.04281474
195	0x3d4e5206	0.050371192
196	0xbcaf9db8	-0.02143751
197	0xbca1f5f1	-0.019770594
198	0xbd962231	-0.0733074
199	0x3d743319	0.059619043
200	0x3dbea723	0.093092225
201	0xbd972a40	-0.073811054
202	0xbb04865b	-0.0020221684
203	0x3db1b373	0.08676805
204	0x3c858b20	0.016301692
205	0xbd9e9b5a	-0.07744475
206	0x3d31ad22	0.043378003
207	0xbd2c728c	-0.042101428
208	0xbd84f057	-0.06491154
209	0x3cb34cc5	0.021887193
210	0x3cb096c5	0.021556268
211	0x3ce66565	0.02812452
212	0xbde28a02	-0.11061479
213	0x3cd56c3a	0.026052583
214	0xbdc4774f	-0.09593069
215	0xbd9ca553	-0.076487206
216	0xbd33906d	-0.043838907
217	0x3ce631ed	0.028099978
218	0x3cf7b6c4	0.030238517
219	0xbc97321e	-0.018456515
220	0x3d457b91	0.048213545
221	0xbdfd98f1	-0.12382687
222	0xbdaf601c	-0.08563253
223	0xbd7a6317	-0.061129656
224	0xbdf16a4a	-0.11787851
225	0xbdc6b160	-0.097018
226	0xbdd7889d	-0.10524104
227	0xbd8b154b	-0.06791171
228	0xbc55e04d	-0.013053966
229	0xbd28bf87	-0.04119828
230	0xbc7b978f	-0.015355959
231	0xbd614295	-0.05499514
232	0xbceb07e8	-0.028690293
233	0xbe012359	-0.1261114
234	0xbdfa8efe	-0.12234305
235	0xbdfcd4af	-0.12345254
236	0x3d6393d3	0.055560898
237	0xbd1adb54	-0.037806824
238	0xbd9a12ae	-0.07523094
239	0xbd99f5f9	-0.07517619
240	0xbce6bc49	-0.028165953
241	0xbdaea165	-0.08526877
242	0x3d907d4e	0.0705515
243	0x3dd63cea	0.10460837
244	0xbc9931b4	-0.018700458
245	0xbc16fa32	-0.009214925
246	0x3d5292aa	0.0514094
247	0xbc8879db	-0.016659668
248	0xbcd37db5	-0.025816778
249	0xbceb897b	-0.02875208
250	0xbdf98352	-0.121832505
251	0x3d037a6c	0.032099172
252	0xbc5240f4	-0.012832869
253	0x3c96fcd5	0.018431107
254	0x3d169408	0.036762267
255	0x3da14f26	0.078764245

4.bias f4 [2]
0	0xbd9f0342	-0.07764293
1	0xbcaae99c	-0.020863347
