checkpoints/dqn_cartpole.pth (torch, 6033 bytes, 6 tensors)

fc1.weight f4 [24, 4]
0	0x3d0c344b	0.034229558
1	0x3ed35087	0.41272375
2	0xbf2b0d47	-0.66817135
3	0xbeacb3cf	-0.33730933
4	0xbe25bbd8	-0.16184938
5	0xbe3f30c2	-0.18670943
6	0xbe972959	-0.29523733
7	0xbe947e29	-0.29002503
8	0xbf06c78d	-0.5264824
9	0xbf1aec51	-0.6051684
10	0x3e74c032	0.23901442
11	0x3ed9e6b4	0.42558825
12	0x3ef65463	0.48111257
13	0x3ee73b9c	0.45162666
14	0xbec453ea	-0.3834527
15	0xbe9bc128	-0.30420804
16	0xbf242e29	-0.64132935
17	0x3e7e3dd4	0.24828273
18	0x3edcde99	0.4313858
19	0x3f05e77a	0.5230633
20	0xbee7a389	-0.45241955
21	0xbe977971	-0.2958484
22	0x3ca72204	0.020401962
23	0xbde6e881	-0.11274815
24	0x3eb1ec46	0.34750575
25	0x3dbe9c05	0.09307102
26	0x3e38a22b	0.18030612
27	0xbe4693bb	-0.19392292
28	0x3e0a41e8	0.13501704
29	0xbdfe17e8	-0.124069035
30	0x3f6942a9	0.9111734
31	0x3f1c800e	0.61132896
32	0xbee6b2a2	-0.4505816
33	0xbe95ca6f	-0.29256007
34	0x3efeef6a	0.49792033
35	0x3ec75745	0.3893377
36	0xbf0c2f90	-0.54760075
37	0x3ed8080f	0.42193648
38	0xbd8e4c60	-0.06948161
39	0x3e313b95	0.17307885
40	0xbd71d7b3	-0.059043597
41	0x3eb680a1	0.3564501
42	0x3e63c90f	0.22244667
43	0x3e20e5c7	0.15712653
44	0xbf27fc9f	-0.65619844
45	0x3eac1d78	0.33616233
46	0x3d85606c	0.06512532
47	0xbe6e0b83	-0.23246579
48	0xbe86b6a9	-0.26311234
49	0xbe474701	-0.1946068
50	0x3f392eb7	0.72336906
51	0x3f2f2aea	0.68424857
52	0xbe231159	-0.15924586
53	0xbd8dacaf	-0.069177024
54	0xbe8f7a6f	-0.28023097
55	0x3e4f7c68	0.20262301
56	0x3c15ffb7	0.009155205
57	0x3dab1c78	0.08355039
58	0xbe7b50aa	-0.2454249
59	0xbe3c12db	-0.18366568
60	0xbeb6d116	-0.35706395
61	0x3eb75725	0.35808674
62	0xbef3bb6f	-0.47603938
63	0x3e87b069	0.26501778
64	0xbbcfbbbf	-0.0063395198
65	0x3d4fdd98	0.050748438
66	0xbd14485e	-0.036201827
67	0x3e44b0ef	0.1920812
68	0xbe9226d8	-0.2854526
69	0x3db248c5	0.08705286
70	0x3eebf4a1	0.46085075
71	0x3f295ed5	0.6616033
72	0x3e7c960d	0.24666615
73	0x3f1199de	0.5687541
74	0x3d65cbfd	0.05610274
75	0xbec724f2	-0.38895375
76	0x3ecacd6d	0.39609852
77	0xbeef5878	-0.46747184
78	0xbc14e314	-0.009087343
79	0xbe345fd9	-0.17614688
80	0xbedeca35	-0.43513647
81	0xbe5eb3bd	-0.21748252
82	0xbeb5cc52	-0.35507447
83	0xbe90461b	-0.28178486
84	0xbdd95f75	-0.1061391
85	0x3db433ae	0.087989196
86	0x3f2439a2	0.6415044
87	0x3f1b19fe	0.60586536
88	0xbde9231a	-0.11383648
89	0x3e75f5ba	0.24019518
90	0xbe8d3b0a	-0.27584106
91	0x3f024b5c	0.5089624
92	0xbf094aec	-0.53629947
93	0xbea84732	-0.32866818
94	0xbeddd6ea	-0.4332803
95	0xbec2a6c8	-0.3801787

fc1.bias f4 [24]
0	0xbd8d12cf	-0.06888353
1	0xbefe30b3	-0.4964653
2	0xbea10ffd	-0.3145751
3	0xbdc46ee0	-0.0959146
4	0xbd38cab8	-0.045115203
5	0x3f130af0	0.57438564
6	0x3f3d5208	0.73953295
7	0xbe6a9f50	-0.22912335
8	0x3f7c26f2	0.98496926
9	0x3d6600e5	0.056153197
10	0x3e4a0a75	0.19730552
11	0x3f5b8389	0.8574758
12	0xbeae5a83	-0.3405343
13	0x3ef60218	0.48048472
14	0x3f4484d4	0.7676518
15	0x3ef1f0d2	0.47254044
16	0x3f0bc8e0	0.54603386
17	0x3cb9f5e4	0.022700258
18	0xbe586166	-0.21130905
19	0x3f0e1fb1	0.5551711
20	0x3f485599	0.7825561
21	0xbe16c1d0	-0.14722371
22	0x3f325ce7	0.6967301
23	0xbedb5c5e	-0.42843908

fc2.weight f4 [24, 24]
0	0x3cfa5308	0.03055717
1	0xbde8bc69	-0.113640614
2	0x3d050f10	0.032485068
3	0xbbffbae0	-0.0078042597
4	0x3e224bc6	0.15849218
5	0x3d0c3cec	0.034237787
6	0x3e3ce400	0.1844635
7	0xbe14dcae	-0.14537308
8	0x3e2a8c22	0.16655019
9	0xbdc291c7	-0.09500461
10	0xbd3f3b38	-0.046687335
11	0xbbea2da0	-0.007146552
12	0xbe047f1a	-0.1293911
13	0xbdfc9a5a	-0.12334128
14	0xbe0975d4	-0.13423854
15	0xbe421fc3	-0.18957429
16	0x3e3cd094	0.18438941
17	0xbe4b391c	-0.19846004
18	0xbdaf1098	-0.08548087
19	0xbe41158b	-0.18855874
20	0xbdc50ed6	-0.0962197
21	0xbd411350	-0.04713756
22	0xbe481b7b	-0.19541733
23	0x3d640928	0.055672795
24	0x3cbd4bb0	0.02310738
25	0x3e1520dc	0.14563316
26	0xbd36d2d0	-0.04463464
27	0x3e4fbd18	0.20286977
28	0x3dedd4c8	0.116128504
29	0x3c1a3a80	0.009413362
30	0xbdfaaae8	-0.12239629
31	0x3e2ca090	0.16858125
32	0xbdd38ed5	-0.103299774
33	0xbd2f9424	-0.042865887
34	0x3e49d012	0.19708279
35	0xbe3103a7	-0.1728655
36	0xbe3438be	-0.1759977
37	0x3d1c6da8	0.038190514
38	0xbe194f44	-0.14971644
39	0x3cbec578	0.02328752
40	0xbdb65eb0	-0.08904779
41	0xbd0d148c	-0.034443423
42	0x3e0e9c34	0.13926774
43	0x3e0ac726	0.13552532
44	0x3d2cb564	0.042165175
45	0x3d85988c	0.06523237
46	0xbe20faf5	-0.15720733
47	0x3dc35928	0.095384896
48	0xbde2a9eb	-0.110675655
49	0xbe4a27f9	-0.19741811
50	0xbda961c6	-0.08270602
51	0xbe507283	-0.20356183
52	0xbea851ca	-0.328749
53	0x3eb093f3	0.34487876
54	0x3ec98135	0.3935639
55	0xbebd65d8	-0.36991763
56	0x3dda8159	0.10669202
57	0xbe651716	-0.22372088
58	0x3e4db52e	0.20088646
59	0x3eb29386	0.34878176
60	0xbe501d1e	-0.20323607
61	0x3ef43663	0.47697744
62	0x3ed2e0c6	0.41187114
63	0x3e8000cc	0.25000608
64	0x3e95b6bf	0.29240987
65	0xbe30daa0	-0.17270899
66	0xbeff8891	-0.4990888
67	0x3e2ce630	0.16884685
68	0x3e982796	0.29717702
69	0xbe8b6b3e	-0.27230257
70	0x3e29a387	0.16566287
71	0xbd33f49c	-0.04393445
72	0xbeaf8677	-0.34282276
73	0xbe1a9906	-0.15097436
74	0xbe15b033	-0.14617996
75	0xbe943bad	-0.2895178
76	0xbe6b35fd	-0.22969814
77	0x3e809677	0.25114796
78	0x3eb25ac7	0.34834883
79	0xbef5a8ad	-0.47980252
80	0x3e39b7cd	0.1813652
81	0xbdfa3ea3	-0.12218978
82	0xbd4a98f4	-0.049462274
83	0x3e9385d6	0.28813046
84	0xbeb56e13	-0.35435542
85	0x3eec1476	0.4610936
86	0x3ec89bf5	0.39181486
87	0x3ee55d81	0.447979
88	0x3ec9b4bc	0.39395702
89	0xbd67ff43	-0.05663992
90	0xbe638243	-0.2221766
91	0x3f07946e	0.5296086
92	0x3e32e6f9	0.17470922
93	0xbe7738a9	-0.24142708
94	0x3ee4f123	0.44715223
95	0x3c02c715	0.007982035
96	0x3df07ed0	0.117429376
97	0xbe2192ac	-0.15778607
98	0x3e3e7c5a	0.18602124
99	0x3d794f00	0.060866356
100	0xbe0c9b7f	-0.13731192
101	0x3d2d4784	0.04230453
102	0xbe2735d8	-0.16329134
103	0x3e0c1f80	0.13683891
104	0xbdfdbdf5	-0.12389747
105	0xbdac322b	-0.08408006
106	0x3dfe3040	0.12411547
107	0x3caed8b0	0.021343559
108	0xbd5b031c	-0.053469762
109	0xbdb89c6e	-0.090142116
110	0xbbdceaa0	-0.0067418367
111	0x3cc05120	0.023476183
112	0xbe094c97	-0.13408123
113	0xbcb2b100	-0.021812916
114	0xbb962420	-0.004581943
115	0x3e1b8072	0.15185717
116	0xbe4a4681	-0.19753458
117	0xbcf10418	-0.029420897
118	0x3d29ed0c	0.04148583
119	0xbe4b9cc9	-0.19884028
120	0xbe045968	-0.12924731
121	0xbda8924f	-0.08231031
122	0x3c68d58a	0.014211068
123	0x3c0e7fb5	0.00869744
124	0xbebb861c	-0.36625755
125	0x3ea82692	0.32841927
126	0x3e9cd8d3	0.30634174
127	0xbcc480e7	-0.023987247
128	0x3c261db3	0.010138917
129	0x3ec850ed	0.3912424
130	0x3ef36dbb	0.47544655
131	0x3ea19fa2	0.31567103
132	0xbcb2bb08	-0.0218177
133	0x3e9b73e9	0.3036187
134	0x3ecf64ad	0.40506497
135	0x3e867371	0.2625995
136	0x3e1a6647	0.15078078
137	0xbd1f8905	-0.03894903
138	0x3e01f968	0.12692797
139	0x3eee94f3	0.46598014
140	0x3eb55db8	0.35423064
141	0xbe74e4c5	-0.23915394
142	0x3e1be592	0.15224293
143	0xbdbdf7b7	-0.092757635
144	0x39df3a8e	0.000425775
145	0x3d3a0b44	0.0454209
146	0x3ea80d88	0.32822824
147	0x3c24baa3	0.010054263
148	0x3ea18fbc	0.31554973
149	0x3c92d150	0.017922074
150	0xbe798b19	-0.24369468
151	0x3d98501c	0.07437155
152	0x3e9ac84d	0.30230942
153	0x3cdb0d11	0.026739629
154	0xbdaf87e7	-0.08570843
155	0xbddfb7ba	-0.10923715
156	0x3ea095ee	0.31364387
157	0x3e651027	0.22369443
158	0xbe6c6911	-0.23086955
159	0x3e64bcfe	0.2233772
160	0xb98de4f1	-0.0002706419
161	0x3e8babae	0.2727942
162	0xbe638be4	-0.22221333
163	0xbe424292	-0.18970707
164	0xbd1ce7a3	-0.038306843
165	0x3ed0ab80	0.40755844
166	0x3e870fba	0.26379186
167	0xbd61411e	-0.05499374
168	0x3e04e248	0.12976944
169	0xbe0349df	-0.12821148
170	0xbd1de24c	-0.03854589
171	0xbe422c47	-0.18962203
172	0xbdb93b46	-0.09044509
173	0xbd31cef3	-0.043410253
174	0xbe684d81	-0.22685815
175	0xbe04d0f4	-0.12970334
176	0xbd823d71	-0.06359375
177	0x3de904f1	0.113778956
178	0xbd180030	-0.037109554
179	0x3befb8cd	0.007315731
180	0x3d906c50	0.07051909
181	0xbe771fea	-0.24133268
182	0x3d2fcdd6	0.04292091
183	0xbd1aef68	-0.03782597
184	0xbdf90f77	-0.12161153
185	0x3b3b824a	0.0028611594
186	0x3df335de	0.11875509
187	0x3cdb950b	0.026804468
188	0x3d58006f	0.05273479
189	0xbe255a9a	-0.16147843
190	0xbd8f3493	-0.069924496
191	0xbdf81231	-0.12112845
192	0xbd8fdf0f	-0.07024967
193	0x3dc25e18	0.09490603
194	0xbe74db5e	-0.23911807
195	0xbe31c69f	-0.17360924
196	0xbebed932	-0.37275082
197	0x3daa37fd	0.0831146
198	0x3ed8fbdf	0.42379662
199	0xbe29b64c	-0.16573447
200	0x3d2641a4	0.040589944
201	0x3d497844	0.04918696
202	0xbd8acfff	-0.06777953
203	0x3e9f34ca	0.31094962
204	0xbe461669	-0.19344486
205	0x3e9e7d75	0.3095509
206	0x3f05dcf7	0.5229029
207	0x3e978eb9	0.29601076
208	0x3e841ed7	0.2580478
209	0xbe47b9ce	-0.19504473
210	0xbd1be3ec	-0.03805916
211	0x3ef2630e	0.47341198
212	0x3e7931c6	0.24335393
213	0xbe984e51	-0.2974725
214	0x3e608623	0.21926169
215	0x3df2d945	0.11857847
216	0x3e40856b	0.18800895
217	0x3dc917ef	0.09819018
218	0xbe43cb58	-0.19120538
219	0x3e68cd61	0.22734596
220	0xbdbc9ec7	-0.09209972
221	0x3da81f21	0.08209062
222	0x3c250ba5	0.010073577
223	0xbe2b9688	-0.16756642
224	0xbe955ad5	-0.29170862
225	0x3db70768	0.089369595
226	0x3e14a807	0.14517222
227	0xbc22917e	-0.009922383
228	0xbd24f638	-0.040273875
229	0x3e237282	0.1596165
230	0x3e21d4e7	0.15803872
231	0xbda5ca69	-0.08095247
232	0xbe1b8bfb	-0.15190117
233	0x3dd737a3	0.10508659
234	0x3e64e22f	0.22351907
235	0x3e3a04ff	0.18165968
236	0x3ddeb76a	0.10874827
237	0x3dac1bb8	0.084037244
238	0xbe3480e8	-0.17627299
239	0x3e0dae6a	0.13836065
240	0x3edea3a8	0.43484235
241	0xbdce4da0	-0.100733995
242	0xbbf6f620	-0.0075366646
243	0x3f04c2d4	0.51859784
244	0xbddfa6db	-0.10920497
245	0x3c908ca7	0.017645193
246	0x3e81657b	0.25272736
247	0xbe0b148f	-0.13582061
248	0xbf37669e	-0.71640956
249	0x3e6170e4	0.2201572
250	0x3d766d9f	0.060163137
251	0x3dfdfc64	0.12401655
252	0x3cb30d28	0.02185686
253	0xbe9b9e1c	-0.30394065
254	0x3c246f4d	0.010036302
255	0x3e8c7f80	0.27441025

fc2.bias f4 [24]
0	0xbe0eb706	-0.13937005
1	0x3d22b0f4	0.039719537
2	0x3eea526e	0.45766014
3	0x3eb5a9b0	0.35481024
4	0x3d2b4224	0.041811123
5	0x3ca64e08	0.02030088
6	0x3d59c5e9	0.053167257
7	0xbdb1cec7	-0.08682018
8	0x3cce1d26	0.025160383
9	0x3c4baf7d	0.012431976
10	0x3ce32f5a	0.02773254
11	0x3e4ba703	0.19887929
12	0x3e026b39	0.12736215
13	0x3ef3b339	0.47597674
14	0x3e64b695	0.22335275
15	0x3e200dc0	0.15630245
16	0xbe058e53	-0.13042574
17	0x3e2909ae	0.16507599
18	0x3d985f56	0.07440059
19	0x3e809ece	0.25121158
20	0x3ec9704a	0.39343482
21	0x3e274644	0.16335398
22	0xbdf04cc4	-0.11733392
23	0x3eeaa98f	0.45832488

fc3.weight f4 [2, 24]
0	0xbda5f0c0	-0.0810256
1	0x3e1b2224	0.15149742
2	0x3ed791be	0.4210338
3	0x3e7f9606	0.24959573
4	0xbdd9cf90	-0.106352925
5	0x3e9c1d9f	0.3049135
6	0xbec98500	-0.39359283
7	0xbdf16aed	-0.117879726
8	0x3efde96c	0.4959215
9	0x3d01a202	0.031648643
10	0xbe51ee6f	-0.20501111
11	0x3e03178d	0.12801953
12	0xbda0d951	-0.0785395
13	0x3ea4d1de	0.32191366
14	0x3e27d85b	0.16391127
15	0x3f20b3ad	0.62774163
16	0x3e4cf184	0.20014006
17	0x3f1e04b1	0.6172591
18	0xbcb3751b	-0.021906426
19	0xbea72b86	-0.32650393
20	0x3f0e5453	0.5559742
21	0xbe933d64	-0.28757775
22	0xbd520a06	-0.05127909
23	0x3eb3e551	0.35135892
24	0xbd8cb1e6	-0.06869869
25	0x3da5c630	0.08094442
26	0x3ef091d2	0.46986252
27	0x3eb4a2ce	0.3528046
28	0x3e30f210	0.1727984
29	0x3f2099f9	0.62734944
30	0x3b7281dd	0.0037003674
31	0x3d1e903b	0.038711768
32	0x3e54b515	0.20772202
33	0xbe66db71	-0.22544648
34	0xbec1759d	-0.37785044
35	0x3ec061da	0.37574655
36	0xbe364e01	-0.17803194
37	0x3ec3621b	0.38160786
38	0x3eef95f0	0.4679408
39	0x3ec83ef9	0.39110544
40	0x3dc7485c	0.09730598
41	0x3e99f3d0	0.30068827
42	0x3cb181cf	0.021668343
43	0x3e184190	0.1486876
44	0x3e2f8fe2	0.1714473
45	0xbe5e4c78	-0.21708858
46	0xbe29979f	-0.16561745
47	0x3f056f63	0.5212309

fc3.bias f4 [2]
0	0x3eaf5d2c	0.34250772
1	0x3e56c7b8	0.20974624
