checkpoints/dqn/20251120-2008/ckpt_ep250.pth (torch, 72697 bytes, 6 tensors)

0.weight f4 [128, 4]
0	0x3ea09165	0.31360927
1	0x3ee19862	0.4406157
2	0x3d68074b	0.05664758
3	0x3f0ba995	0.54555637
4	0xbe534280	-0.20630836
5	0x3d1902fa	0.037356354
6	0xbd883245	-0.06650213
7	0x3ed5bf33	0.41747436
8	0x3ed1b823	0.40960798
9	0xbebd5779	-0.369808
10	0x3ef62aa8	0.4807942
11	0x3de59c58	0.11211461
12	0x3ebd2294	0.36940444
13	0x3d8aae50	0.06771529
14	0x3e76e15c	0.24109405
15	0xbd909460	-0.0705955
16	0x3ebf13ca	0.37319785
17	0x3d884a4d	0.06654797
18	0xbe7eb026	-0.24871883
19	0x3dfe96c6	0.124311015
20	0xbea8895c	-0.32917297
21	0xbe02a54a	-0.12758365
22	0xbd9fd726	-0.07804708
23	0x3ed74962	0.42048174
24	0xbeb0bcea	-0.3451913
25	0xbe993644	-0.29924214
26	0xbe82a9ef	-0.25520274
27	0xbea25452	-0.31704956
28	0x3da1d80d	0.079025365
29	0xbf0f9f61	-0.5610257
30	0x3e8cdca2	0.2751208
31	0xbf07b8da	-0.53016436
32	0x3eb7ce52	0.35899597
33	0x3e2f0382	0.17091182
34	0xbcdde151	-0.027084978
35	0x3eb820c6	0.35962504
36	0x3db040ca	0.086061075
37	0x3ea8e28a	0.32985336
38	0xbd2e2585	-0.04251625
39	0xbe4682f4	-0.19385892
40	0x3db28b3e	0.087179646
41	0xbd9892fe	-0.074499115
42	0x3ec272be	0.37978166
43	0x3f07eb8d	0.53093797
44	0x3e57fbea	0.21092191
45	0xbe540c40	-0.20707798
46	0x3ee8739a	0.45400697
47	0x3e35e7bc	0.17764181
48	0x3e8b33ee	0.27188057
49	0xbeabd959	-0.3356426
50	0xbf19a30c	-0.60014415
51	0xbe6a0805	-0.22854622
52	0xbec45b9c	-0.38351142
53	0x3ed20ed6	0.41026944
54	0x3e1378d8	0.14401567
55	0x3e5413cc	0.20710677
56	0x3e406720	0.18789339
57	0xbb9f7681	-0.0048664217
58	0x3e93f6ca	0.28899223
59	0xbed4e98c	-0.41584432
60	0xbd4b7bcb	-0.049678605
61	0xbec7c30c	-0.39015996
62	0x3e82424f	0.25441214
63	0xbdb885ff	-0.09009933
64	0x3e46c50a	0.19411102
65	0xbde08875	-0.10963527
66	0x3e989bc8	0.29806352
67	0xbebc8787	-0.3682215
68	0xbebcb821	-0.3685923
69	0xbe9acae8	-0.3023293
70	0x3f19c794	0.6007016
71	0x3e7f9642	0.24959663
72	0x3f0bae37	0.54562706
73	0xbed7d036	-0.4215104
74	0xbf229e8d	-0.6352318
75	0xbef151ed	-0.47132817
76	0xbec51c73	-0.38498268
77	0x3e6e5509	0.23274626
78	0x3eb7fbc0	0.35934258
79	0x3f07076e	0.5274571
80	0xbe900059	-0.28125265
81	0xbec52ae9	-0.385093
82	0x3e7a7ddf	0.24462079
83	0xbe5eb0b0	-0.21747088
84	0x3eaea644	0.34111226
85	0xbdf3913a	-0.11892934
86	0x3e23dc1c	0.16001934
87	0xbeec5a85	-0.4616281
88	0xbe5b0515	-0.21388657
89	0x3e2e75ba	0.17037097
90	0x3c2c78eb	0.010526876
91	0xbe37abb9	-0.179366
92	0x3eaa950f	0.33316848
93	0x3e90d9e8	0.2829125
94	0xbefb56fb	-0.49089798
95	0xbea9aac1	-0.33138087
96	0x3eee0bce	0.4649338
97	0xbe44e55a	-0.19228116
98	0xbec1da4c	-0.3786186
99	0xbf2263e3	-0.63433665
100	0xbe62fbc1	-0.22166349
101	0x3dafba9b	0.08580514
102	0xbe53ca45	-0.20682628
103	0xbeded33e	-0.4352054
104	0xbd699742	-0.057029016
105	0xbeee9a4a	-0.46602088
106	0xbf26b5ab	-0.65120953
107	0xbef5b022	-0.4798594
108	0xbf02ff0b	-0.51170415
109	0xbe9585f3	-0.29203758
110	0x3f2e27fc	0.6802976
111	0x3e45c369	0.19312824
112	0x3dba7c4a	0.091057375
113	0xbf1f5a7e	-0.62247455
114	0xbec16eb3	-0.3777977
115	0xbd8c7c21	-0.06859613
116	0x3e11b1cb	0.14227979
117	0xbef28e40	-0.47374153
118	0xbecb023a	-0.39650136
119	0xbed751dc	-0.4205464
120	0x3d4b3d44	0.049618974
121	0xbe90bc4f	-0.28268668
122	0xbe63b849	-0.22238268
123	0xbedfecd7	-0.43735382
124	0xbe87fedd	-0.26561633
125	0xbeace95e	-0.33771795
126	0xbea5441f	-0.32278535
127	0xbeefdf34	-0.46849978
128	0x3eaf537d	0.34243384
129	0xbda098ba	-0.0784163
130	0x3f194268	0.5986695
131	0x3e771f9c	0.24133152
132	0xbec5cd02	-0.3863297
133	0x3eacffae	0.33788818
134	0xbe7a5511	-0.24446513
135	0xbe869bba	-0.26290685
136	0xbef7105b	-0.48254666
137	0xbef7b420	-0.48379612
138	0x3e9662d0	0.29372263
139	0xbc93ed17	-0.01805739
140	0x3dfb2fbb	0.12264963
141	0xbef20c91	-0.47275212
142	0x3ed520d6	0.41626614
143	0xbe9e15ff	-0.30876157
144	0xbe179401	-0.14802553
145	0x3e223828	0.15841734
146	0x3ed18d98	0.4092834
147	0x3eec7793	0.46184978
148	0x3edbf687	0.42961523
149	0xbf139752	-0.5765277
150	0x3da27662	0.07932736
151	0xbdb7fab7	-0.08983367
152	0x3a52fb74	0.00080483337
153	0xbeeb038e	-0.4590115
154	0x3e7c6cdc	0.24650902
155	0xbef7275a	-0.4827221
156	0x3e9d36dd	0.3070592
157	0x3e329258	0.17438638
158	0x3d42c368	0.047549635
159	0xbeacf454	-0.33780158
160	0x3efe4d4f	0.49668357
161	0x3d893116	0.066988155
162	0xbd9c0a4b	-0.07619151
163	0xbf0422be	-0.5161551
164	0x3e0b00f1	0.13574578
165	0xbd9887e7	-0.07447796
166	0xbd9d5cab	-0.07683691
167	0x3f043964	0.5165007
168	0x3d8c8cb3	0.06862774
169	0xbea2c991	-0.31794408
170	0xbe0ccfa3	-0.13751082
171	0x3d87303f	0.06600999
172	0x3e8ef0c4	0.27918065
173	0xbe02d554	-0.1277669
174	0xbe921132	-0.28528744
175	0xbe2f54ac	-0.17122144
176	0xbebc54b0	-0.3678336
177	0x3e03ea61	0.12882377
178	0x3e98cc6d	0.29843464
179	0xbf019079	-0.5061107
180	0x3e3271b6	0.1742619
181	0x3e91f84e	0.28509754
182	0xbcaf4d76	-0.021399241
183	0xbe824ffd	-0.2545165
184	0x3e9d479b	0.30718693
185	0x3e9421e4	0.28932106
186	0x3dbab88e	0.09117232
187	0xbe1a0473	-0.1504076
188	0xbddeea06	-0.1088448
189	0x3d473977	0.048638787
190	0xbe25421f	-0.16138504
191	0xbe3778bd	-0.17917152
192	0x3eb10221	0.34571937
193	0x3edb1f52	0.42797333
194	0xbe109a14	-0.14121276
195	0xbe28fe04	-0.1650315
196	0xbd94cc14	-0.07265487
197	0xbc5da28f	-0.0135275265
198	0x3e996b4d	0.29964676
199	0x3e81cc32	0.253511
200	0xbeffc230	-0.4995284
201	0xbe197e17	-0.14989506
202	0x3f11d22e	0.56961334
203	0x3e8b34ed	0.27188817
204	0x3c868d64	0.016424842
205	0xbeac96d6	-0.3370883
206	0xbf0957d6	-0.5364965
207	0xbf1cefa0	-0.6130314
208	0xbe826dae	-0.25474304
209	0x3e19738f	0.14985488
210	0x3f08dd28	0.5346246
211	0x3ec91caf	0.39279696
212	0xbf0417a8	-0.51598597
213	0xbe9990e6	-0.2999336
214	0x3da1cadc	0.079000205
215	0x3f12784a	0.57214797
216	0x3d942118	0.07232875
217	0xbe0497d0	-0.12948537
218	0x3e53d27c	0.20685762
219	0xbe4302e8	-0.19044077
220	0xbe9d2097	-0.30688927
221	0x3eba58e3	0.3639594
222	0xbe8fb66a	-0.28068858
223	0xbe01742c	-0.12641972
224	0xbefde98c	-0.49592245
225	0x3eac1744	0.336115
226	0x3ec2b630	0.38029623
227	0x3e3c1ca4	0.183703
228	0xbed02536	-0.4065339
229	0xbf08261e	-0.5318316
230	0xbe9c5a3d	-0.30537596
231	0x3edeb523	0.4349757
232	0x3eb6f5b5	0.35734335
233	0x3f0e7dda	0.55660784
234	0x3ee4d450	0.44693232
235	0x3e9a816b	0.30176863
236	0x3cfc80d3	0.030823147
237	0xbed843f8	-0.42239356
238	0xbf2d5981	-0.677147
239	0xbf298da9	-0.6623178
240	0x3e74d366	0.23908767
241	0xbe92b5ce	-0.2865433
242	0xbead415e	-0.33838934
243	0xbee6be44	-0.45067036
244	0xbe2d4c77	-0.169237
245	0xbebbede5	-0.36704937
246	0xbe32ee16	-0.17473635
247	0x3e86a912	0.26300865
248	0xbdf7bae9	-0.12096197
249	0x3e8c5be4	0.27413857
250	0xbe8f561e	-0.2799539
251	0xbed61fe7	-0.41821215
252	0xbcbc1750	-0.022960335
253	0xbe98b909	-0.2982867
254	0xbea8c41d	-0.32962123
255	0xbf12c0d8	-0.57325506

0.bias f4 [128]
0	0x3e348cca	0.17631832
1	0xbe8085d6	-0.2510211
2	0xbe9cb9da	-0.30610543
3	0xbed4d57c	-0.41569126
4	0x3f07cf6e	0.5305089
5	0xbeca5f54	-0.39525855
6	0x3f03238f	0.51226133
7	0xbd6b753c	-0.05748485
8	0xbd81b5ed	-0.06333528
9	0x3ee87152	0.45398957
10	0xbd7e5604	-0.06209375
11	0x3ee57a33	0.44819793
12	0x3eeca74c	0.46221387
13	0xbede4304	-0.43410504
14	0x3e8ed18b	0.27894244
15	0x3e3b4489	0.18287863
16	0x3dfe6cd7	0.12423103
17	0x3d9d3975	0.07676975
18	0x3daf3282	0.085545555
19	0xbe0f07e9	-0.13967861
20	0xbce7cb4f	-0.028295187
21	0x3f04caf4	0.5187218
22	0x3eec8c60	0.46200848
23	0xbd763595	-0.060109694
24	0xbe999371	-0.299953
25	0xbc64b037	-0.0139580285
26	0xbe1a6345	-0.15076931
27	0x3f035e4c	0.5131576
28	0xbe282694	-0.16420966
29	0xbd7b5230	-0.061357677
30	0xbdabe9ca	-0.08394201
31	0x3cf9f4c6	0.030512225
32	0x3f1796aa	0.5921427
33	0x3d6de688	0.05808118
34	0x3ed4e5ca	0.41581565
35	0x3efdaa7b	0.4954413
36	0x3f0862a0	0.5327549
37	0xbb4b0193	-0.003097628
38	0xbd892fb4	-0.06698552
39	0x3e8566e6	0.26055068
40	0xbe0ea6b5	-0.13930781
41	0x3e8134e4	0.25235665
42	0xbd90dfcb	-0.07073935
43	0xbeada1f2	-0.33912617
44	0x3ea096cc	0.3136505
45	0x3e0e61ee	0.13904545
46	0x3ea335cf	0.3187699
47	0x3f1fc7ae	0.6241406
48	0x3ee1b3dc	0.44082534
49	0x3f1992ae	0.5998944
50	0x3c1a3b14	0.009413499
51	0xbe775841	-0.2415476
52	0xbe29b5d0	-0.16573262
53	0xbe80a409	-0.2512515
54	0xbee1997e	-0.44062418
55	0xbe7d1054	-0.2471326
56	0xbeec6c45	-0.46176353
57	0xbee1c747	-0.4409735
58	0xbe11a7fc	-0.14224237
59	0xbe8e624e	-0.27809376
60	0xbe050a16	-0.12992129
61	0x3e81a917	0.25324318
62	0x3f04dab0	0.5189619
63	0xbddeac70	-0.108727336
64	0xbe08cbc4	-0.1335898
65	0x3ecb3a8d	0.39693108
66	0xbe5fd7cf	-0.21859668
67	0xbe06ced4	-0.13164836
68	0x3edb7b52	0.42867523
69	0xbeb49b39	-0.35274675
70	0xbbbb7c64	-0.0057216156
71	0x3ef81429	0.4845288
72	0x3d0453ad	0.032306362
73	0x3e393354	0.18085986
74	0xbea11ec5	-0.31468788
75	0xbd3f141b	-0.046650033
76	0x3e09ba41	0.13449956
77	0x3d6db934	0.05803795
78	0x3eb94306	0.36183947
79	0x3f099cb6	0.53754747
80	0xbe8580a0	-0.26074696
81	0xbd0df426	-0.034656666
82	0xbe161ed2	-0.14660195
83	0xbe7e2aef	-0.24821065
84	0xbd8c87f1	-0.06861866
85	0xbe8bee19	-0.27330092
86	0x3eec774c	0.46184766
87	0x3cf589af	0.02997288
88	0xbe54a414	-0.20765716
89	0x3eaec6dd	0.34136096
90	0xbea86b6a	-0.3289445
91	0xbe28085a	-0.16409436
92	0xbd9cfe89	-0.07665736
93	0xbee05df4	-0.4382168
94	0xbe937820	-0.28802586
95	0xbda50720	-0.080579996
96	0x3ee3af68	0.44469762
97	0x3f19c223	0.60061854
98	0x3eaf3020	0.34216404
99	0xbea73062	-0.326541
100	0xbe993058	-0.29919696
101	0x3f09f5f8	0.53890944
102	0x3e88837e	0.2666282
103	0x3cd420b5	0.025894502
104	0x3cbdb856	0.023159187
105	0xbeb1008c	-0.3457073
106	0xbe1cd8cc	-0.15317076
107	0x3f18dac4	0.5970881
108	0xbd85d709	-0.06535155
109	0xbbc3c116	-0.0059739454
110	0xbe5830a1	-0.211123
111	0xbe6a015e	-0.22852084
112	0xbd617755	-0.055045445
113	0xbe99f745	-0.30071464
114	0xbe022105	-0.12707908
115	0x3e610052	0.21972778
116	0xbefa69d4	-0.48908865
117	0x3dbeed85	0.09322647
118	0xbe7d120f	-0.2471392
119	0xbe7576a3	-0.23971038
120	0x3e9c4bda	0.3052662
121	0x3f07b28c	0.53006816
122	0xbd90b2cd	-0.070653535
123	0xbe52361c	-0.20528454
124	0xbee3c9f8	-0.44490027
125	0xbe470f2b	-0.1943938
126	0xbeae2ae6	-0.34017104
127	0xbdc437a2	-0.095809236

2.weight f4 [128, 128]
0	0x3d93fd09	0.07225997
1	0xbccb5710	-0.024821788
2	0x3e07798f	0.13229965
3	0x3d6323c6	0.055454038
4	0xbd80f889	-0.06297404
5	0x3c906fec	0.017631494
6	0x3c2d5a6b	0.010580639
7	0x3a92d109	0.0011201213
8	0x3d24ad06	0.04020407
9	0xbd41137a	-0.047137715
10	0x3e055fee	0.13024876
11	0xbb9d226b	-0.0047953627
12	0x3cfa49cb	0.030552765
13	0x3bbae060	0.005703017
14	0xbcdcfd41	-0.02697623
15	0x3db94ba3	0.0904763
16	0xbd7523ed	-0.059848715
17	0x3b77a4b8	0.003778739
18	0xbd5c6ca9	-0.053814564
19	0x3e242650	0.1603024
20	0xbca66a33	-0.020314312
21	0xbc3e0de1	-0.011599989
22	0xbd919313	-0.0710813
23	0x3d7fd1b8	0.062455863
24	0x3da8095e	0.08204912
25	0xb98a8fd0	-0.0002642856
26	0x3d84242c	0.06452212
27	0x3d48e670	0.049047887
28	0x3b3bf873	0.0028682023
29	0xbd96868c	-0.073498815
30	0x3b9a613d	0.0047112987
31	0x3c9f064d	0.019412184
32	0x3e09596b	0.13413016
33	0x3d0af974	0.033929303
34	0xbce3ffae	-0.027831879
35	0x3dabe8e0	0.08394027
36	0x3d0800da	0.033203937
37	0xbdde1f35	-0.10845796
38	0xbd9b98f1	-0.07597531
39	0xbd3f1c3e	-0.046657793
40	0x3d9c8ba2	0.0764382
41	0x3d6e4238	0.05816862
42	0xbca79c25	-0.020460198
43	0x3cdee138	0.027207002
44	0xbd801454	-0.06253877
45	0x3d918a65	0.07106475
46	0xbdab409b	-0.08361932
47	0xbca853e2	-0.020547811
48	0xbdc87cef	-0.09789454
49	0x3c258b3e	0.010103999
50	0x3db6005b	0.088867866
51	0x3de8831b	0.113531314
52	0x3df29bdf	0.11846136
53	0x3e10a875	0.14126761
54	0x3c8daad4	0.017293371
55	0x3d4e63d9	0.05038819
56	0x3d942557	0.072336845
57	0x3df91ca0	0.12163663
58	0xbcfc29d7	-0.03078167
59	0x3dea8dd6	0.11452834
60	0x3dd5864c	0.10426006
61	0xbba156c2	-0.0049236724
62	0xbd9e0c49	-0.07717187
63	0xbd71f03d	-0.059067
64	0x3d9782c2	0.07397987
65	0xbd35d51d	-0.044392694
66	0x3dbca1ff	0.09210586
67	0x3d387b1b	0.045039278
68	0xbd80df15	-0.062925495
69	0x3c0d64d3	0.008629995
70	0xbc5bbd6d	-0.013411862
71	0x3da7a941	0.081865795
72	0x3d18c7a1	0.037299756
73	0xbda0a162	-0.07843281
74	0x3d5d6179	0.054048035
75	0x3dad5f2c	0.08465418
76	0x3d9dec8c	0.07711133
77	0xbc40728e	-0.011746062
78	0x3d26f4b3	0.040760707
79	0xbc952fea	-0.018211324
80	0x3d406c5f	0.04697835
81	0x3d03b4fa	0.032155015
82	0x3dd96537	0.10615008
83	0x3d9a06ad	0.075208046
84	0xbcf22fec	-0.029563867
85	0x3d7e9e34	0.062162593
86	0x3d963ed1	0.073362
87	0xbbb5037d	-0.0055240975
88	0xbd930384	-0.07178405
89	0xba552e69	-0.0008132221
90	0xbc825553	-0.015909826
91	0xbd68d45b	-0.056843143
92	0xbabfb356	-0.001462559
93	0x3d41b91a	0.047295667
94	0x3d3a28cc	0.045449063
95	0x3dfd7141	0.12375117
96	0xbdbede07	-0.09319692
97	0xbd984457	-0.0743491
98	0x3ca3d742	0.020000104
99	0x3d2fe9b3	0.042947482
100	0x3d589f2e	0.05288618
101	0x3bbb2333	0.005710983
102	0xbc78fdb2	-0.015197204
103	0x3d9ec789	0.07752902
104	0xbd6b8c6a	-0.057506956
105	0x3c5060ba	0.012718374
106	0x3da7282b	0.08161958
107	0xbc97ca14	-0.018528976
108	0x3c8d1ecf	0.017226605
109	0x3e03c0d7	0.12866531
110	0x3db20f2f	0.08694302
111	0x3d900029	0.070312805
112	0xbcd820f1	-0.026382895
113	0xbc162e74	-0.009166349
114	0x3da859d2	0.08220257
115	0xbdc4a800	-0.09602356
116	0x3a362c00	0.00069493055
117	0x3dc9c695	0.0985233
118	0xbc307a28	-0.010771312
119	0x3e09b056	0.13446173
120	0xbcd1face	-0.025632288
121	0x3c8dea1d	0.017323548
122	0xbc9f6a43	-0.01945985
123	0xbd6becfc	-0.057599053
124	0xbd95ab27	-0.07308035
125	0x3ddc752e	0.10764538
126	0x3d06dd46	0.032925867
127	0xbd8b9cc6	-0.068170115
128	0xbe083335	-0.13300784
129	0x3db2e9e9	0.08736021
130	0x3d0a6246	0.033785127
131	0x3d11441e	0.035465352
132	0xbd977392	-0.0739509
133	0xbd567ff8	-0.052368134
134	0xbb880d94	-0.0041520093
135	0x3d4360e8	0.04769984
136	0xbdb6b9fd	-0.08922193
137	0xbb615311	-0.0034381787
138	0x3b8da719	0.004322898
139	0xbda6385d	-0.08116219
140	0x3ce0e289	0.02745177
141	0xbd0f7e87	-0.035032775
142	0x3ce2dea9	0.027694063
143	0x3d6e2ad7	0.058146324
144	0xbd10bc2a	-0.035335697
145	0xbe06b3f1	-0.1315458
146	0x3da8e912	0.0824758
147	0x3cacb814	0.021083869
148	0xbbf5cb30	-0.0075010285
149	0x3db12cfb	0.086511575
150	0xbd4f95c5	-0.05067994
151	0x3d99cdc2	0.07509948
152	0x3e010f57	0.12603508
153	0xbd652108	-0.055939704
154	0x3e250685	0.16115768
155	0xbe243368	-0.16035235
156	0xbd1359b5	-0.035974223
157	0x3d73708c	0.059433505
158	0xbb43e921	-0.0029893594
159	0x3df667ca	0.12031515
160	0xbdbd8d47	-0.09255462
161	0x3d2396db	0.03993879
162	0xbdb096ed	-0.08622537
163	0x3d6056b2	0.05477018
164	0xbe283f71	-0.16430451
165	0xbcb53743	-0.022121077
166	0x3dee8ab5	0.1164755
167	0x3d30d46d	0.043171335
168	0x3dd1b39c	0.10239336
169	0xbe0e040a	-0.13868728
170	0xbd1f8d5e	-0.038953178
171	0x3c8b3694	0.016993798
172	0x3cd8daca	0.026471514
173	0x3d0ab5b8	0.033864707
174	0x3d1242bb	0.03570817
175	0xbcdcba9f	-0.026944457
176	0x3d1c9714	0.038230017
177	0x3bd982ac	0.0066378918
178	0xbddeaa64	-0.10872343
179	0x3e4ea8b7	0.20181547
180	0x3d30e27a	0.043184735
181	0x3c836764	0.016040511
182	0xbd4dbcb4	-0.05022879
183	0xbd0a8182	-0.033814915
184	0xbcd15be4	-0.025556512
185	0xbd6dad94	-0.058026865
186	0xbc269a27	-0.010168589
187	0x3dec0ef5	0.1152629
188	0x3e55d42a	0.20881715
189	0xbd869729	-0.065718
190	0x3d5db3e9	0.054126654
191	0x3d42c468	0.04755059
192	0xbdcb79b1	-0.0993532
193	0xbd488e60	-0.048963904
194	0xbd6969dd	-0.056985725
195	0x3e03e200	0.12879181
196	0xbda20c2a	-0.07912476
197	0x3cc1cb77	0.02365659
198	0x3d7874f2	0.060658403
199	0xbdf15b2d	-0.117849685
200	0x3d42ac8f	0.047527846
201	0xbd5db619	-0.05412874
202	0xbd79c479	-0.060978387
203	0xbd3105b7	-0.04321834
204	0xbd82d7c2	-0.06388809
205	0xbddd111c	-0.10794279
206	0xbe11ca78	-0.14237392
207	0xbd2b0252	-0.04175026
208	0x3bdbf7ec	0.006712904
209	0x3dffe831	0.12495459
210	0xbced7e37	-0.028990848
211	0x3c12b4ef	0.008954271
212	0xbd885939	-0.06657643
213	0x3dde3531	0.10849989
214	0xbd6c4323	-0.057681214
215	0xbc019419	-0.007908844
216	0x3ddcb1aa	0.10776074
217	0xbd72618b	-0.059175055
218	0x3cab84b6	0.020937305
219	0x3df56475	0.11982051
220	0xbc9cfe7f	-0.019164322
221	0xbd241e38	-0.04006788
222	0x3dcc9896	0.09990041
223	0xbd94bb5b	-0.07262298
224	0xbd33d303	-0.04390241
225	0x3d96faef	0.073720805
226	0x3d880bab	0.066428505
227	0x3d42cdce	0.047559552
228	0x3d242f07	0.04008391
229	0xbd702d83	-0.058637153
230	0xbbcfcb87	-0.006341401
231	0x3db57d27	0.088617615
232	0x3d21fceb	0.039547842
233	0xbc890505	-0.016726026
234	0x3c5a507f	0.013324856
235	0xbd6be7fc	-0.057594284
236	0x3d15c564	0.0365652
237	0xbced7e66	-0.028990936
238	0x3d6b8872	0.05750317
239	0xbc802924	-0.015644617
240	0x3dab0144	0.08349851
241	0x3d15704c	0.036484048
242	0x3ca5d9f6	0.020245533
243	0x3d7a3356	0.061084114
244	0x3d62deba	0.05538819
245	0x3bf5b43b	0.007498292
246	0x3d8b29cf	0.06795084
247	0xbdec8e75	-0.11550609
248	0xbd955544	-0.07291654
249	0xbbba9736	-0.0056942953
250	0xbd3fcc2c	-0.046825573
251	0xbcbcdb94	-0.023053922
252	0x3bbae229	0.00570323
253	0xbd20dd38	-0.03927347
254	0x3dd91998	0.10600585
255	0x3d84dd87	0.064875655

2.bias f4 [128]
0	0x3ca17cf4	0.019712903
1	0xbcf8fe39	-0.03039466
2	0xbd0421ac	-0.032258675
3	0xbce644f2	-0.028109048
4	0x3d8fb43a	0.07016797
5	0xbdc54c1e	-0.09633659
6	0xbc09fe0a	-0.008422384
7	0x3de2c863	0.11073377
8	0x3cb053b1	0.021524282
9	0x3d19dc2d	0.03756349
10	0xbcc3f8d8	-0.023922369
11	0xbd0edaf7	-0.03487679
12	0x3d2438e8	0.040093333
13	0xbcc28321	-0.023744168
14	0x3b98c8cd	0.004662609
15	0x3e576cf9	0.21037664
16	0x3e184788	0.14871037
17	0xbd74ff05	-0.059813518
18	0x3d2b42cf	0.04181176
19	0xbd92d730	-0.0716995
20	0xbdb1b57c	-0.086771935
21	0xbd3e5fde	-0.046478145
22	0xbd7638db	-0.060112815
23	0x3c211a73	0.009832966
24	0x3cec2f58	0.028831169
25	0x3d103928	0.03521076
26	0x3d040f25	0.032241005
27	0x3c993bad	0.018705213
28	0x3cd5ae83	0.02608419
29	0x3d87382b	0.0660251
30	0xbdab2cce	-0.08358155
31	0xbd656e27	-0.056013253
32	0xbdb67409	-0.08908851
33	0xbd8fb6f0	-0.070173144
34	0xbb113e1f	-0.0022162271
35	0x3d8c05f2	0.068370715
36	0x3d6e3646	0.058157228
37	0xbd2669c2	-0.040628202
38	0x3b2403bb	0.0025026638
39	0x3d15235f	0.036410686
40	0x3be9cdca	0.0071351277
41	0xbda52832	-0.08064307
42	0x3afdc310	0.0019360501
43	0x3d27d749	0.040976796
44	0x3a9d9c51	0.0012024735
45	0x3d871abf	0.06596898
46	0x3d47ccdb	0.04877935
47	0xbd892737	-0.06696933
48	0x3d6ded71	0.05808777
49	0xbda2570f	-0.07926761
50	0xbda4963e	-0.08036469
51	0x3e03ad63	0.1285911
52	0x3c8d577b	0.017253628
53	0x3d6a3a8c	0.05718474
54	0x3e300966	0.17191085
55	0xbcddec86	-0.027090322
56	0x3d95e8ad	0.0731977
57	0xbd9408ae	-0.07228218
58	0x3c06639d	0.008202461
59	0xba949278	-0.0011335155
60	0x3d3c0134	0.045899585
61	0x3d8395bb	0.06425043
62	0x3e5d2a89	0.21598257
63	0x3dae659c	0.08515474
64	0x3e500bfc	0.20317072
65	0x3e34a21f	0.1763997
66	0xbc5f85bf	-0.013642727
67	0x3e71b5b1	0.23604466
68	0x3c66b3d0	0.014080957
69	0xbcd0106b	-0.025398454
70	0x3c12e520	0.0089657605
71	0xbc470db6	-0.012149265
72	0xbba61ec9	-0.005069588
73	0x3c7c4a6e	0.015398605
74	0xbcc79ca2	-0.02436668
75	0xbd8db9d1	-0.06920207
76	0xbd98ea00	-0.07466507
77	0x3ce2f159	0.027702974
78	0xbd2685b3	-0.04065485
79	0xbc3511af	-0.011051579
80	0x3dbc091d	0.09181426
81	0x3dc04a27	0.093891434
82	0x3cf070b3	0.029350614
83	0x3d018820	0.03162396
84	0x3d3eb84f	0.04656249
85	0xbd9fd4d9	-0.07804269
86	0x3dbf1a97	0.093312435
87	0xbd988f78	-0.074492395
88	0xbd6a9aaa	-0.057276405
89	0xbbfe5be4	-0.007762419
90	0x3df7f4d3	0.121072434
91	0x3d29ad70	0.04142517
92	0x3c867ada	0.016416002
93	0x3d4223aa	0.047397293
94	0xbdc9f9c6	-0.098620936
95	0xbd980fa3	-0.074248575
96	0x3d0b8a7c	0.034067616
97	0xbcfc0cd0	-0.030767828
98	0x3d14a80d	0.03629308
99	0xbd6663c1	-0.056247476
100	0x3e42471a	0.18972436
101	0xbd9dea66	-0.077107236
102	0x3d005689	0.031332526
103	0x3c242b4e	0.01002009
104	0xbd82b85c	-0.0638282
105	0x3d917a36	0.07103388
106	0x3d392ecc	0.045210645
107	0xbd59f774	-0.053214505
108	0xbd4333e2	-0.0476569
109	0x3d1ccd82	0.038281925
110	0x3c46d285	0.012135153
111	0xbc806720	-0.015674174
112	0x3cd1ac24	0.025594778
113	0x3d2ed0fa	0.042679764
114	0xbd847cb3	-0.06469097
115	0x3e7dc52f	0.24782251
116	0x3cb31bf9	0.021863924
117	0x3caf7bd6	0.021421354
118	0xbd4af0eb	-0.049546164
119	0x3cc948ab	0.024570784
120	0xbd0055e4	-0.03133191
121	0x3d0ea870	0.034828603
122	0x3d210a0c	0.039316222
123	0x3db53f46	0.08849959
124	0xbcb13a8e	-0.021634366
125	0x3d4db31a	0.050219633
126	0x3d74c507	0.059758212
127	0x3e3b3243	0.18280892

4.weight f4 [2, 128]
0	0xbd83b0f4	-0.064302355
1	0xbe0fe865	-0.14053495
2	0xbddf020f	-0.108890645
3	0x3b0a882d	0.0021138296
4	0xbe01acae	-0.12663528
5	0xbd670379	-0.056399796
6	0x3cd0e290	0.025498658
7	0xbde04d89	-0.10952289
8	0xbdf1b41a	-0.1180193
9	0xbcc3c779	-0.023898827
10	0x3d1c4086	0.03814747
11	0xbe0d09a7	-0.13773213
12	0x3e1073ad	0.14106627
13	0xbe175685	-0.14779098
14	0xbc48f7f6	-0.01226615
15	0x3e996049	0.29956272
16	0x3dfb2b47	0.12264114
17	0x3dab3e8c	0.08361539
18	0xbdaa5d08	-0.083185256
19	0xbe01afdc	-0.12664741
20	0x3bec734a	0.007215892
21	0x3c8d2573	0.017229771
22	0xbd21ca56	-0.039499603
23	0xbd9beff9	-0.076141305
24	0xbdcff659	-0.10154409
25	0x3c778518	0.015107416
26	0x3cb42862	0.021991912
27	0xbd205349	-0.039141927
28	0x3d80bb54	0.0628573
29	0xbe080341	-0.13282491
30	0xbc2811f0	-0.010258183
31	0x3b8c7c1e	0.004287257
32	0xbe09fd03	-0.13475423
33	0x3d900b7b	0.0703344
34	0xbdc9c6d9	-0.0985238
35	0x3c936cb1	0.017996164
36	0xbd122b97	-0.0356861
37	0xbdc50cd7	-0.0962159
38	0x3d7fb8c1	0.062432054
39	0xbd85077c	-0.06495568
40	0x3c345185	0.011005764
41	0x3d9a5bca	0.075370386
42	0xbdaa77c2	-0.08323623
43	0x3d8bafbb	0.06820627
44	0xbdb5c761	-0.08875919
45	0xbde19726	-0.110151574
46	0x3cf8dc7e	0.030378576
47	0xbc9a282a	-0.01881798
48	0xbdaf5d25	-0.08562688
49	0xbdd8447b	-0.105599366
50	0x3d328856	0.04358705
51	0x3e2ef56c	0.17085809
52	0xbd78dd20	-0.060757756
53	0x3cb66d9b	0.02226906
54	0x3e1efe43	0.1552668
55	0xbd71ef8b	-0.059066337
56	0x3ae38d41	0.0017360823
57	0x3d80e59f	0.06293797
58	0x3ac8e80c	0.0015327944
59	0xbd719171	-0.058976594
60	0x3d8cf678	0.06882948
61	0xbdd00d7d	-0.10158823
62	0x3eb3186f	0.3497958
63	0x3ea458d1	0.32099012
64	0x3e92b1af	0.28651187
65	0x3e18bf53	0.14916734
66	0x3c000e39	0.007815891
67	0x3e75db59	0.24009456
68	0xbda5ed10	-0.08101857
69	0xbda3d014	-0.07998672
70	0xbdd18e89	-0.102322645
71	0xbcd353ca	-0.02579679
72	0xbddfba92	-0.10924257
73	0xbda5448e	-0.080697164
74	0xbe22d15b	-0.15900175
75	0xbd648e2a	-0.05579964
76	0x3ca1e160	0.019760787
77	0x3d5b769c	0.05357991
78	0xbd39351c	-0.045216665
79	0xbddbde00	-0.107357025
80	0xbdbdadb4	-0.09261647
81	0xbdba0b8a	-0.09084232
82	0xbe461856	-0.19345221
83	0x3d7d7517	0.061879244
84	0x3d185d26	0.03719821
85	0x3d3f1f65	0.0466608
86	0xbde1fb8f	-0.11034309
87	0xbdec4074	-0.11535731
88	0x3dad83bd	0.08472393
89	0xbdd8b792	-0.10581888
90	0xbe0901d2	-0.133796
91	0xbdf9c991	-0.12196649
92	0x3ca8d622	0.020609919
93	0xbdc22736	-0.09480135
94	0xbdeebaf7	-0.116567545
95	0x3dd769aa	0.10518201
96	0xbdf51e15	-0.11968628
97	0xbd36ac06	-0.044597648
98	0x3d1bd36b	0.03804342
99	0xb9f0397a	-0.0004581919
100	0x3e41aa2f	0.18912576
101	0xbc3369c8	-0.010950513
102	0x3cd117a6	0.025523972
103	0xbd58e341	-0.0529511
104	0xbb8fe065	-0.0043907636
105	0xbdeb51a3	-0.1149018
106	0x3ab729e0	0.0013974272
107	0xbc8249cd	-0.015904332
108	0x3be1ec7f	0.0068946476
109	0xbd72df75	-0.059295136
110	0x3e03b1d3	0.12860803
111	0xbe13162c	-0.14363927
112	0x3d5f3ae9	0.05449954
113	0x3d473163	0.048631083
114	0x3ce60557	0.028078718
115	0x3e4eb7c1	0.20187284
116	0xbe00e754	-0.12588245
117	0xbcc42724	-0.023944445
118	0xbd8012f9	-0.06253619
119	0xbdb4fc31	-0.08837164
120	0x3d54a218	0.051912397
121	0xbd7fb226	-0.062425755
122	0x3da80b36	0.08205263
123	0xbdd1008f	-0.10205185
124	0xbdc9c3eb	-0.098518215
125	0xbde1ff1a	-0.11034985
126	0x3cecb462	0.028894607
127	0x3e5b97ba	0.21444598
128	0x3b904c32	0.0044036144
129	0x3b743d2d	0.003726791
130	0x3d00b9d8	0.031427234
131	0xbe17d6be	-0.14828011
132	0xbd6054af	-0.05476826
133	0x3d816c13	0.06319442
134	0x3d299a96	0.04140719
135	0x3a411671	0.000736571
136	0xbdd37edb	-0.1032693
137	0xbe1625d0	-0.14662862
138	0x3dae7b0f	0.08519565
139	0xbdd1b668	-0.10239869
140	0x3e2334ab	0.1593806
141	0xbdcd20fb	-0.10016056
142	0xbdc63e8d	-0.09679899
143	0x3e822954	0.25422156
144	0x3e7fca89	0.24979605
145	0xbca39a98	-0.019971177
146	0xbc9c25ec	-0.019061051
147	0xbd9b4908	-0.07582289
148	0xbb044f99	-0.0020189045
149	0x3cb07be9	0.02154346
150	0x3cf094b0	0.029367775
151	0x3d76e1c4	0.0602739
152	0xbdc819ce	-0.09770547
153	0x3d3d201f	0.04617321
154	0xbcba8d22	-0.022772375
155	0x3d14d2af	0.036333736
156	0xbdc98ff9	-0.09841914
157	0x3c959cbb	0.018263211
158	0x3d989051	0.07449401
159	0x3bf513c8	0.0074791647
160	0xbdbba223	-0.091617845
161	0x3bfc98bb	0.0077086366
162	0xbe0b4a90	-0.13602662
163	0xbe07934f	-0.13239788
164	0x3d8b743f	0.068092816
165	0xbe2259dc	-0.15854591
166	0xbd1694f2	-0.03676314
167	0xbdf5ca8e	-0.12001525
168	0xbd95470d	-0.072889425
169	0xbcd8ec33	-0.026479816
170	0x3c06bf86	0.008224374
171	0xbe08bdce	-0.13353655
172	0xbe0b9e05	-0.13634498
173	0xbdec719a	-0.11545105
174	0x3bb81da9	0.00561877
175	0xbd9b964a	-0.07597025
176	0x3d4b2e3a	0.049604632
177	0xbe33a0c1	-0.17541791
178	0xbdf9c64d	-0.12196026
179	0x3dd2a4b8	0.10285324
180	0x3d8873df	0.06662726
181	0x3daeccba	0.08535142
182	0x3dd71d91	0.10503686
183	0xbc80a5fa	-0.015704144
184	0xbb86890e	-0.0041056937
185	0xbba85a6d	-0.0051377327
186	0x3b8710da	0.004121882
187	0xbdc99931	-0.09843672
188	0xbb89d4ab	-0.00420626
189	0xbda16964	-0.0788143
190	0x3e9fb069	0.31189278
191	0x3e15fdc1	0.1464758
192	0x3e280221	0.16407062
193	0x3e6248ca	0.2209808
194	0x3d41b4c1	0.04729152
195	0x3e851422	0.25991923
196	0xbcaf9db8	-0.02143751
197	0xbd14b93f	-0.036309477
198	0xbdbf40c5	-0.09338526
199	0x3d758626	0.059942387
200	0x3b335c0d	0.00273681
201	0xbe3154ab	-0.17317455
202	0xbda0375e	-0.078230605
203	0x3db1b373	0.08676805
204	0x3d0c5b63	0.03426684
205	0xbe01941d	-0.12654157
206	0x3d3b55b1	0.04573602
207	0xbd772bb8	-0.060344428
208	0xbda6e747	-0.081495814
209	0x3bdd1ca7	0.0067478004
210	0xbd6ce4fd	-0.057835568
211	0x3d2c399c	0.042047128
212	0xbddcb48f	-0.10776626
213	0x3d09ebe8	0.033672243
214	0xbde4db69	-0.11174662
215	0xbe35bacb	-0.17747037
216	0xbd33906d	-0.043838907
217	0x3d14fcbf	0.03637385
218	0x3d34e110	0.04415995
219	0xbd0600b9	-0.032715533
220	0x3d43e7e7	0.04782858
221	0xbe1ee4d4	-0.15516979
222	0xbe02409b	-0.12719958
223	0xbd8e5c98	-0.069512546
224	0xbe0c25fc	-0.13686365
225	0xbe08bc3c	-0.13353056
226	0xbd69e88c	-0.05710654
227	0xbe31de9c	-0.17370075
228	0x3e85a116	0.2609946
229	0xbd28bf87	-0.04119828
230	0xbc76a190	-0.015053168
231	0xbd8bfd91	-0.06835473
232	0x3c9970cd	0.018730545
233	0xbe2a6adb	-0.16642325
234	0xbe19cb24	-0.15018898
235	0xbe0eb5fc	-0.13936609
236	0x3d97b874	0.074082285
237	0xbd7f6e1e	-0.062360875
238	0xbd82f21d	-0.06393836
239	0xbde10a2b	-0.109882675
240	0xbc8bf55a	-0.017084766
241	0xbe0bc7cf	-0.1365044
242	0x3da83263	0.082127355
243	0x3ea494b8	0.32144713
244	0xbcfdd61d	-0.030985886
245	0xbc061652	-0.0081840325
246	0x3d5292aa	0.0514094
247	0xbd046fa4	-0.03233303
248	0x3c602390	0.013680354
249	0xbd5215b6	-0.051290236
250	0xbd91422c	-0.070926994
251	0xbbe10779	-0.006867346
252	0xbd181ce1	-0.037136916
253	0x3c73030b	0.0148322685
254	0x3d024f12	0.03181369
255	0x3ead2874	0.33819926

4.bias f4 [2]
0	0xbd6b6856	-0.05747255
1	0x3ca34a73	0.019932961
