checkpoints/dqn/20251120-2008/ckpt_ep450.pth (torch, 72697 bytes, 6 tensors)

0.weight f4 [128, 4]
00000000: dcce ab3e 15e9 ff3e 86bb ed3d 205f 133f
00000010: 877b 63be 6dc3 353c 36c1 19bd 0ccd ef3e
00000020: 48e9 f03e 82f4 b1be 49e9 003f 754d 003e
00000030: 9422 bd3e 50ae 8a3d 5ce1 763e 6094 90bd
00000040: e48d 853e 0090 e4bc a1cc 86be 6305 fe3d
00000050: f640 a3be cd2c 0cbe 7c75 aabd 4ffb e73e
00000060: 6cf4 bcbe 159c b0be e4c3 89be 5945 a6be
00000070: 9641 bf3d 7768 0ebf 391c 4b3e 19f6 04bf
00000080: 105f c23e 5b49 833e 7b7f 483d fdaa cb3e
00000090: 52e5 36bc a3b5 523e a66a 66bd ee1c 35be
000000a0: e13f b13d c1d2 3bbd faa6 df3e dc37 0f3f
000000b0: b5ae 393e df76 7abe 63fc eb3e 0e6a 323e
000000c0: eb74 803e d917 c1be 6199 1dbf e478 77be
000000d0: 4018 bcbe 1510 e03e 12ef 383e dea2 5e3e
000000e0: 4ad6 cd3d 77fb 00be 1253 893e de58 bebe
000000f0: f656 8cbd b6d8 d8be fa8f 873e 2e5f 94bd
00000100: 1764 fd3d 37e9 66be 4efe 9c3e 3cf7 99be
00000110: c7e4 acbe 71cb 9fbe 8049 1f3f bda3 883e
00000120: 63de 263f 0b3a efbe a544 30bf cef4 e7be
00000130: 1c7e c3be 7ddc 6c3e ab7f ce3e 11e2 143f
00000140: 229a 42be c147 a4be 5af4 6b3e 871d 69be
00000150: c513 893e 79cc 65be a3e2 083e 8744 e1be
00000160: 8d92 78be 2325 f83d 43b7 e9bb 41cf 41be
00000170: 2c32 d13e 267b 2f3e 8ddd 12bf 34b4 a9be
00000180: c4b1 113f 3777 a5be 7cff f6be 0dd1 28bf
00000190: 9cd2 07be fe84 383d 0fb7 8ebe 838a d8be
000001a0: b24b 00bd 714c ebbe 665f 3abf e4b7 f5be
000001b0: ab77 09bf cdc2 a6be 130a 323f 6642 473e
000001c0: 0a9f 2f3e 1301 12bf 8cdc c0be 8b1f ebbd
000001d0: a6c0 453e b8ae e1be 9739 eebe bc76 e3be
000001e0: f3c7 bd3d bd1c 89be 5ce7 97be 0104 e8be
000001f0: e400 3bbe 4cfd b2be 27dd bebe 6537 e1be
00000200: fd88 933e a50a fcbd 537a 1a3f ffc0 6b3e
00000210: 4c91 ccbe 8b81 9e3e 27aa 6bbe c387 7bbe
00000220: f879 01bf caba 03bf ead5 9d3e 3d01 8dbc
00000230: 9bbb ca3d 4742 04bf d25b cd3e 7c1c a3be
00000240: 7772 38be fe8b fc3d 3352 d93e 9a93 e83e
00000250: fc9c d63e 85b8 1cbf 6317 763d 7765 d1bd
00000260: d9ff d63c 9010 e7be 0fec 2b3e 4edc f4be
00000270: 1583 483e a96e b23c 44e9 e53c ec13 9dbe
00000280: ace7 123f 8ece 43bd f473 29be 3381 06bf
00000290: 9453 ea3d 9695 cdbd 7e8e 3dbd 225e 093f
000002a0: 682e 853d 432f aebe cc4c ffbd 750b 883d
000002b0: c4f0 8e3e 54d5 02be 3211 92be ac54 2fbe
000002c0: 9886 c9be 1c37 923d 63a4 8e3e 76b8 fdbe
000002d0: bc17 093e a726 5b3e 1f50 fcbc 9c08 6ebe
000002e0: aa87 2d3e ad4b 283e 962f a73d 709c 0fbe
000002f0: 0a44 0cbe ea8d 07b9 4975 38be 4336 45be
00000300: dc60 4c3e c3a1 993e 453e 1ebe 4be1 23be
00000310: d656 cdbd 528f 55bd c121 9c3e ba41 803e
00000320: 5c2c f0be 37e3 40be 9ee4 123f ac8f 953e
00000330: 1128 183d 865d b0be 3ff5 1dbf 6363 21bf
00000340: 7de5 86be a673 0c3e a67f 153f 940f ea3e
00000350: 6ce5 f7be 2290 87be 934d b23d 74e3 173f
00000360: 1821 943d d097 04be 7cd2 533e e802 43be
00000370: 9b21 70be a7f6 9d3e bf84 a9be 6908 b7bd
00000380: 0605 e0be 89f8 c13e 11a5 d73e fea3 593e
00000390: 1d14 bebe aa26 0dbf 44cc a4be 6534 e13e
000003a0: 8ef5 b23e 9432 233f 8904 0b3f 4068 c13e
000003b0: ce24 693d 952a d6be 8aef 40bf 0418 2fbf
000003c0: d586 b43e 057c 9cbe ea25 d3be dc3c edbe
000003d0: cf11 41be f3e4 cfbe cfa6 1dbe f78f 983e
000003e0: 5df5 13be de48 663e 89e9 97be dcc1 d6be
000003f0: 0f9f 6e3c faa3 95be b478 d3be 643f 15bf
0.3355626 0.49982515 0.11608033 0.57567024 -0.2221509 0.011093956 -0.037537776 0.46836126
0.4705298 -0.34756857 0.50355965 0.12529548 0.36940444 0.06771529 0.24109405 -0.0705955
0.26084816 -0.027900696 -0.26327994 0.12403371 -0.318855 -0.13688965 -0.083231896 0.4530892
-0.3690523 -0.3449408 -0.26907265 -0.32474783 0.093386814 -0.5562815 0.19834985 -0.51938015
0.37963152 0.25641903 0.0489497 0.3977889 -0.011163073 0.20577101 -0.05625405 -0.17686817
0.08654762 -0.045855287 0.4368208 0.5594461 0.18133052 -0.24459408 0.46090993 0.17423269
0.250892 -0.37713507 -0.6156216 -0.2416721 -0.3673725 0.4376227 0.18059948 0.21741816
0.10050638 -0.12595926 0.2682119 -0.37177175 -0.06852524 -0.42352837 0.26477033 -0.072447166
0.12372606 -0.22549902 0.3066277 -0.30071437 -0.33768293 -0.312099 0.6222153 0.26687422
0.65183085 -0.4672397 -0.68854743 -0.4530396 -0.3818215 0.23130985 0.40331778 0.5815745
-0.1900411 -0.32085994 0.23042431 -0.2276517 0.26772895 -0.22441281 0.13367705 -0.43997595
-0.24274655 0.12116458 -0.007132442 -0.18926717 0.4085859 0.17136821 -0.5736931 -0.33145297
0.56911874 -0.32317516 -0.48241794 -0.65943986 -0.13263935 0.045048706 -0.27874038 -0.42293176
-0.03132219 -0.45956758 -0.72801816 -0.4799186 -0.53698224 -0.32570496 0.6954662 0.19458923
0.17150512 -0.5703289 -0.37668264 -0.11480626 0.19311771 -0.44078612 -0.46528313 -0.44426525
0.09266653 -0.26779738 -0.296687 -0.45315555 -0.18262058 -0.34958875 -0.372781 -0.43987575
0.2881545 -0.12306718 0.603429 0.23022841 -0.39954603 0.30958208 -0.23014127 -0.24563508
-0.50576735 -0.5145689 0.30827266 -0.017212505 0.09899064 -0.5166363 0.40109116 -0.3185767
-0.18012415 0.12331389 0.42445526 0.4542511 0.41916645 -0.61219054 0.060080897 -0.10224431
0.026245045 -0.45129824 0.16789268 -0.4782433 0.19581254 0.021781282 0.028065331 -0.30679262
0.57384753 -0.047804408 -0.16548139 -0.5254089 0.114417225 -0.10038297 -0.04627847 0.5365926
0.06502992 -0.34020433 -0.1246582 0.0664281 0.27918065 -0.1277669 -0.28528744 -0.17122144
-0.393605 0.071394175 0.27859792 -0.49554795 0.1338796 0.21401463 -0.030799923 -0.23245472
0.16946283 0.16435118 0.08163373 -0.1402452 -0.1369783 -0.0001292747 -0.1801349 -0.1925898
0.19958824 0.30006227 -0.15453441 -0.16003911 -0.10026328 -0.052138634 0.30494502 0.25050145
-0.46908844 -0.18836676 0.5738009 0.29211175 0.037147585 -0.34446353 -0.6170234 -0.6304228
-0.2634696 0.13715991 0.583979 0.4571501 -0.48417222 -0.26477152 0.08706202 0.5933144
0.07232875 -0.12948537 0.20685762 -0.19044077 -0.2345032 0.30852243 -0.3310909 -0.08937151
-0.43753833 0.3788493 0.42118123 0.21253964 -0.3712472 -0.5513712 -0.32187092 0.43985286
0.34952968 0.6374905 0.54303795 0.3777485 0.056919865 -0.41829363 -0.7536551 -0.6839602
0.3525912 -0.3056337 -0.41239864 -0.46335495 -0.1885445 -0.40604362 -0.15395664 0.29797336
-0.14449067 0.22488734 -0.2967036 -0.41944778 0.01456429 -0.29226667 -0.41303027 -0.5829985

0.bias f4 [128]
00000000: 8f79 423e 4153 80be 2109 9abe 7cd5 d4be
00000010: 232e 1f3f ff6f dcbe dce1 143f 22cd cabd
00000020: 9a47 49bd 79df 0a3f a4ca b4bd ddf6 043f
00000030: c008 073f 852a e5be b240 c03e 29ec 7f3e
00000040: 6559 5e3e ad53 023e 2654 6c3d 00f5 28be
00000050: 54c0 dbbd cff8 193f 2d66 093f a550 1cbd
00000060: 8eb6 81be b6db 1fbd 5b6a 41be cecd 133f
00000070: afbf 3dbe a2f5 dfbd f160 f5bd ebea 30bc
00000080: a503 2d3f a1fe b33d 0cc5 f53e edc5 0f3f
00000090: ad6e 1b3f 5be7 8e3d cd9b e1bd 4633 a33e
000000a0: 2569 e9bd 9887 a43e 5416 e4bb f2a1 adbe
000000b0: f1d3 c93e fcf8 283e e6b6 c53e fbf0 313f
000000c0: b8ec 013f 27b9 2b3f 5f03 173d b23d 80be
000000d0: a317 2bbe 8092 a3be 7e99 e1be d079 adbe
000000e0: ad68 06bf 9a64 efbe ddc6 b8bd 0c05 96be
000000f0: 08ba 0cbe 1c98 9c3e 52ad 173f 94df 10be
00000100: 59d1 01be d91c f23e 2d3f 4fbe 1fb7 28be
00000110: f1cb 003f 0e30 d1be 36a6 5dbd c64e 083f
00000120: 1e02 993c e7ef 813e a5b3 b7be 21f6 98bd
00000130: a899 3f3e fd9d 2b3c d645 dc3e db5a 1d3f
00000140: b95d a2be f999 bbbd 094c 55be dc6a acbe
00000150: 8248 3bbd ab84 81be 656c 083f ab72 5dbc
00000160: 534e 4abe 1fc8 cc3e dda0 5dbe 7ec8 0cbe
00000170: 6ab2 00be df74 e0be 6af6 92be 8482 c8bd
00000180: 827e 063f a19c 2b3f 653d c93e dc6d c0be
00000190: 5aea 9ebe 03f1 1b3f c47f ad3e 0fac 773c
000001a0: 5ea7 09bc c446 b5be cc81 ffbd 0dcc 2b3f
000001b0: b358 80bd ed7c 5abc f68e 2fbe 20d0 75be
000001c0: de28 babd 50ce 9fbe 51fc 0fbe e12d 973e
000001d0: d469 fabe 6755 613d 4a4a 72be fa26 98be
000001e0: 4b0a c23e a5dc 183f bc5e 91bd 1c36 52be
000001f0: d9dc fabe 72d0 82be faef a2be a4f0 ebbd
0.18991683 -0.25063518 -0.3008509 -0.41569126 0.62179774 -0.43054196 0.58157134 -0.09902407
-0.04914055 0.5424724 -0.08827713 0.51939183 0.52747726 -0.44759002 0.3754936 0.24992432
0.21713789 0.12727232 0.057697438 -0.1649971 -0.10730043 0.60145277 0.5367153 -0.038162846
-0.2533459 -0.039027892 -0.18888228 0.5773591 -0.18530153 -0.109355226 -0.11981381 -0.010798196
0.67583686 0.08788801 0.48001897 0.56161386 0.6071575 0.06977721 -0.11016045 0.31875056
-0.11397008 0.321347 -0.0069606695 -0.33912617 0.3941951 0.1650123 0.38616103 0.6950833
0.5075183 0.67079395 0.03686845 -0.2504707 -0.16708235 -0.31947708 -0.44062418 -0.33881998
-0.5250347 -0.4675644 -0.09022305 -0.29300725 -0.1374284 0.305848 0.5924884 -0.14147788
-0.12677516 0.47287634 -0.20238943 -0.16476105 0.5031119 -0.40856975 -0.05411359 0.532452
0.018677767 0.25378343 -0.35879245 -0.0746882 0.18710959 0.010474679 0.4302203 0.6146676
-0.3171213 -0.09160227 -0.20829786 -0.33675277 -0.045723446 -0.2529653 0.53290397 -0.0135161085
-0.19756441 0.3999643 -0.21643396 -0.13748357 -0.1256806 -0.43839166 -0.28703624 -0.09790519
0.52536786 0.6703587 0.39304653 -0.37583816 -0.3103817 0.6091463 0.3388654 0.015116706
-0.00840172 -0.35405552 -0.12475929 0.6710823 -0.06266918 -0.013335449 -0.17144379 -0.24005175
-0.09089826 -0.3121209 -0.14061095 0.2952719 -0.48908865 0.055013087 -0.23661152 -0.29717237
0.37898478 0.59711677 -0.07098147 -0.20528454 -0.48996618 -0.25549656 -0.31823713 -0.11520508

2.weight f4 [128, 128]
00000000: 8d3d ef3d bb51 683d ec2a 223e c623 633d
00000010: 1fa9 cabc a5a1 5a3d 9eaa a1bc ede7 59bd
00000020: ab52 b33d e946 6cbc e3f5 203e 5d53 673c
00000030: 0a67 c73b 2a54 973d 4123 00bd 29bf 893d
00000040: dd6a aebd 815d 0e3b c4ab afbd 8814 513e
00000050: 275b 80bd cd48 9abc 6b7a 99bd 24de 943d
00000060: 82a0 a53d 4631 e2bc 7ae0 823c 7577 433d
00000070: a992 36bd 213b 02be 4f5f 29bd beed c9bc
00000080: 08d8 273e 3130 003d f9ee 33bd d064 803d
00000090: 8dac 713d 9a0e 0cbe f424 03be c0a2 a038
000000a0: 3c86 a33d 4332 ab3d 1b9c 1abd 38e1 de3c
000000b0: c3bf b3bd 793f fb3d 68f7 f1bc 4b26 cebc
000000c0: 49a5 37bd 8be8 dd3c 2c07 bb3d 3624 983d
000000d0: 9beb 4d3e b30b 173e d4aa 8d3c fead 653d
000000e0: 32a9 133e 44b5 fa3d 170f d23c e3fd 953d
000000f0: 028b a33d 74d5 0ebc 7cff a4bd 0b19 d6bd
00000100: 09c1 c53d f8e7 47bd 3404 0e3e 7930 61bb
00000110: d621 37bc b1ac 10bb 1033 7dbd ac22 b83d
00000120: 07c8 103d b5d6 e3bd 5c97 553d 8631 393d
00000130: 570d e83d 84ab a43c 4d10 773d 52b3 193d
00000140: 53e9 843d f811 3dbc 14cc d23d e93c 073d
00000150: d117 acbc 7128 513d ecb0 643d 43f5 8d3c
00000160: 22e3 7bbd 88cb e93c 6523 32bd 0a90 70bd
00000170: 2954 513c 779d 3f3d b999 4f3d 2791 123e
00000180: befd 81bd 1e84 9bbd c90d 8e3d 14af e03c
00000190: b211 b33d 715f a8bc 8f0a 23bd f7ef fc3d
000001a0: 3642 98bd 40c8 383d c0d0 a63d a1a6 23bc
000001b0: 6ad0 a73d 6ee7 0e3e d17d 303e 4b42 c13d
000001c0: b1bc 64bd c715 66bc 5c66 cb3d b3f9 d4bd
000001d0: 002c 363a f856 0f3e 0a9e f93c eff6 ff3d
000001e0: 12c4 18bc 1d74 033c 353a ce3c fcec 6bbd
000001f0: 1e79 94bd 2982 003e 032d 093d 73c6 d7bd
00000200: c0ba 4fbe fb56 6d3d b0c5 0fbb 1e44 113d
00000210: 1414 8cbd 2606 d0bd fe56 c33a 520a 7b3d
00000220: 14c7 bfbd 16c1 5bbc a143 63bd 66c8 a9bd
00000230: 0e53 3b3d 66aa d1bd 28fd ac3c 8cd7 b73d
00000240: 69c3 20bd 5b09 33be 0651 d93d 2643 993c
00000250: db11 17bc a26d ac3d cf92 7abd 048b 803d
00000260: 3489 223e b7f2 95bd 858d 623e 6067 36be
00000270: 497d 51bd 830a c33d 4707 0e3c 5d03 043e
00000280: 4a9b d9bd af02 a43c ee0f 93bd 81cb 6b3d
00000290: feba 50be a673 073d 6b37 ff3d ef0c 143d
000002a0: b293 b93d 8798 18be 45f7 54bd 9436 8b3c
000002b0: b106 1e3c c559 a03c 1f4d c53c 0663 fdbc
000002c0: 4daf e83c b4f5 c6bb 9add fdbd 3210 743e
000002d0: af9a beba 57a0 2c3c b4bc 4dbd 6ef1 5fbd
000002e0: caef 63bd 400d cfbd 46e9 53bd c77f 273e
000002f0: f070 783e 1f5d 33bd 19dc 3c3d 90ad 6b3d
00000300: 9077 5bbe 9750 29bd 78a6 0ebe d435 113e
00000310: cc82 cabd 6db6 dfbc 0d54 9b3d ca64 c8bd
00000320: a336 603d a5cd f3bc 2f73 83bc bff1 11bd
00000330: bc84 bfbd 76ae 0bbe b93c 63be ae94 60bd
00000340: 0153 a6bc 015c 113e 848d 65bc beb5 c93c
00000350: 5ce4 a6bd a877 ff3d 5281 8dbd 4a42 b13c
00000360: 2551 c13d 8af1 17bd 92ac 2f3c 6f47 d43d
00000370: 3685 983b 3dff c53b 1fb7 313d 9350 3dbe
00000380: 83e5 4bbd 4d26 9f3d fc50 6a3d 34b4 a53d
00000390: b564 133d f983 2bbd ece7 0bbc e031 833d
000003a0: d447 fe3c 6295 92bd 2da4 353c 6fa9 99bd
000003b0: 54d8 903d 5f99 a2bc d7d9 ae3d a03c a4bd
000003c0: 0caf d03d 6931 ae3d 1595 eebc b96f 543d
000003d0: bade 623d 71b0 49bd 35d0 923c b0ef 02be
000003e0: dc3e 29bd d250 02bc d642 11be 94db bcbc
000003f0: 003d eebc 6405 bebd 0b9c b73d 8944 703d
0.11681662 0.05671857 0.15836686 0.055454038 -0.024738846 0.053376812 -0.019734677 -0.053199697
0.08756002 -0.014421203 0.15718798 0.014118996 0.0060852813 0.073891 -0.03128362 0.06725914
-0.08516476 0.0021723213 -0.085776836 0.20417988 -0.06267386 -0.018833542 -0.074940525 0.072689325
0.08087255 -0.027611386 0.01597618 0.047721345 -0.04457346 -0.12717868 -0.04135066 -0.024649497
0.16391003 0.03129596 -0.043929074 0.062692285 0.059002448 -0.13677445 -0.12807065 7.659709e-05
0.079845876 0.08359196 -0.03774653 0.027207002 -0.0877681 0.12267966 -0.029536918 -0.025164744
-0.044835363 0.027088424 0.09132227 0.07428782 0.20109408 0.14750557 0.017293371 0.056074135
0.14420012 0.12241605 0.025641961 0.07323816 0.07985498 -0.008717883 -0.08056542 -0.10453995
0.09655959 -0.048805207 0.13868791 -0.0034361167 -0.011177501 -0.0022075588 -0.061816275 0.08990988
0.03534701 -0.111249365 0.0521463 0.045213245 0.113306694 0.020101316 0.06031828 0.03752453
0.064898156 -0.011539929 0.10292831 0.033017073 -0.02100745 0.05106396 0.05583279 0.017328864
-0.061495908 0.028539434 -0.043490786 -0.058731116 0.012776413 0.04678103 0.05068371 0.14313184
-0.063472256 -0.07593559 0.06936223 0.027427234 0.087436095 -0.020553323 -0.03980499 0.12350457
-0.07434504 0.04511285 0.08145285 -0.009988458 0.08194049 0.13955471 0.17235495 0.094364725
-0.055844013 -0.014043278 0.09931633 -0.10399189 0.00069493055 0.1399802 0.030470867 0.12498271
-0.009324091 0.008023289 0.02517424 -0.057599053 -0.07249664 0.12549652 0.033490192 -0.10535898
-0.20286083 0.05794428 -0.00219379 0.035465352 -0.06839767 -0.10157423 0.0014903245 0.06128914
-0.09364143 -0.0134127345 -0.055484418 -0.08290176 0.045733504 -0.10237579 0.021116808 0.08976659
-0.039248858 -0.17484038 0.10611157 0.018708777 -0.009220566 0.08419348 -0.061175164 0.06276515
0.15872651 -0.07321685 0.22124298 -0.17812872 -0.05114487 0.09523489 0.008668727 0.12891908
-0.10625322 0.02002081 -0.07180773 0.057567123 -0.20383832 0.033069275 0.12461742 0.036145147
0.09061374 -0.14901935 -0.051993627 0.016993798 0.00964515 0.019574055 0.024084626 -0.030931007
0.028403902 -0.0060717706 -0.12395783 0.23834303 -0.0014541949 0.010536275 -0.05022879 -0.054673605
-0.055648603 -0.10109949 -0.05173614 0.16357337 0.24261832 -0.04378998 0.04610834 0.05753857
-0.21432328 -0.041336622 -0.1393069 0.1418069 -0.09888229 -0.027308667 0.07584391 -0.09784849
0.054739606 -0.029761145 -0.016046135 -0.035630938 -0.09351489 -0.1364077 -0.22191133 -0.054829292
-0.020303251 0.14195253 -0.014010791 0.024622794 -0.08149025 0.124739945 -0.069094315 0.021638054
0.09439305 -0.037095584 0.010722296 0.103651874 0.004654552 0.0060423897 0.04338753 -0.18487768
-0.049779426 0.07770977 0.05720614 0.08091012 0.035984714 -0.041873906 -0.008539181 0.06405997
0.03104011 -0.07157399 0.011086506 -0.0750302 0.07072511 -0.019848524 0.085376434 -0.08019376
0.101896375 0.08505518 -0.029123822 0.05186436 0.05538819 -0.049240533 0.017921546 -0.12786746
-0.041319713 -0.007953839 -0.14185652 -0.023053922 -0.029081821 -0.09278372 0.0896531 0.05865911

2.bias f4 [128]
00000000: 3621 ea3c 0148 27bd 1934 39bd 3791 12bd
00000010: 44d6 813d 1e4c c5bd 0afe 09bc d66a d33d
00000020: 2399 0bbb 446b 033d d8f8 c3bc 1bb3 56bd
00000030: 5931 013e 7555 19bd 596e 0fbc 0001 933e
00000040: 4acf 663e 6018 87bd fd5d fd3c f8d0 adbd
00000050: 3bce b1bd de5f 3ebd ac67 95bd 731a 213c
00000060: ee0e 713c 2839 103d 250f 043d 92b1 a63b
00000070: 54cc afba e1b2 773d ce2c abbd 276e 65bd
00000080: 1b44 d8bd 800f 94bd 767d a8bc 98ab 503d
00000090: ac53 ae3d e3cd 46bd bb03 243b ca55 c03c
000000a0: 4afc 863b 3228 a5bd 10c3 fd3a 63e2 383d
000000b0: 0640 f6bb 8fc9 113d 34c6 473d 5b2f 86bd
000000c0: 71ed 6d3d d40a b1bd 143a 74bd 2e5a 533e
000000d0: e4b6 023d 8c3a 6a3d 96ba 803e 86ec ddbc
000000e0: ade8 953d ae08 94bd 9d63 063c 5a68 54bc
000000f0: 3401 3c3d 3427 4d3d 404f 953e 1e9f 1f3e
00000100: 409b 8e3e be13 833e bf85 5fbc daac a13e
00000110: d0b3 663c 55f2 46bd 4965 b9bb baf5 033c
00000120: b246 1fbc 0a96 353c 6150 1bbd d1b9 8dbd
00000130: 00ea 98bd fc0e 5d3c f300 6dbd 5481 dbbc
00000140: e626 9c3d 03d5 9f3d d253 9b3c fd74 013d
00000150: e9ab 303d 17ae 11bc 1973 a73d 26a4 aebd
00000160: aa9a 6abd c3e8 e2bb 4a06 063e d4ba c93c
00000170: da7a 863c 9c99 0e3d c9b1 eabd 83ac a7bd
00000180: 5ca0 693c 2b7f 27bd 0da8 143d 07ea 4bbd
00000190: 78bc 883e 66ea 9dbd 75cd f93c 5cf3 a1bb
000001a0: 5cb8 82bd 1707 713d c332 003d 71d6 85bd
000001b0: e233 43bd f785 d63c 8220 9f3c df33 01bd
000001c0: 24ac d13c 5258 103d b37c 84bd 9b0c a73e
000001d0: 6b1c 08bc d67b af3c ebf0 4abd fc2c 9a3c
000001e0: e455 00bd 0520 7e3c 88b9 203d 39df a23d
000001f0: cb9f 3cbd 98d2 1c3d 07c5 743d 1e85 853e
0.02858029 -0.040840153 -0.0452157 -0.03578302 0.06339696 -0.09633659 -0.008422384 0.10323112
-0.0021300993 0.03208472 -0.023922369 -0.052416902 0.12616481 -0.037435014 -0.008754336 0.287117
0.22540012 -0.06596446 0.030928606 -0.08487123 -0.086819135 -0.046478145 -0.072951645 0.009832966
0.014713032 0.03521076 0.032241005 0.005087086 -0.0013412335 0.060473327 -0.08358155 -0.056013253
-0.10559865 -0.07229519 -0.020567637 0.050944895 0.08512053 -0.048536193 0.0025026638 0.023478407
0.0041194307 -0.08064307 0.0019360501 0.045137774 -0.0075149564 0.035592612 0.048773006 -0.06552001
0.05808777 -0.086446434 -0.0596257 0.2063987 0.0319127 0.05718474 0.25142354 -0.027090322
0.0731977 -0.07228218 0.008202461 -0.0129643325 0.045899585 0.050086215 0.29162025 0.15588042
0.2785282 0.25601 -0.013642727 0.31577188 0.014080957 -0.04857095 -0.005657826 0.008054191
-0.009721445 0.011083135 -0.037918452 -0.06920207 -0.07466507 0.013492342 -0.057862233 -0.026795067
0.07624607 0.07804301 0.018960867 0.03160571 0.043132696 -0.008891604 0.0817625 -0.085274026
-0.057276405 -0.00692472 0.13088337 0.02462522 0.016416002 0.034814462 -0.11459691 -0.08187201
0.014259424 -0.04089276 0.03629308 -0.049783733 0.2670629 -0.077107236 0.030493477 -0.004942341
-0.0638282 0.058844652 0.03129841 -0.06535042 -0.0476569 0.026186926 0.01942468 -0.03154361
0.025594778 0.03524048 -0.06469097 0.32626805 -0.008307557 0.021421354 -0.049546164 0.018820278
-0.03133191 0.015510564 0.039239436 0.079527326 -0.046050828 0.038286775 0.059758212 0.26078123

4.weight f4 [2, 128]
00000000: 999c 99bd 4b9d 0cbe 7e0e d6bd c51f b43c
00000010: f1ac 37be 7903 67bd 90e2 d03c 42e5 04be
00000020: a3aa c9bd 4d9d 3c3c 8640 1c3d 3cbe eabd
00000030: 43ef 4d3e 8d70 6abe 6461 e539 333a b63e
00000040: 0cbe 353e 07f0 d43d b8c6 05be 9973 c8bd
00000050: 2f32 ec3b 7325 8d3c 7a8d c7bc f9ef 9bbd
00000060: 6b42 29be 1885 773c 6228 b43c c59b c4bc
00000070: 7b9a 3b3d 52aa 17be f011 28bc 1e7c 8c3b
00000080: 0a18 e4bd d9a3 8d3d 785b aabd cf75 123d
00000090: 7833 64bc 2437 95bd c1b8 7f3d 3649 4dbd
000000a0: 8551 343c ca5b 9a3d c277 aabd 8d12 013e
000000b0: 9622 85bd 450f bebd b2da f83c df33 c3bc
000000c0: 255d afbd 585b b7bd 490a da3d 9ac4 673e
000000d0: d9dc 18bd 9b6d b63c fd6c 563e 8bef 71bd
000000e0: 418d e33a 9fe5 803d 0ce8 c83a ebda 2ebd
000000f0: 78f6 8c3d f86e a0bd f47d d03e 494f bf3e
00000100: 24e8 ad3e fad7 533e 390e 003c 59b5 973e
00000110: 10ed a5bd 8e6f 63bd 7de6 9cbd e334 54bc
00000120: 2702 0abe 56e9 4bbd 9017 13be 2a8e 64bd
00000130: 60e1 a13c bb5f 813d 9673 9dbd c041 b7bd
00000140: 1d78 06be 0a00 d3bd 7634 31be 1775 7d3d
00000150: 6c4b 873d 93c9 c23d 18f8 1ebe 1a04 b3bd
00000160: bd83 ad3d 474d e3bd 9e2c 0dbe bb09 d8bd
00000170: 22d6 a83c 812a 2fbe 7108 bcbd ccc7 0e3e
00000180: 6079 32be 83d9 32bc 6bd3 1b3d 8d5d 883d
00000190: e359 733e c869 33bc 8610 d13c ee32 f1bc
000001a0: 65e0 8fbb 17a4 aebd d0e6 823c 268b e93b
000001b0: 7fec e13b 23ec 19bd 1223 083e 90bb fdbd
000001c0: e93a 5f3d c4ac 97bb 5705 e63c 5f85 853e
000001d0: 9e7d d0bd 2427 c4bc f912 80bd d91e a6bd
000001e0: 18a2 543d b1fc 34bd 360b a83d 8491 09be
000001f0: 0e44 a3bd 651c ccbd 62b4 ec3c 7b7c 8a3e
00000200: 7e9e ee3c 060e 61bd 7832 373d 7c6a 24be
00000210: b563 6dbd 136c 813d 969a 293d 6eb2 c83c
00000220: 6986 e5bd 5ac9 3bbe 0f7b ae3d b88f 07be
00000230: a6ac 573e 847a d1bd dafc f0bd f11a a33e
00000240: 1e7e 9c3e d4c7 0fbd 02d1 a6bc f03e f1bd
00000250: 994f 04bb e97b b03c e3f5 3b3d c4e1 763d
00000260: 3d6f bdbd 1f20 3d3d 228d babc 1be2 b93c
00000270: afef c5bd 3156 583d 5190 983d c813 f53b
00000280: 4a9f 03be 3e3b 023c 4317 17be 0c3c 12be
00000290: 2384 cd3d 00ca 56be f294 16bd adc2 09be
000002a0: 9592 94bd 33ec d8bc 86bf 063c 1955 ecbd
000002b0: 0ba9 39be 55b4 f1bd f21f b83b 8417 01be
000002c0: 3a2e 4b3d f78a 42be 25f7 b5bd 3eea 233e
000002d0: e862 c43d bacc ae3d dfe0 253e faa5 80bc
000002e0: 0e89 86bb 6d5a a8bb da10 873b ceb0 e1bd
000002f0: abd4 89bb 4a33 f6bd 5ee7 bf3e 42c0 553e
00000300: 7fbd 693e a3c1 913e c1b4 413d 34fa a43e
00000310: b89d afbc a7c4 10bd 18f5 c3bd c018 873d
00000320: d1af 463d e9fc 68be 09b4 08be 73b3 b13d
00000330: 635b 0c3d ead7 03be a12e ad3b 232c 85bd
00000340: 1eef bbbd 16cc 3f3d 69ed d6bd 2d09 2c3d
00000350: 56f7 e1bd 2bc9 a43d bf93 dcbd e10f 6fbe
00000360: 6d90 33bd 9b52 813d 10d2 c83d fea4 9dbc
00000370: e7e7 433d f8f0 1dbe a1b1 2abe 9aca 86bd
00000380: 3afa 1fbe 4eb2 30be 8ce8 69bd 479c 3ebe
00000390: bf37 a83e 87bf 28bd 02fd 74bc 0dd9 93bd
000003a0: cd70 993c a80d 56be a513 32be 158c 18be
000003b0: 74b8 973d 000f 8dbd 0c1a 22bd f2e2 18be
000003c0: 5af5 8bbc da13 37be 6332 a83d 3e5a c33e
000003d0: da58 fabc 5216 06bc aa92 523d 6b03 1cbd
000003e0: 9023 603c 4843 3cbd 6f3e 91bd 7644 ac3c
000003f0: 6562 bebc c0e5 3d3c 124f 023d 1c8d cd3e
-0.07500572 -0.13731878 -0.10451983 0.021987805 -0.17937066 -0.056399796 0.025498658 -0.1297808
-0.098469995 0.011512113 0.03814747 -0.114620656 0.20110802 -0.22894497 0.00043750845 0.35591277
0.17748278 0.10397344 -0.13064086 -0.097876735 0.007208131 0.017229771 -0.024359453 -0.076141305
-0.16529243 0.015107416 0.021991912 -0.024000058 0.04580162 -0.14811066 -0.010258183 0.004287257
-0.111373976 0.06916017 -0.083182275 0.035756882 -0.013928287 -0.07285908 0.062432054 -0.050118648
0.011005764 0.075370386 -0.08323623 0.12604733 -0.06500737 -0.09280256 0.03037772 -0.023828445
-0.08562688 -0.08952969 0.10646493 0.22633591 -0.03731999 0.02226906 0.20940013 -0.059066337
0.0017360823 0.06293797 0.0015327944 -0.042689245 0.06882948 -0.078336656 0.40721095 0.37365177
0.33966172 0.20687857 0.007815891 0.29630545 -0.08101857 -0.05552631 -0.0766115 -0.012952062
-0.13477384 -0.049783073 -0.14364457 -0.05579964 0.019760787 0.06317087 -0.07688062 -0.08948088
-0.13131757 -0.10302742 -0.17305169 0.061879244 0.066061825 0.095111035 -0.15524328 -0.08741017
0.08472393 -0.11098724 -0.13786551 -0.10548731 0.020609919 -0.17106058 -0.091812976 0.13943404
-0.17429113 -0.010916117 0.03804342 0.066584684 0.23764758 -0.010950513 0.025520574 -0.02944323
-0.0043907636 -0.085273914 0.0159792 0.0071271835 0.0068946476 -0.037578713 0.13294628 -0.1238929
0.05449954 -0.0046287496 0.028078718 0.26078317 -0.101802096 -0.023944445 -0.06253619 -0.081113525
0.051912397 -0.044186298 0.08205263 -0.13434416 -0.07971965 -0.09966353 0.028894607 0.27048096
0.02912831 -0.054945014 0.044725865 -0.16056246 -0.057956416 0.06319442 0.04140719 0.024499144
-0.11207277 -0.18338528 0.08519565 -0.13238418 0.21061954 -0.10228446 -0.117669776 0.31856492
0.3056497 -0.03510268 -0.020363335 -0.117795825 -0.0020189045 0.02154346 0.045888793 0.0602739
-0.09249733 0.04617321 -0.022772375 0.022690823 -0.09664857 0.052816574 0.07449401 0.0074791647
-0.12853733 0.007948695 -0.14754967 -0.14280719 0.10034969 -0.20975494 -0.03676314 -0.13453169
-0.07254521 -0.026479816 0.008224374 -0.115396686 -0.18130891 -0.11801974 0.0056190426 -0.12606627
0.049604632 -0.18998323 -0.0888503 0.16007325 0.09589177 0.08535142 0.16199063 -0.015704144
-0.0041056937 -0.0051377327 0.004121882 -0.11020051 -0.00420626 -0.12021501 0.37481207 0.20874122
0.22826193 0.28468046 0.04729152 0.3222214 -0.02143751 -0.035343792 -0.09568232 0.065965176
0.048507515 -0.22752728 -0.13349928 0.08676805 0.03426684 -0.12875333 0.0052850996 -0.06502559
-0.09176467 0.04682549 -0.10494501 0.04200094 -0.11033504 0.08046182 -0.10770368 -0.23345901
-0.043838907 0.06314584 0.09805691 -0.019243713 0.04782858 -0.15423954 -0.16669323 -0.06581612
-0.15622798 -0.17255518 -0.05710654 -0.18614303 0.3285503 -0.04119828 -0.0149529 -0.072191335
0.018730545 -0.20903647 -0.17390306 -0.14897187 0.074082285 -0.06887627 -0.03957562 -0.14930323
-0.017084766 -0.17878667 0.082127355 0.38154787 -0.030559946 -0.0081840325 0.0514094 -0.038089197
0.013680354 -0.045962602 -0.070919864 0.021028738 -0.023240278 0.011590421 0.03181369 0.4014672

4.bias f4 [2]
00000000: c858 ddbc 70ef 863d
-0.027019873 0.06588638
