checkpoints/dqn/20251120-2008/ckpt_ep50.pth (torch, 72685 bytes, 6 tensors)

0.weight f4 [128, 4]
0	0x3eaade60	0.33372784
1	0x3ebcda2f	0.3688521
2	0xbd8c2c3e	-0.06844376
3	0x3f016b8c	0.5055473
4	0xbe210779	-0.15725507
5	0x3d5f7faa	0.05456511
6	0xbe48a017	-0.1959232
7	0x3eae2fb9	0.34020784
8	0x3ee99859	0.45624045
9	0xbeb28e80	-0.34874344
10	0x3ed4d7b0	0.41570807
11	0x3d999bb5	0.07500402
12	0x3ebd2294	0.36940444
13	0x3d8aae50	0.06771529
14	0x3e76e15c	0.24109405
15	0xbd909460	-0.0705955
16	0x3ecfede3	0.4061118
17	0x3db0ad73	0.08626833
18	0xbe8baa82	-0.27278525
19	0x3dc7d7d8	0.09757966
20	0xbe9023b6	-0.28152245
21	0xbddb5ca7	-0.107110314
22	0xbe1d321c	-0.15351146
23	0x3ec2b901	0.38031772
24	0xbebef69d	-0.37297526
25	0xbe5f7c67	-0.218248
26	0xbe305008	-0.1721803
27	0xbea55a21	-0.32295325
28	0x3d368c48	0.044567376
29	0xbef3ff29	-0.4765561
30	0x3ed98183	0.42481622
31	0xbee9b25a	-0.45643884
32	0x3eca0d24	0.3946315
33	0x3dbd26f1	0.09235943
34	0xbe33f0c0	-0.17572308
35	0x3e98ffb8	0.29882598
36	0x3d9c553d	0.076334454
37	0x3ec9cb14	0.3941275
38	0x3d5640c0	0.052307844
39	0xbe1c4677	-0.15261255
40	0x3ddf1482	0.108925834
41	0xbe237cdb	-0.15965597
42	0x3e76b1a0	0.24091196
43	0x3ef265c9	0.4734328
44	0x3e7c9897	0.24667583
45	0xbe869c1d	-0.2629098
46	0x3eaad40b	0.333649
47	0x3e097da0	0.13426828
48	0x3e993dcb	0.29929957
49	0xbe88cc99	-0.26718596
50	0xbf09205c	-0.53565
51	0xbe6cada4	-0.23113114
52	0xbec45b9c	-0.38351142
53	0x3ed20ed6	0.41026944
54	0x3e1378d8	0.14401567
55	0x3e5413cc	0.20710677
56	0x3e52dd05	0.20592125
57	0x3d136793	0.035987448
58	0x3eb0f01b	0.34558186
59	0xbeccb188	-0.39979196
60	0xbbcb5d59	-0.0062061963
61	0xbec06643	-0.3757802
62	0x3e383ec8	0.17992699
63	0xbe156175	-0.14587958
64	0x3e4dd119	0.20099296
65	0xbd717ad4	-0.05895503
66	0x3ebaa12e	0.36451095
67	0xbeb0aa1b	-0.3450478
68	0xbeb174f6	-0.34659547
69	0xbeae9d34	-0.3410431
70	0x3efd18b6	0.49432915
71	0x3e570b69	0.21000446
72	0x3f0744dc	0.52839446
73	0xbebcfe5a	-0.36912805
74	0xbf0b7b7d	-0.54485303
75	0xbedff29b	-0.4373978
76	0xbeb75c86	-0.35812777
77	0x3e3281d1	0.17432334
78	0x3e560466	0.20900115
79	0x3ee46ba1	0.44613364
80	0xbe866836	-0.26251382
81	0xbeb0f0a9	-0.3455861
82	0x3e88fda7	0.2675602
83	0xbe4a7e7b	-0.19774811
84	0x3eb3e1ca	0.351332
85	0xbd928443	-0.07154133
86	0x3e72d7a3	0.23715071
87	0xbedf70f6	-0.4364087
88	0xbe526443	-0.2054606
89	0x3e480842	0.195344
90	0x3d74ee3c	0.05979751
91	0xbe2dc2b3	-0.16968803
92	0x3ead4c0f	0.3384709
93	0x3ec0be0d	0.37644997
94	0xbecd2a7d	-0.40071478
95	0xbe9bae71	-0.30406526
96	0x3ef75a8f	0.48311278
97	0xbe0c3881	-0.1369343
98	0xbe5499e5	-0.20761831
99	0xbf043eff	-0.51658624
100	0xbe749004	-0.23883063
101	0x3e2c6f4f	0.16839336
102	0xbded8dcd	-0.11599312
103	0xbed226b2	-0.41045147
104	0x3c22e0e9	0.009941318
105	0xbeae8ed8	-0.34093356
106	0xbeda24c7	-0.42606184
107	0xbe8e0d74	-0.2774464
108	0xbef7558d	-0.48307458
109	0xbeb83a2a	-0.35981876
110	0x3f0b418a	0.5439688
111	0x3e0bae7e	0.13640782
112	0x3e20d303	0.15705495
113	0xbeec8e7f	-0.46202466
114	0xbead4b4d	-0.33846512
115	0xbe3257d9	-0.17416324
116	0x3df776c0	0.12083197
117	0xbecb8894	-0.39752638
118	0xbe83a0ee	-0.25708717
119	0xbeb01a3a	-0.3439501
120	0x3d08ccfa	0.033398606
121	0xbe2155c7	-0.15755378
122	0xbd96b6af	-0.07359063
123	0xbebfb83f	-0.37445256
124	0xbe95f449	-0.29287937
125	0xbe834433	-0.2563797
126	0xbe58cba5	-0.21171434
127	0xbeda54ab	-0.42642722
128	0x3ec26d39	0.37973955
129	0xbe0d00b5	-0.13769801
130	0x3ef126ac	0.47099817
131	0x3e45b34a	0.19306675
132	0xbec630f6	-0.3870923
133	0x3ec35f57	0.38158676
134	0xbe389347	-0.18024932
135	0xbe6e248a	-0.23256126
136	0xbee62474	-0.44949687
137	0xbf063e48	-0.52438784
138	0x3e403137	0.18768774
139	0xbd9715a2	-0.07377173
140	0x3e2a0c28	0.166062
141	0xbee064cc	-0.43826902
142	0x3ec5eb5f	0.38656136
143	0xbeb1b530	-0.34708548
144	0xbddc7b5c	-0.107657164
145	0x3da468e7	0.08027821
146	0x3e902843	0.28155717
147	0x3edbd7c9	0.42938069
148	0x3eea19b0	0.45722723
149	0xbec7aa2d	-0.3899702
150	0x3e079dcb	0.13243787
151	0xbe56c138	-0.20972145
152	0xbcfd70c0	-0.030937552
153	0xbeb46bb4	-0.3523842
154	0x3edcaf46	0.43102473
155	0xbec7e758	-0.3904369
156	0x3e9e608f	0.30933043
157	0x3e5fd8b2	0.21860006
158	0x3dfc6b29	0.12325127
159	0xbe9f8d27	-0.31162378
160	0x3f00a06d	0.5024479
161	0x3e1cf6dd	0.15328546
162	0x3c671c14	0.014105815
163	0xbefa03ad	-0.4883093
164	0x3e2ac8c9	0.16678156
165	0xbde78ee5	-0.11306552
166	0xbe3b9992	-0.18320301
167	0x3ef25a70	0.47334623
168	0x3d9a167e	0.07523821
169	0xbe9f74dd	-0.31143847
170	0xbe6370f5	-0.22211058
171	0x3c31f2ad	0.010861081
172	0x3e8ef0c4	0.27918065
173	0xbe02d554	-0.1277669
174	0xbe921132	-0.28528744
175	0xbe2f54ac	-0.17122144
176	0xbeb63fd2	-0.35595566
177	0x3e471eb6	0.19445309
178	0x3ebd1721	0.36931708
179	0xbefa03f1	-0.48831132
180	0x3e2bce2f	0.16777872
181	0x3e9c9962	0.30585772
182	0x3d28fcaa	0.041256584
183	0xbe6761fc	-0.22595972
184	0x3e9f0159	0.31055716
185	0x3e9df8d0	0.3085389
186	0x3e127595	0.14302666
187	0xbe083a65	-0.13303526
188	0xbdca304a	-0.09872492
189	0x3da9e939	0.08296437
190	0xbdfc95ba	-0.123332456
191	0xbe39af93	-0.18133382
192	0x3eb0e805	0.34552017
193	0x3ee8747c	0.4540137
194	0xbd920ba1	-0.07131124
195	0xbe0a6f64	-0.13519055
196	0xbd123b49	-0.03570107
197	0xbd9076ca	-0.07053907
198	0x3e20dbe0	0.15708876
199	0x3e34948e	0.17634794
200	0xbef4ad64	-0.47788537
201	0xbe55afdd	-0.20867868
202	0x3ee2c7d9	0.44293097
203	0x3e6043fd	0.21900935
204	0x3be81d00	0.007083535
205	0xbe8a9d62	-0.270732
206	0xbeac81d2	-0.33692795
207	0xbef5b08c	-0.47986257
208	0xbe48c7c0	-0.19607449
209	0x3e097b1f	0.13425873
210	0x3eb5362e	0.35392898
211	0x3e8804cb	0.26566157
212	0xbef9baca	-0.4877532
213	0xbeafbc17	-0.3432319
214	0xbd00baf2	-0.031428285
215	0x3f06f2a0	0.52713966
216	0x3d942118	0.07232875
217	0xbe0497d0	-0.12948537
218	0x3e53d27c	0.20685762
219	0xbe4302e8	-0.19044077
220	0xbea6d142	-0.32581526
221	0x3ebc9380	0.36831284
222	0xbe6b506c	-0.22979897
223	0xbdd49a57	-0.103810005
224	0xbefeab7e	-0.49740213
225	0x3eab5552	0.33463532
226	0x3ec1f458	0.37881732
227	0x3e3a98f4	0.1822241
228	0xbec61479	-0.38687494
229	0xbf0a05ea	-0.53915274
230	0xbeba59c6	-0.36396617
231	0x3ed66c98	0.41879725
232	0x3e8829a3	0.26594266
233	0x3ee22913	0.44171962
234	0x3e93a09f	0.28833482
235	0x3e1d0741	0.15334798
236	0x3ca9b8d7	0.020718021
237	0xbeb8ec07	-0.36117575
238	0xbee44bfc	-0.4458922
239	0xbef95996	-0.4870116
240	0x3e79036b	0.2431771
241	0xbe5448d5	-0.20730908
242	0xbe0eeaca	-0.13956752
243	0xbea71b5f	-0.3263807
244	0xbe086f9f	-0.1332383
245	0xbec8bf13	-0.39208278
246	0xbe9144e1	-0.28372863
247	0x3e525997	0.20541988
248	0xbddcc0ed	-0.10778985
249	0x3eb1ea7b	0.34749207
250	0xbe4461d4	-0.19177943
251	0xbecd2d29	-0.40073517
252	0xbd2d6610	-0.042333663
253	0xbe4ccdf7	-0.20000444
254	0xbe4f6567	-0.20253526
255	0xbf05a3fc	-0.52203345

0.bias f4 [128]
0	0x3e4a6014	0.19763213
1	0xbeab7991	-0.33491185
2	0xbeab472b	-0.33452734
3	0xbed4d57c	-0.41569126
4	0x3ef4b038	0.47790694
5	0xbed98a14	-0.42488158
6	0x3eca64c0	0.3952999
7	0x3c90a5fe	0.017657276
8	0xbd83a6ef	-0.064283244
9	0x3ea8b2fa	0.32949048
10	0xbcaaa80d	-0.020832086
11	0x3eb01c9f	0.34396836
12	0x3ec9270d	0.39287606
13	0xbede4304	-0.43410504
14	0x3e69bfd9	0.2282709
15	0x3e0639b7	0.13107954
16	0x3e129058	0.14312875
17	0x3dde5455	0.10855929
18	0x3e32ba60	0.17453909
19	0xbe57d49d	-0.210772
20	0xbd769f19	-0.06021032
21	0x3f02325a	0.5085808
22	0x3ebce0f6	0.36890382
23	0x3c293795	0.010328193
24	0xbee1306c	-0.43982255
25	0x3d80384f	0.0626074
26	0xbead6df3	-0.33872947
27	0x3ee25ab3	0.44209823
28	0xbe9c74bb	-0.30557808
29	0x3a27dbf8	0.00064033223
30	0xbd9824ef	-0.074289195
31	0x3df50c27	0.119652085
32	0x3f01c4e1	0.5069104
33	0x3db2a981	0.087237366
34	0x3e965250	0.29359674
35	0x3edcf1b1	0.43153146
36	0x3edcaf4e	0.43102497
37	0xbe37a14f	-0.17932628
38	0xbdb235e0	-0.08701682
39	0x3e89f831	0.26947168
40	0xbdbb8401	-0.09156037
41	0x3e876e05	0.26451126
42	0xbd9a7025	-0.07540921
43	0xbeada1f2	-0.33912617
44	0x3e6a6230	0.22889018
45	0x3dfeb49c	0.12436792
46	0x3e853c72	0.2602268
47	0x3f0515ba	0.5198628
48	0x3eb740e0	0.35791683
49	0x3efdba97	0.4955642
50	0x3d551359	0.052020404
51	0xbecc7ca7	-0.39938852
52	0xbea190c1	-0.3155575
53	0xbe88718a	-0.26649123
54	0xbee1997e	-0.44062418
55	0xbe7d9613	-0.2476428
56	0xbeebaa54	-0.46028388
57	0xbed6232c	-0.4182371
58	0xbe8bd84a	-0.27313453
59	0xbef322c1	-0.47487453
60	0xbe89353c	-0.26798427
61	0x3e653d86	0.2238675
62	0x3edfdc06	0.43722552
63	0xbdd4351a	-0.10361691
64	0xbe09886c	-0.13430947
65	0x3e9af847	0.30267546
66	0xbe4dbf90	-0.20092607
67	0xbe3de610	-0.18544793
68	0x3eb573ee	0.3544001
69	0xbecf3db8	-0.40476775
70	0x3dbeed89	0.0932265
71	0x3eefbe65	0.46824947
72	0x3df0c942	0.11757137
73	0x3e316a89	0.17325796
74	0xbe94f8d8	-0.29096103
75	0x3d04b090	0.032394946
76	0x3d8467b9	0.06465096
77	0x3de1f182	0.11032392
78	0x3e5acc78	0.21367061
79	0x3ee269e6	0.4422142
80	0xbeb34953	-0.3501688
81	0x3d58fb13	0.052973818
82	0xbe52442e	-0.20533821
83	0xbecb755b	-0.39737973
84	0xb995700c	-0.00028502976
85	0xbec79b6a	-0.3898576
86	0x3ec41cf9	0.38303354
87	0x3dbca332	0.092108145
88	0xbe7a80dc	-0.24463218
89	0x3e976b2a	0.29573947
90	0xbef2491a	-0.47321397
91	0xbe4a4eb2	-0.19756582
92	0xbd768953	-0.060189556
93	0xbedf8f92	-0.43664223
94	0xbe91e709	-0.28496578
95	0xbd41d9a9	-0.047326718
96	0x3ed70bfb	0.42001328
97	0x3f069bec	0.5258167
98	0x3eae9688	0.3409922
99	0xbea5f2b6	-0.32411736
100	0xbe99148f	-0.29898497
101	0x3ee92e23	0.45543012
102	0x3e52da73	0.20591144
103	0x3d647d9c	0.055783853
104	0x3dd85b2b	0.10564264
105	0xbeba35eb	-0.3636926
106	0xbdf6ff46	-0.12060408
107	0x3f0701fd	0.5273741
108	0xbdd7f7f9	-0.10545344
109	0x3c96ae3e	0.018393632
110	0xbec8f2cf	-0.39247748
111	0xbe74fa52	-0.23923615
112	0x3ccd1135	0.025032619
113	0xbe9f044e	-0.31057972
114	0xbd8abde5	-0.06774501
115	0x3e7171e3	0.235786
116	0xbefa69d4	-0.48908865
117	0x3e354981	0.17703821
118	0xbe94f40c	-0.29092443
119	0xbe53ba91	-0.20676638
120	0x3e44255b	0.19154875
121	0x3edd7bd7	0.43258545
122	0xbdd55a9f	-0.10417675
123	0xbe52361c	-0.20528454
124	0xbee27060	-0.4422636
125	0xbe603616	-0.21895632
126	0xbec66548	-0.38749146
127	0xbd8f0a93	-0.06984439

2.weight f4 [128, 128]
0	0x3d3279d5	0.04357322
1	0xbd32521d	-0.04353534
2	0x3df4a58f	0.1194564
3	0x3d6323c6	0.055454038
4	0xbd7b77af	-0.061393436
5	0x3b249c8d	0.0025117726
6	0x3d75b7fa	0.059989907
7	0x3c168112	0.009186046
8	0x3c8f4ac5	0.017491708
9	0xbd858ad3	-0.06520619
10	0x3de12021	0.10992456
11	0xbc545818	-0.012960456
12	0x3dcdeddb	0.10055133
13	0x3bbae060	0.005703017
14	0x3b829a25	0.0039856606
15	0x3de41c2f	0.11138188
16	0xbcf5eba0	-0.030019581
17	0xbc12f120	-0.0089686215
18	0xbd0738e2	-0.033013232
19	0x3de6cad9	0.11269159
20	0xbcc85841	-0.024456145
21	0x3c9743c1	0.018464925
22	0xbd9e77bc	-0.07737681
23	0x3d0f83ce	0.035037808
24	0x3d13d672	0.036093183
25	0xbb790564	-0.0037997598
26	0x3d2bcd9e	0.04194414
27	0x3d212622	0.039343007
28	0x3d6272ab	0.055285137
29	0xbd947e19	-0.07250614
30	0xbc89585b	-0.016765764
31	0x3d3b894e	0.04578524
32	0x3df93bc6	0.12169604
33	0x3d09a72e	0.0336067
34	0xbcbd6b02	-0.023122314
35	0x3dd7deb8	0.10540527
36	0x3c74ad2d	0.014933866
37	0xbca60eba	-0.020270694
38	0xbd9a817f	-0.07544231
39	0xbd1fa3d8	-0.038974613
40	0x3d4ba586	0.049718402
41	0x3d4714f8	0.04860398
42	0xbbdd86ac	-0.006760439
43	0x3cdee138	0.027207002
44	0xbd2ea7e1	-0.04264057
45	0x3d5e9f81	0.054351334
46	0xbdd782c3	-0.10522988
47	0xbc131572	-0.008977281
48	0xbde95606	-0.11393361
49	0xb9bd64e9	-0.00036124073
50	0x3d8e38a9	0.06944401
51	0x3db7262d	0.08942828
52	0x3d2822be	0.041048758
53	0x3e04a21d	0.12952466
54	0x3c8daad4	0.017293371
55	0x3d511722	0.05104745
56	0x3d911dc9	0.07085759
57	0x3deffad4	0.117177635
58	0xbd98e3bc	-0.07465312
59	0x3daf561d	0.08561347
60	0x3d6bae86	0.057539485
61	0xba996a99	-0.0011704742
62	0xbd7af96d	-0.061273027
63	0xbd9fc0ef	-0.07800471
64	0x3d820a1d	0.06349585
65	0xbd083fd7	-0.033264007
66	0x3d1ab729	0.03777233
67	0x3cf540d2	0.029938135
68	0xbdbc9f14	-0.09210029
69	0x3ce1713e	0.027519818
70	0x3c3681bb	0.011139329
71	0x3d9ed64f	0.0775572
72	0x3d15b73c	0.0365517
73	0xbd4484e9	-0.047978316
74	0x3da6033b	0.08106085
75	0x3d90ef33	0.07076874
76	0x3c40ec93	0.011775154
77	0xbd37b15b	-0.044846874
78	0x3b82414c	0.003975069
79	0xbd0e730b	-0.034777682
80	0x3cb731a1	0.022362532
81	0x3d28553d	0.041096915
82	0x3d9fe14f	0.07806646
83	0x3d9855f6	0.07438271
84	0xbd3fb787	-0.046805885
85	0x3d07f17d	0.033189286
86	0x3d9306a2	0.071789995
87	0xbd101e19	-0.035184953
88	0xbdaf97a4	-0.08573845
89	0xbc292f5a	-0.010326231
90	0x3d77d52e	0.06050604
91	0xbda360ec	-0.07977471
92	0xbd0f18e6	-0.034935854
93	0x3d4ad072	0.049515195
94	0x3d435492	0.047688074
95	0x3de6c01c	0.11267111
96	0xbdbbc683	-0.091687225
97	0xbd38d36f	-0.045123514
98	0x3c9d1442	0.019174699
99	0x3d9d6b7d	0.076865174
100	0x3d589f2e	0.05288618
101	0x3d4d11b6	0.05006572
102	0x3c98e565	0.018664071
103	0x3d6db785	0.058036346
104	0xbd7c68f4	-0.06162353
105	0x3b84114c	0.0040303823
106	0x3d4a180d	0.049339343
107	0xbcfd35ca	-0.030909438
108	0xbd06fc28	-0.03295532
109	0x3dde6811	0.10859693
110	0x3bccefc4	0.006254168
111	0x3d8eaa16	0.06966035
112	0xbd253c72	-0.04034085
113	0xba9fe1c0	-0.0012198016
114	0x3db2bfb0	0.08727968
115	0xbd8e779a	-0.06956406
116	0x3a362c00	0.00069493055
117	0x3d5b77ac	0.053580925
118	0xbc9002f2	-0.01757953
119	0x3e050f09	0.12994017
120	0xbc22342e	-0.009900136
121	0x3c8f1756	0.017467182
122	0xbd48dc24	-0.049038067
123	0xbd6becfc	-0.057599053
124	0xbdb1a0bc	-0.08673236
125	0x3dbe1d34	0.09282914
126	0x3cc05e5c	0.023482494
127	0xbdb3859e	-0.0876572
128	0xbd95a09a	-0.07306023
129	0x3db2e9e9	0.08736021
130	0x3d0a6246	0.033785127
131	0x3d11441e	0.035465352
132	0xbd4f6b74	-0.050639585
133	0xbd1eb762	-0.038749106
134	0xbc1a496f	-0.009416922
135	0xbbdee846	-0.0068025915
136	0xbd8fc036	-0.07019083
137	0x3c617a6a	0.013762096
138	0x3c1b531c	0.009480264
139	0xbceeed65	-0.029165933
140	0x3c8a1de2	0.016859952
141	0xbd0f7e87	-0.035032775
142	0x3d01bd7b	0.031674843
143	0x3cebd270	0.028786868
144	0xbd177b77	-0.03698298
145	0xbdc29a4d	-0.09502087
146	0x3d5cb100	0.053879738
147	0x3cacb814	0.021083869
148	0xbd5d5541	-0.054036383
149	0x3dbb5fef	0.09149157
150	0xbd0bd150	-0.034135163
151	0x3d90d6dd	0.07072232
152	0x3d745832	0.059654422
153	0xbd83939a	-0.06424637
154	0x3d5f9852	0.054588623
155	0xbde211af	-0.11038529
156	0xbd4c6d35	-0.049908835
157	0xbbc03b0a	-0.005866413
158	0xbd400413	-0.046878885
159	0x3dbf3d7a	0.093378976
160	0xbcf91039	-0.030403243
161	0x3d3814b9	0.044941638
162	0xbdc18278	-0.09448713
163	0x3d5e22e9	0.05423251
164	0xbd83b8ae	-0.06431709
165	0xbd8e49b6	-0.06947653
166	0x3d065566	0.032796286
167	0x3d51ce37	0.051222052
168	0x3db76a46	0.08955817
169	0xbdafc3f6	-0.085822985
170	0xbd568f76	-0.05238291
171	0x3c8b3694	0.016993798
172	0x3d028fbf	0.03187537
173	0x3d35e682	0.044409283
174	0x3d6948d7	0.05695423
175	0xbc7df60b	-0.015500556
176	0x3d66c23d	0.056337584
177	0x3d65656d	0.05600493
178	0xbcd3c6a1	-0.02585155
179	0x3db861c4	0.09003022
180	0x3d30e27a	0.043184735
181	0x3d9fab29	0.07796318
182	0xbd4dbcb4	-0.05022879
183	0xbd172d67	-0.036908533
184	0xbcd15be4	-0.025556512
185	0x3b92eb40	0.0044836104
186	0x3d163906	0.036675476
187	0xbca4777b	-0.020076504
188	0x3da967e6	0.0827177
189	0xbd6d6f03	-0.057967197
190	0x3d7771b6	0.060411178
191	0x3bf670ce	0.0075207716
192	0xbd9e96b3	-0.07743587
193	0xbd43445f	-0.047672626
194	0xbd47731c	-0.04869376
195	0x3d72cc81	0.05927706
196	0xbd51a589	-0.051183257
197	0x3a46b752	0.00075804174
198	0x3cd9c226	0.026581835
199	0xbd9c6a77	-0.07637494
200	0x3d0fcfcd	0.035110284
201	0xbdb20b5a	-0.086935714
202	0xbd8accee	-0.067773685
203	0xbd8f25f0	-0.06989658
204	0xbc618c68	-0.013766386
205	0xbd432acf	-0.047648247
206	0xbc31f89a	-0.010862494
207	0xbc2a4577	-0.010392538
208	0x3d2a301a	0.04154978
209	0x3db675f9	0.0890922
210	0x3d01e572	0.031712957
211	0xbd1897f2	-0.03725428
212	0xbd8e52b4	-0.06949368
213	0x3d393357	0.045214977
214	0xbd34fa37	-0.044183936
215	0x3cf1d620	0.029521048
216	0x3d9bfcbf	0.07616567
217	0x3afbb8e3	0.0019204881
218	0x3da9da35	0.08293573
219	0x3dc900d9	0.09814615
220	0x3c8b7a02	0.017025951
221	0xbd5a139b	-0.053241353
222	0x3dbfae4f	0.093594186
223	0xbd311168	-0.04322949
224	0xbd0d13da	-0.03444276
225	0x3da14dc1	0.078761585
226	0x3d9c9d41	0.07647181
227	0x3d1ee5dd	0.038793433
228	0x3ce9c011	0.028533967
229	0xbd92e9d2	-0.07173504
230	0xbb2cfbf1	-0.0026395286
231	0x3dc7ba6b	0.09752353
232	0x3d01cf93	0.0316921
233	0x3bf7f9f0	0.0075676367
234	0xbbaf92fd	-0.0053580985
235	0xbced0964	-0.028935142
236	0x3d36597f	0.044518944
237	0x3bb29c70	0.0054507777
238	0x3d6b8872	0.05750317
239	0xbc802924	-0.015644617
240	0x3d47881e	0.048713796
241	0x3d15704c	0.036484048
242	0x3ccfad06	0.025351059
243	0x3d83182b	0.06401094
244	0x3d62deba	0.05538819
245	0x3d9b8b8a	0.07594974
246	0x3d8b29cf	0.06795084
247	0xbcb924e8	-0.022600606
248	0xbd9f6f78	-0.07784933
249	0x3c37b44c	0.01121242
250	0x3a1599e0	0.0005706828
251	0xbcbcdb94	-0.023053922
252	0xbb879ec6	-0.0041388003
253	0x3b8838c0	0.0041571558
254	0x3da5dcda	0.08098765
255	0x3d21d174	0.03950639

2.bias f4 [128]
0	0x3c8fd57e	0.017557856
1	0xbc1722f4	-0.009224642
2	0xbd09c9e7	-0.033639815
3	0x3c13a551	0.0090115825
4	0x3d9f704c	0.07785091
5	0xbdc4f047	-0.09616142
6	0xbc034b84	-0.00801361
7	0x3dedbe29	0.11608536
8	0x3d95b48d	0.07309828
9	0x3d942e56	0.072354004
10	0xbcc3f8d8	-0.023922369
11	0x3c9a33cc	0.018823527
12	0xbd9a924c	-0.07547435
13	0xbc7e2600	-0.01551199
14	0x3d46e94a	0.048562326
15	0x3d4e8f95	0.0504299
16	0x3d165219	0.03669939
17	0xbd792f83	-0.060836326
18	0x3d5c39a6	0.053765915
19	0xbd1075ed	-0.035268713
20	0xbdb0f21f	-0.08639931
21	0xbd3cc43c	-0.04608558
22	0xbd7638db	-0.060112815
23	0x3c22fee4	0.009948466
24	0x3d433960	0.04766214
25	0x3d125b37	0.03573152
26	0x3d04d7f3	0.032432508
27	0x3c8d2824	0.017231055
28	0x3d4f152c	0.0505573
29	0x3d6ceddf	0.05784404
30	0xbdab2cce	-0.08358155
31	0xbd643f2f	-0.05572432
32	0xbd2e390d	-0.042534877
33	0xbd8a31b4	-0.06747761
34	0x3d5a77a6	0.053336762
35	0x3dd56eb8	0.104215086
36	0x3d3701ea	0.04467956
37	0xbb4ca02f	-0.0031223407
38	0x3b313f3a	0.0027045743
39	0x3dc63658	0.09678334
40	0x3beddde1	0.007259116
41	0xbda4dd41	-0.08050013
42	0x3c318e98	0.01083722
43	0x3d4d0ef5	0.050063092
44	0x3d3e55ad	0.046468426
45	0x3decbc07	0.11559301
46	0x3d4c86f6	0.049933396
47	0xbd69620d	-0.056978274
48	0x3d6e8c2e	0.058239155
49	0xbd2eb88e	-0.042656474
50	0xbd5dfdf5	-0.05419727
51	0x3d23ba03	0.039972316
52	0x3bbc70cc	0.005750751
53	0x3d6cd81d	0.05782329
54	0x3d7d9b6e	0.061915807
55	0xbcd87b10	-0.026425868
56	0x3d965489	0.073403426
57	0xbd81e940	-0.06343317
58	0x3c0e53d8	0.008686982
59	0x3d87c00c	0.06628427
60	0x3d3de7d1	0.046363655
61	0x3dde21c9	0.10846288
62	0x3d762098	0.060089678
63	0xbcc6ff53	-0.02429167
64	0x3da240f0	0.07922542
65	0x3d3b3614	0.04570587
66	0xbc5c0cfe	-0.013430832
67	0x3d82aebd	0.06380985
68	0x3c66b3d0	0.014080957
69	0x3cfd6bb8	0.030935153
70	0x3d80f5f9	0.062969156
71	0xbc43d3ca	-0.01195235
72	0xbaf1126a	-0.0018392329
73	0x3d425d9c	0.047452554
74	0x3c864be1	0.016393604
75	0xbd78bc91	-0.060726706
76	0xbd988f80	-0.074492455
77	0x3d4cbabf	0.049982782
78	0xbd262745	-0.040564794
79	0x3d20cb69	0.039256487
80	0x3de3abd8	0.11116761
81	0x3dc5f9b9	0.096667714
82	0x3d820fd6	0.06350677
83	0x3d02e46c	0.03195612
84	0x3da70a1d	0.08156226
85	0xbd9f13ee	-0.07767473
86	0x3de5ee52	0.112270966
87	0xbd23b9e1	-0.03997219
88	0xbd6a9aaa	-0.057276405
89	0xbc07f28d	-0.008297575
90	0x3ded7b2c	0.11595759
91	0x3db109eb	0.0864447
92	0x3c8721c1	0.016495587
93	0x3d8d276e	0.06892286
94	0xbd5f2769	-0.054480944
95	0xbdaa89e0	-0.08327079
96	0x3d67165d	0.05641781
97	0x3b91a46a	0.0044446485
98	0x3d14e0ce	0.036347203
99	0xbd163135	-0.03666802
100	0x3d8c27c1	0.0684352
101	0xbd9dea66	-0.077107236
102	0x3d01e93a	0.031716563
103	0x3db1ee7c	0.086880654
104	0xbd8206bf	-0.06348943
105	0x3ddd4f09	0.108060904
106	0x3d990c05	0.07472996
107	0xbc250327	-0.010071552
108	0xbd427b4a	-0.04748086
109	0x3de5a42e	0.112129554
110	0x3b5d827e	0.0033799703
111	0x3d0bf875	0.034172494
112	0x3cd3a9fd	0.025837893
113	0x3d621e4e	0.055204682
114	0xbd837a8e	-0.0641986
115	0x3d910a49	0.0708204
116	0x3d829fd8	0.06378144
117	0x3ccce530	0.025011629
118	0xbd2839c1	-0.041070703
119	0x3da09234	0.07840386
120	0xbcfcfbce	-0.030881789
121	0x3dd5eabb	0.10445162
122	0x3d2142cd	0.039370347
123	0x3dc3cec2	0.0956092
124	0x3ccf9edc	0.025344305
125	0x3db0eacf	0.08638536
126	0x3d77b395	0.060473997
127	0x3c9a321d	0.018822724

4.weight f4 [2, 128]
0	0xbd448b68	-0.04798451
1	0xbdcdf7ec	-0.10057053
2	0xbdbc134f	-0.0918337
3	0x3bdedfb3	0.0068015694
4	0xbdcaeb0e	-0.099081144
5	0xbd6664c0	-0.056248426
6	0x3cd39202	0.025826458
7	0xbdb6d593	-0.08927455
8	0xbde6ff3c	-0.11279151
9	0xbcc871b6	-0.024468284
10	0x3d1c4086	0.03814747
11	0xbdfd153a	-0.12357564
12	0x3c392450	0.0113001615
13	0xbdcc2e27	-0.0996974
14	0xbbb89688	-0.005633179
15	0x3dc71f1c	0.097227305
16	0x3c5a80b5	0.01333635
17	0x3da4d785	0.080489196
18	0xbd6e94a1	-0.058247212
19	0xbdad6093	-0.08465686
20	0x3bf64fb4	0.0075168256
21	0x3c8e6c49	0.017385619
22	0xbd21ca56	-0.039499603
23	0xbd9b683d	-0.07588241
24	0xbd8f3782	-0.06993009
25	0x3c7e2c17	0.0155134415
26	0x3cb5cd9f	0.022192774
27	0xbd205349	-0.039141927
28	0x3d151636	0.036398135
29	0xbdde3d25	-0.10851506
30	0xbc2811f0	-0.010258183
31	0x3b94adc9	0.0045373184
32	0xbddad1ae	-0.106845245
33	0x3d90f820	0.07078576
34	0xbdb64574	-0.08899966
35	0x3c1e7c37	0.00967317
36	0xbd12684b	-0.035743993
37	0xbdbfdd23	-0.0936835
38	0x3d809995	0.062792934
39	0xbd598309	-0.05310348
40	0x3c35b363	0.011090132
41	0x3d9aa117	0.07550257
42	0xbdaa77c2	-0.08323623
43	0x3d0edeb5	0.03488036
44	0xbdb0fbba	-0.08641763
45	0xbde3a46f	-0.111153476
46	0x3cfdf48c	0.031000398
47	0xbcaccb65	-0.02109308
48	0xbdaef883	-0.085434936
49	0xbdb7175d	-0.08940003
50	0x3caf160a	0.021372814
51	0x3cd0fd41	0.025511386
52	0xbd48df0e	-0.049040847
53	0x3cbb5553	0.022867834
54	0x3ca12a70	0.019673556
55	0xbd72fb22	-0.05932153
56	0x3afe341b	0.0019394191
57	0x3d80e59f	0.06293797
58	0x3a80bfd3	0.0009822793
59	0xbd61101d	-0.054947007
60	0x3d8db2b9	0.06918854
61	0xbd949d41	-0.07256556
62	0x3e0a4d37	0.13506018
63	0x3e0457ef	0.12924169
64	0x3dab6cb0	0.0837034
65	0x3bc3c30c	0.005974179
66	0x3c03a98e	0.00803603
67	0x3cdb73ab	0.026788553
68	0xbda5ed10	-0.08101857
69	0xbda2fc23	-0.079582475
70	0xbdc4abbd	-0.09603069
71	0xbcd21779	-0.025645958
72	0xbdae250b	-0.08503159
73	0xbd8e9080	-0.06961155
74	0xbdd87240	-0.105686665
75	0xbd83a113	-0.06427207
76	0x3ca316fd	0.019908423
77	0x3d390254	0.045168236
78	0xbd38cd4a	-0.045117654
79	0xbdd564e2	-0.104196325
80	0xbd8de758	-0.06928891
81	0xbd977f55	-0.073973335
82	0xbe0b885b	-0.13626234
83	0x3d7e95d8	0.06215462
84	0x3ca2f98e	0.019894388
85	0x3d40a8af	0.04703587
86	0xbdb06774	-0.08613482
87	0xbdc64a2b	-0.09682115
88	0x3dad83bd	0.08472393
89	0xbdbb7059	-0.09152288
90	0xbded48ce	-0.11586152
91	0xbdf27990	-0.118395925
92	0x3ca94e3a	0.020667184
93	0xbd6218a3	-0.055199277
94	0xbdca194e	-0.09868108
95	0x3d9cc811	0.07655347
96	0xbdba7ed0	-0.09106219
97	0xbd1c0f68	-0.03810063
98	0x3d1c0c2c	0.038097546
99	0x3c1bb3bf	0.009503304
100	0x3d5ccbf4	0.053905442
101	0xbc3369c8	-0.010950513
102	0x3cd40176	0.025879603
103	0xbd460a47	-0.048349645
104	0xbb86b221	-0.00411059
105	0xbdc6d007	-0.09707647
106	0x3c39cb85	0.011340027
107	0xbcb9457c	-0.02261614
108	0x3be8099d	0.007081224
109	0xbd518a87	-0.0511575
110	0x3d765159	0.060136173
111	0xbe049929	-0.12949051
112	0x3d605a66	0.05477371
113	0x3d86e0f1	0.06585873
114	0x3ce9813a	0.028504003
115	0xbb42d06e	-0.0029726285
116	0xbe01e929	-0.126866
117	0xbcc42724	-0.023944445
118	0xbd916e00	-0.07101059
119	0xbdaca5c9	-0.084300585
120	0x3d5611ee	0.052263193
121	0xbd63c7fe	-0.05561065
122	0x3da82796	0.082106754
123	0xbda9ccf4	-0.08291045
124	0xbdac7713	-0.08421149
125	0xbdeb60d1	-0.11493076
126	0x3cedb4e3	0.029016918
127	0x3caea477	0.021318657
128	0x3cfd667c	0.030932657
129	0x3d2bcc88	0.041943103
130	0x3d24e1db	0.040254455
131	0xbdfe5411	-0.12418378
132	0xbc549322	-0.012974532
133	0x3d81c222	0.06335856
134	0x3d2af2d2	0.041735478
135	0x3cc7113e	0.024300214
136	0xbdad721b	-0.084690295
137	0xbde90118	-0.11377162
138	0x3dae7b0f	0.08519565
139	0xbd8e5a21	-0.069507845
140	0x3cf78338	0.030213937
141	0xbd321ac7	-0.043482568
142	0xbd90d43b	-0.0707173
143	0x3d4ad90c	0.0495234
144	0x3d97356a	0.07383235
145	0xbcacc76f	-0.021091191
146	0x3caf8e47	0.021430148
147	0xbc18ad8d	-0.0093187215
148	0xbb0e6a02	-0.0021730666
149	0x3cb48822	0.02203757
150	0x3cf094b0	0.029367775
151	0x3d77fad6	0.06054195
152	0xbd457342	-0.04820562
153	0x3d3eb638	0.046560496
154	0xbcb8b255	-0.022545973
155	0x3d0ecd14	0.034863546
156	0xbddf1643	-0.10892918
157	0x3d227595	0.039662916
158	0x3d989051	0.07449401
159	0x3bfcaadc	0.0077107977
160	0xbd2ce2fe	-0.042208664
161	0x3c108bdb	0.008822407
162	0xbde9d7ca	-0.114181116
163	0xbdea6e32	-0.11446799
164	0x3d27b4ea	0.040944017
165	0xbdf83429	-0.12119324
166	0xbd14fd6e	-0.036374502
167	0xbdc7634a	-0.09735735
168	0xbd957aed	-0.07298837
169	0xbcd9e389	-0.026597755
170	0xba3b0400	-0.000713408
171	0xbdd7b9a1	-0.10533453
172	0xbddaf79c	-0.10691759
173	0xbde3afb7	-0.11117499
174	0x3baebd02	0.00533259
175	0xbc7ef0b5	-0.015560319
176	0x3d4bfb3e	0.04980015
177	0xbe0509f5	-0.1299208
178	0xbde5938b	-0.11209782
179	0xbd54fcb3	-0.051998805
180	0x3d7e100c	0.062027022
181	0x3daeeef8	0.085416734
182	0xbd18b5d3	-0.037282776
183	0xbc84e99e	-0.016224679
184	0xbb7e8809	-0.0038838407
185	0x3b7363a0	0.0037138239
186	0x3b977a08	0.0046227016
187	0xbda6849f	-0.08130764
188	0xbb893863	-0.00418763
189	0xbce568cb	-0.02800407
190	0x3db0759a	0.08616181
191	0xbd307b87	-0.043086555
192	0xbd007040	-0.03135705
193	0x3d062320	0.03274834
194	0x3d425459	0.04744372
195	0x3d41c012	0.047302313
196	0xbcaf9db8	-0.02143751
197	0xbcb6b8b2	-0.022304866
198	0xbd9b25d4	-0.075755745
199	0x3d76495d	0.06012856
200	0x3cc64406	0.024202358
201	0xbdfe9f43	-0.124327205
202	0xb94b7d28	-0.00019406213
203	0x3db1b373	0.08676805
204	0x3d0be5b0	0.034154594
205	0xbde8af9d	-0.113616206
206	0x3d3bd50c	0.045857474
207	0xbd2523a6	-0.0403172
208	0xbd14fe28	-0.036375195
209	0x3cf91a2a	0.030407984
210	0x3cb7f080	0.022453547
211	0x3d2c416c	0.04205458
212	0xbddba5c3	-0.10724976
213	0x3d0a1787	0.033713844
214	0xbd885768	-0.066572964
215	0xbdfe3607	-0.12412649
216	0xbd33906d	-0.043838907
217	0x3d2a5cf3	0.04159255
218	0x3d6d1e06	0.05788996
219	0xbc906a5d	-0.017628843
220	0x3d442648	0.04788807
221	0xbdc6b98f	-0.09703361
222	0xbdaf7942	-0.0856805
223	0xbd553a7b	-0.052057724
224	0xbdb6be4b	-0.08923014
225	0xbdc298f2	-0.09501828
226	0xbd6a2142	-0.057160623
227	0xbdf0051b	-0.11719724
228	0x3cca73c4	0.024713404
229	0xbd28bf87	-0.04119828
230	0xbc70d483	-0.014699104
231	0xbd634f7f	-0.055495735
232	0x3c981b97	0.018567843
233	0xbdfa192e	-0.12211834
234	0xbdf0b0b9	-0.11752457
235	0xbdf5c5fd	-0.12000654
236	0x3d976c22	0.073936716
237	0xbd2b8032	-0.041870303
238	0xbdc61be5	-0.09673289
239	0xbd981aac	-0.07426962
240	0xbc899ca6	-0.016798329
241	0xbdad79f7	-0.084705286
242	0x3da7d998	0.081957996
243	0x3da30b42	0.07961132
244	0xbcb0557a	-0.021525133
245	0xbc40e8fa	-0.011774296
246	0x3d5292aa	0.0514094
247	0xbcb45493	-0.022012984
248	0x3c5ee85e	0.013605205
249	0xbd057ca5	-0.032589573
250	0xbd915e8c	-0.070981115
251	0x3c75755c	0.014981594
252	0xbc440ede	-0.011966435
253	0x3c6b18e8	0.0143492
254	0x3d036039	0.032074187
255	0x3dc704d9	0.097177215

4.bias f4 [2]
0	0xbda734cd	-0.08164368
1	0xbcc928ee	-0.02455565
