checkpoints/dqn/20251120-2008/ckpt_ep400.pth (torch, 72697 bytes, 6 tensors)

0.weight f4 [128, 4]
000000 a8 c0 a4 3e f5 fc ef 3e 52 9f c2 3d cc 6b 12 3f
       0.32178235 0.46872678 0.09503044 0.57195735
000010 52 4c 79 be bc 82 c0 3a 4d f8 ac bc 2c f4 f9 3e
       -0.2434552 0.0014687399 -0.021114493 0.488191
000020 0b 62 ef 3e 14 31 b3 be 21 86 00 3f 27 2f 00 3e
       0.46754488 -0.3499838 0.50204664 0.12517987
000030 94 22 bd 3e 50 ae 8a 3d 5c e1 76 3e 60 94 90 bd
       0.36940444 0.06771529 0.24109405 -0.0705955
000040 ef 85 96 3e 3a 80 86 3b f2 f2 81 be f8 ed 02 3e
       0.29399058 0.0041046413 -0.25380665 0.1278609
000050 b6 80 b0 be 3c 4f 1a be 13 14 75 bd 10 c7 f1 3e
       -0.344732 -0.15069288 -0.059833597 0.47222185
000060 64 f9 b1 be 96 01 a5 be 2b ac 86 be 7a eb a4 be
       -0.34760582 -0.32227772 -0.2630323 -0.32210904
000070 3a c9 92 3d c3 1e 13 bf 2c ca 49 3e 67 6d 07 bf
       0.07167287 -0.57468814 0.19706029 -0.5290131
000080 2f 57 bb 3e 3c ba 61 3e 50 5e fc 3c 5d 3f cd 3e
       0.36589953 0.22043699 0.03080669 0.40087405
000090 a2 e1 94 3c 3b b1 7d 3e 32 d7 3f bd 0b 63 2e be
       0.018173996 0.2477464 -0.046836086 -0.1702997
0000a0 d0 1f 4d 3d 58 eb a9 bd e3 65 d7 3e d2 94 14 3f
       0.050079167 -0.082968414 0.4206992 0.5803958
0000b0 84 31 4e 3e eb 69 62 be d9 83 ef 3e 5f 0c 3b 3e
       0.20136076 -0.22110717 0.4678028 0.18266438
0000c0 7f 4c 88 3e c5 94 b5 be 29 18 1b bf 3d 07 73 be
       0.26620862 -0.35465065 -0.6058374 -0.2373323
0000d0 b0 83 b5 be e8 22 e4 3e 34 c7 3a 3e 7b 40 5a 3e
       -0.35452032 0.4455788 0.18240052 0.2131366
0000e0 2f c8 fe 3d b1 82 b8 bd 54 cf 8e 3e 8c 40 bb be
       0.12440526 -0.090093024 0.27892554 -0.36572683
0000f0 40 5a 5b bd c5 69 cf be bf 03 89 3e 95 cc 92 bd
       -0.053552866 -0.40510383 0.2676067 -0.07167927
000100 f3 ae 10 3e 00 60 40 be 1a 88 a3 3e 91 25 98 be
       0.14129238 -0.18786621 0.31939775 -0.2971616
000110 e1 c9 b7 be 36 29 a0 be d2 47 1e 3f c1 d1 88 3e
       -0.3589621 -0.3128144 0.6182834 0.2672253
000120 d9 b6 20 3f c7 db f1 be 81 51 31 bf 6e 1c ed be
       0.62779003 -0.4723799 -0.6926499 -0.46310753
000130 1a 8f cf be 7e 24 5c 3e ea 84 cd 3e 3b 1f 18 3f
       -0.40538865 0.21498296 0.40140468 0.59422654
000140 b0 33 6f be 11 23 b3 be 73 76 6f 3e c4 f4 5e be
       -0.23359561 -0.3498769 0.23385029 -0.21773058
000150 fb 45 92 3e 7f 73 43 be 9b 3e 15 3e 3a a9 dc be
       0.28569016 -0.19087027 0.14574663 -0.4309786
000160 d3 aa 62 be 00 dd 14 3e 5b 6b c6 3a d9 e2 3a be
       -0.22135477 0.1453743 0.0015138196 -0.18250598
000170 2c 3a cf 3e 89 93 37 3e 85 e5 13 bf 81 36 af be
       0.4047407 0.17927374 -0.57772094 -0.3422127
000180 30 e4 11 3f 87 44 a1 be bc 0d f8 be 95 1c 2b bf
       0.5698881 -0.31497595 -0.48447978 -0.6684049
000190 14 1d 27 be 8b 63 26 3d 86 cb 8e be 7c 93 dc be
       -0.16319686 0.040622275 -0.2788965 -0.43081272
0001a0 55 9d 79 bd ef 2b f7 be 8b c9 3a bf 71 4c fa be
       -0.06094106 -0.48275706 -0.7296378 -0.48886445
0001b0 f4 92 04 bf 09 94 9b be 33 72 33 3f 80 56 4f 3e
       -0.5178673 -0.3038638 0.7009613 0.20247841
0001c0 e5 ce 29 3e 49 81 10 bf 73 86 bd be ee 0a ed bd
       0.1658283 -0.56447273 -0.3701664 -0.1157435
0001d0 f8 cf 35 3e cd 0b ea be 58 1f f1 be b0 2a eb be
       0.17755115 -0.45712128 -0.47094226 -0.45931005
0001e0 1f fd a7 3d 48 1a 8e be 0e 6f 9a be a0 51 f1 be
       0.08202576 -0.27754426 -0.30162853 -0.47132587
0001f0 72 a0 5f be 95 9f b9 be b1 3a be be 29 54 e4 be
       -0.21838549 -0.36254564 -0.37154153 -0.4459546
000200 25 ee 9f 3e 73 bc c8 bd bc 78 1c 3f 73 77 74 3e
       0.31236377 -0.09801569 0.61121726 0.23873691
000210 df 78 c6 be 74 f7 a5 3e 86 8e 67 be 63 8b 6f be
       -0.38764092 0.32415354 -0.22612962 -0.23393016
000220 d7 5c f9 be b0 f7 fd be 3d 73 9f 3e cd 9e 58 bc
       -0.48703644 -0.49603033 0.31142607 -0.013221455
000230 f4 8d f4 3d a6 9e fc be 1d 6b d1 3e 1d 57 a0 be
       0.11941138 -0.4933979 0.40902033 -0.31316462
000240 2f 21 24 be 44 50 15 3e b9 61 dc 3e ae 57 ed 3e
       -0.16028284 0.145814 0.43043306 0.46355957
000250 90 23 e0 3e 1f 3c 15 bf ea f0 92 3d 44 6c dd bd
       0.43777132 -0.5829486 0.07174857 -0.10811666
000260 cc b7 97 39 3a 3e f1 be 62 b4 2a 3e f1 c9 f9 be
       0.00028937904 -0.47117788 0.16670373 -0.48786882
000270 8f 9e 73 3e 53 db ad 3d b8 c9 2f 3d 8b 88 98 be
       0.23790954 0.084890984 0.042916983 -0.29791674
000280 60 6a 13 3f 87 14 16 bd d8 cd 2b be c8 0b 09 bf
       0.5758419 -0.03664067 -0.16777742 -0.535336
000290 00 c7 ee 3d cb 51 b0 bd 80 f5 2c bd 07 80 09 3f
       0.1165905 -0.08609351 -0.042226315 0.5371098
0002a0 31 90 91 3d 64 b1 a5 be a9 4a f9 bd 8b 00 7b 3d
       0.071075805 -0.323619 -0.121724434 0.061279815
0002b0 c4 f0 8e 3e 54 d5 02 be 32 11 92 be ac 54 2f be
       0.27918065 -0.1277669 -0.28528744 -0.17122144
0002c0 71 d5 be be cb d5 c6 3d b2 c9 93 3e be f1 fa be
       -0.37272218 0.097087465 0.2886482 -0.4901256
0002d0 fd e2 15 3e e7 58 74 3e 3f 91 9c bc 44 ed 62 be
       0.1463737 0.23862039 -0.019112227 -0.22160822
0002e0 61 38 5a 3e 2f f7 64 3e 09 dd c1 3d bd 3c 06 be
       0.2131057 0.22359918 0.09465987 -0.13109107
0002f0 7c 72 ee bd 85 7c c1 3c 14 85 2f be 72 62 3e be
       -0.1164293 0.023618946 -0.17140609 -0.18592241
000300 70 b4 7c 3e 25 c6 b7 3e ff 73 10 be fc b9 18 be
       0.24678206 0.3589336 -0.14106749 -0.14914697
000310 de d5 a5 bd 25 1e fd bc 02 42 9f 3e 04 8b 83 3e
       -0.080974326 -0.030898163 0.31105047 0.25691998
000320 a3 e3 00 bf b9 eb 4e be 28 70 12 3f b3 16 9a 3e
       -0.50347346 -0.20207109 0.57202387 0.30095443
000330 96 36 11 3d 6f 5d b2 be ba 62 1e bf ae 54 25 bf
       0.035452448 -0.3483691 -0.61869395 -0.64582336
000340 78 be 90 be 57 54 00 3e 36 33 15 3f 8b 9a f0 3e
       -0.28270316 0.12532173 0.58281267 0.46992907
000350 37 f3 04 bf 27 51 96 be c9 54 ba 3d a8 79 1a 3f
       -0.51933616 -0.2935879 0.09098203 0.6034188
000360 18 21 94 3d d0 97 04 be 7c d2 53 3e e8 02 43 be
       0.07232875 -0.12948537 0.20685762 -0.19044077
000370 b1 0e 80 be 6f 25 9f 3e 13 c2 a7 be 15 eb be bd
       -0.2501121 0.31083247 -0.32765254 -0.09322182
000380 67 f8 ec be 13 b3 b4 3e 94 d9 cc 3e d7 ac 63 3e
       -0.46283266 0.35292873 0.4000975 0.22233902
000390 0a c7 ce be 5d df 11 bf 89 5a 9e be b4 60 e8 3e
       -0.4038623 -0.5698145 -0.30928448 0.4538628
0003a0 79 a9 ae 3e 84 95 1c 3f b1 b3 06 3f e4 0e bf 3e
       0.34113672 0.6116564 0.5261794 0.37316048
0003b0 ea df 64 3d fd 0f d9 be 6f 7c 41 bf e1 a8 32 bf
       0.055877604 -0.4239501 -0.75580496 -0.6978894
0003c0 f8 2e ad 3e d6 e9 a0 be 5d 16 d6 be b7 a7 f2 be
       0.33824897 -0.31428403 -0.41813937 -0.4739358
0003d0 b4 50 33 be e7 05 c7 be f4 69 1b be cb 41 98 3e
       -0.17511255 -0.3887169 -0.15177137 0.29737696
0003e0 6f b3 fc bd 75 7f 7e 3e 9a 62 93 be 8d d1 d4 be
       -0.12338912 0.24853308 -0.28786165 -0.41566125
0003f0 a4 05 10 3c 73 05 99 be 4f 59 d4 be 12 b2 19 bf
       0.008790407 -0.2988697 -0.41474387 -0.6003734

0.bias f4 [128]
000000 61 98 52 3e 75 93 58 be f3 03 9a be 7c d5 d4 be
       0.2056594 -0.2115 -0.30081138 -0.41569126
000010 b5 db 0f 3f 05 09 c6 be 65 99 06 3f d5 9c 80 bd
       0.5619462 -0.38678756 0.5257781 -0.06279913
000020 ea 44 13 bd 84 9a f6 3e e2 2e 18 bd 1a 11 ef 3e
       -0.035954393 0.4816476 -0.037154086 0.46692735
000030 6f 4f f4 3e 47 4c ea be ae 87 a1 3e 58 e5 4a 3e
       0.47716853 -0.4576132 0.31548828 0.1981405
000040 d8 7b 26 3e 52 52 c3 3d 88 96 b5 3d ba 25 02 be
       0.1625818 0.09537186 0.08866602 -0.12709704
000050 0a 5d 7e bd 90 b5 0b 3f cf 0c f6 3e 59 57 c7 bc
       -0.062100448 0.5457392 0.48056647 -0.024333643
000060 0e 61 78 be 5b 7e a0 bc 0f a1 19 be 05 c8 06 3f
       -0.24255773 -0.019591501 -0.15002845 0.52648956
000070 16 c5 51 be 82 54 9a bd 52 fd b4 bd 4b 3a 8a 3c
       -0.20485339 -0.0753565 -0.088373795 0.0168735
000080 59 9d 1e 3f d6 75 2c 3d 47 50 db 3e 54 f1 01 3f
       0.61958843 0.042104565 0.42834684 0.5075886
000090 97 e3 0d 3f 79 d8 58 3c bc 05 96 bd 10 54 88 3e
       0.554254 0.013235205 -0.073253125 0.26626635
0000a0 12 65 ce bd 2c d7 89 3e 67 02 4b bd f2 a1 ad be
       -0.100778714 0.26921976 -0.049562838 -0.33912617
0000b0 1d 36 ac 3e c6 b1 02 3e 00 d6 a8 3e 07 fc 23 3f
       0.33635035 0.12763128 0.3297577 0.6405644
0000c0 0e 26 e7 3e 90 2d 1e 3f c2 d3 30 3d ea 8e 6a be
       0.4514622 0.6178827 0.043170698 -0.2290608
0000d0 65 1c 0b be 75 f0 86 be 7e 99 e1 be d4 5d a6 be
       -0.1358505 -0.2635533 -0.44062418 -0.3249346
0000e0 0d 1e ff be b4 6d da be 6a 7f b9 bd 11 66 8b be
       -0.49827614 -0.42661822 -0.090575054 -0.27226308
0000f0 ca 41 f1 bd d5 6c 82 3e 76 42 09 3f 11 b5 e4 bd
       -0.117801264 0.25473657 0.53617036 -0.11167348
000100 2a e4 d2 bd 66 ec d6 3e 31 14 4c be ee 7f 02 be
       -0.10297425 0.41977233 -0.19929577 -0.12744114
000110 ee 35 e2 3e 43 47 c8 be 89 48 61 bc c6 b9 f9 3e
       0.4418177 -0.39116868 -0.013750204 0.48774546
000120 76 f7 4f 3d 6a a8 4d 3e ad a7 9d be 81 7a 1e bd
       0.050773107 0.20083776 -0.3079199 -0.038691048
000130 c9 47 08 3e 66 1d 5d 3d b2 84 c1 3e a6 34 0e 3f
       0.13308634 0.053983115 0.3779655 0.55549085
000140 8d d1 89 be d4 bd 44 bd 08 da 1f be a2 10 90 be
       -0.26917687 -0.048032597 -0.15610516 -0.2813769
000150 11 b2 aa bc 5c 24 72 be 6d 25 f5 3e 8a b4 1d 3d
       -0.020836862 -0.23646683 0.47880116 0.038502254
000160 eb df 46 be e7 5d b3 3e a1 aa 8a be 11 2d 02 be
       -0.19421355 0.3503258 -0.27083305 -0.12712504
000170 c5 f4 98 bd 01 77 c6 be b5 26 91 be 5e 32 8b bd
       -0.07468561 -0.38762668 -0.28349844 -0.06796716
000180 6b 4d ef 3e f3 97 1d 3f 47 1f af 3e 75 ad a8 be
       0.46738753 0.6155998 0.3420355 -0.32944837
000190 00 b4 9f be fa a2 0d 3f 2c 24 92 3e 18 b0 49 3b
       -0.31192017 0.5532681 0.28543222 0.0030775126
0001a0 9f 37 cd 3c c1 59 a1 be 64 a7 dc bd 34 a5 1d 3f
       0.025050936 -0.3151379 -0.10774115 0.61580205
0001b0 c7 d3 ee bc c1 32 c8 3c 69 de 2f be 19 18 6f be
       -0.029153718 0.024438264 -0.17174686 -0.23349036
0001c0 e8 ed 82 bd e9 fa 8c be 0a 07 16 be 07 70 74 3e
       -0.06393033 -0.2753518 -0.14651123 0.2387086
0001d0 d4 69 fa be 36 62 ac 3d bb 3b 69 be ce 74 7e be
       -0.48908865 0.0841717 -0.22776692 -0.24849245
0001e0 ea bc a8 3e eb 63 0b 3f f5 3d 87 bd 1c 36 52 be
       0.3295663 0.5444934 -0.06603614 -0.20528454
0001f0 3d 1c f9 be ce 5f 52 be 23 01 a0 be b8 a8 b4 bd
       -0.48654357 -0.20544359 -0.31250867 -0.08821243

2.weight f4 [128, 128]
000000 16 37 ba 3d b3 8e 37 3d 64 c8 1f 3e c6 23 63 3d
       0.09092538 0.044813823 0.15603787 0.055454038
000010 2d 6c 38 bd 69 e9 2c 3d fe 82 9a bc 15 4f 39 bd
       -0.04502504 0.042214785 -0.01886129 -0.045241434
000020 68 09 84 3d f8 41 04 bd bf cc 19 3e cc 0f 7a 3b
       0.064471066 -0.032289475 0.1501951 0.0038156388
000030 6d 99 08 3c 3b dd 86 3d 9e 81 13 bd 0f ac 8f 3d
       0.008337361 0.06585165 -0.036012284 0.070152394
000040 4a a6 a4 bd 50 e1 fa 3a a5 b0 9b bd 2d c5 46 3e
       -0.080395296 0.0019140635 -0.07602052 0.19411154
000050 10 1d 78 bd 94 25 cf bc 4b 07 aa bd 99 52 81 3d
       -0.06057459 -0.025286473 -0.08302172 0.063145824
000060 82 a0 a5 3d 70 7c ee bc bb 5c 9e 3c 3b aa 37 3d
       0.08087255 -0.02911207 0.019331327 0.04484008
000070 f6 ab 23 bd 94 77 f5 bd 83 c0 1e bd cc 9b ad bc
       -0.039958917 -0.11985698 -0.038757812 -0.021192454
000080 1e c2 17 3e bd 2e ce 3c 32 e7 31 bd 4e b3 81 3d
       0.14820144 0.02516877 -0.043433376 0.06333028
000090 b9 cf 3f 3d de 81 04 be b3 6f fa bd ab d7 18 bd
       0.04682896 -0.12940165 -0.12228336 -0.037315052
0000a0 46 69 9e 3d 12 62 97 3d f9 bd 05 bd 38 e1 de 3c
       0.07734923 0.07391752 -0.032651875 0.027207002
0000b0 21 b6 b9 bd d9 70 a9 3d b6 87 8d bd 4d 21 03 bd
       -0.090679415 0.08273477 -0.069106504 -0.03201418
0000c0 c1 e4 ab bd b2 13 8f 3c 93 c7 b8 3d 91 2f 92 3d
       -0.08393241 0.017465446 0.09022441 0.07137979
0000d0 6f 3e 3f 3e b1 bc 14 3e d4 aa 8d 3c 28 18 47 3d
       0.1867616 0.14525105 0.017293371 0.04860702
0000e0 f4 cc 09 3e bf c6 f4 3d 4b ab 35 bc a8 d2 8f 3d
       0.1345709 0.1195197 -0.011088203 0.07022601
0000f0 38 4a a6 3d 36 40 0a bc a1 4e b7 bd b8 21 d2 bd
       0.08119625 -0.008438161 -0.08950544 -0.102603376
000100 be 47 c2 3d 99 a0 57 bd 79 34 d3 3d 1c 40 de 39
       0.0948634 -0.052643392 0.10312743 0.00042390905
000110 4b 36 48 bd 69 c3 77 bc c5 27 65 bd 44 c3 af 3d
       -0.048879903 -0.015122273 -0.05594613 0.08582166
000120 1b 81 11 3d f6 b6 de bd c7 ff 26 3d 5d b6 68 3d
       0.035523515 -0.10874741 0.040771272 0.05681454
000130 23 1f c7 3d db 8b ee 3b 1d 8f 4b 3d 1c c9 1c 3a
       0.09722736 0.0072798557 0.04969703 0.00059808954
000140 96 58 70 3d 58 b5 07 bc 4a 7c cc 3d d8 24 07 3d
       0.058678232 -0.008282982 0.09984644 0.03299412
000150 28 17 ce bc 72 0c 2d 3d b7 fa 5f 3d fd 0c 2b 3c
       -0.025157526 0.042248197 0.05468246 0.010440108
000160 f5 c9 90 bd 62 af 85 3c 04 83 37 bd 0a 90 70 bd
       -0.0706977 0.01631898 -0.04480268 -0.058731116
000170 ae d0 0f 3c 5d fd 0d 3d cb 06 3c 3d 7f 09 0f 3e
       0.00877778 0.034665454 0.045904916 0.13968466
000180 01 79 a7 bd 60 c4 ab bd 3b 11 f7 3c 63 48 99 3c
       -0.081773765 -0.08387065 0.030159583 0.018711274
000190 97 d7 87 3d b3 54 94 bc a7 80 2f bd 32 12 b4 3d
       0.066329174 -0.018106794 -0.0428473 0.08792533
0001a0 fd 12 9c bd 26 45 20 3d 36 dd a6 3d 75 64 99 bc
       -0.07620809 0.039128445 0.081476614 -0.01872466
0001b0 79 99 85 3d 3a 18 0c 3e 84 d2 0e 3e 3e 25 bb 3d
       0.06523413 0.13681117 0.13947493 0.09137963
0001c0 de 9e 54 bd 1c 51 b8 bc 1d ca c2 3d d2 82 dd bd
       -0.05190932 -0.022499613 0.09511206 -0.108159676
0001d0 00 2c 36 3a 14 ca e7 3d 3f c0 d7 3c a9 b4 fb 3d
       0.00069493055 0.1131784 0.026336787 0.122903176
0001e0 0f 25 94 bc b0 68 c7 3b ca 74 d4 bb fc ec 6b bd
       -0.018084077 0.006085478 -0.006483649 -0.057599053
0001f0 1e 79 94 bd 30 6c f9 3d 03 2d 09 3d 7f e4 d7 bd
       -0.07249664 0.12178838 0.033490192 -0.10541629
000200 e6 58 48 be 84 f3 8d 3d f8 d3 a4 b8 1e 44 11 3d
       -0.19565162 0.069312125 -7.859612e-05 0.035465352
000210 dc 50 6c bd ce 8d a3 bd 2d 21 99 3c aa af a0 3d
       -0.0576943 -0.079860315 0.018692577 0.07846005
000220 fc 6b bf bd a9 93 20 bb 28 dd 59 bd 22 b5 82 bd
       -0.09346768 -0.0024502075 -0.053189427 -0.063822046
000230 39 af 6a 3d 49 97 c9 bd 36 63 06 3d d8 91 ea 3d
       0.05729601 -0.098433085 0.03280946 0.11453599
000240 79 68 e1 bc 95 3c 04 be f8 49 e5 3d c0 cb 06 3d
       -0.027515637 -0.12913735 0.11195749 0.032909155
000250 2d 87 d7 3c 64 aa c3 3d 88 56 40 bd e7 68 8b 3d
       0.026309574 0.09553984 -0.046957523 0.06807118
000260 e0 69 25 3e aa b1 83 bd 18 ec 6e 3e 3a 6c 13 be
       0.1615367 -0.06430371 0.2333225 -0.14396754
000270 5b 25 a1 bc 0f db d4 3d 39 79 8d 3c df 0f 13 3e
       -0.019671133 0.103933446 0.017269718 0.14361523
000280 c6 50 ba bd 3a 41 ff 3c 52 52 30 bd d7 5d 97 3d
       -0.090974376 0.031159032 -0.043047257 0.073909454
000290 7a a6 37 be af 5a 4c 3d ab bf 12 3e b8 94 34 3d
       -0.179346 0.04989117 0.14330928 0.04408714
0002a0 75 15 c4 3d 43 f4 fd bd 3a 4d 73 bc 94 36 8b 3c
       0.09574405 -0.12400105 -0.014849955 0.016993798
0002b0 de 1f c7 3c fe 0f d9 3c c4 91 05 3d 36 82 8c bc
       0.024307188 0.026496883 0.032609716 -0.017151933
0002c0 aa 57 16 3d ad e4 55 3c e1 55 aa bd c3 9c 7b 3e
       0.036704697 0.013055009 -0.08317161 0.24571519
0002d0 75 a2 ec 3b 73 aa 42 3d b4 bc 4d bd 3d 1c 5a bd
       0.007221515 0.047525834 -0.05022879 -0.053249586
0002e0 98 cf 60 bd ba 0f 80 bd be 55 4e bd 9b 5f 2e 3e
       -0.054885477 -0.062529996 -0.05037474 0.17028658
0002f0 f1 f3 7c 3e b2 f1 4b bc f4 e8 6a 3d f1 09 89 3d
       0.24702431 -0.012447761 0.057351068 0.06691349
000300 9c 75 43 be fa 9f cf bc 2c ba 07 be 0e a0 20 3e
       -0.19087833 -0.025344837 -0.13254613 0.15686056
000310 83 c0 b7 bd 89 29 84 bc 47 84 b5 3d 7d 82 93 bd
       -0.089722656 -0.016133087 0.088631205 -0.07202623
000320 88 5c 77 3d 73 2a 22 bb a5 fd cb 3b 8c 27 ea bc
       0.06039098 -0.002474454 0.006225305 -0.02858331
000330 3f 3c a7 bd 28 6d 04 be d8 33 47 be 5b 97 3c bd
       -0.08165788 -0.12932265 -0.1945337 -0.04604278
000340 11 2b 60 3c 79 a4 1f 3e 15 fa b8 3c b5 5a 71 3d
       0.013682143 0.15590085 0.022580186 0.058924396
000350 9a b8 9b bd f6 65 05 3e c4 78 35 bd 33 87 55 3d
       -0.07603569 0.13027176 -0.044304624 0.05213089
000360 b0 a8 c8 3d 22 af 9e bc 82 0a 56 3d f4 b4 de 3d
       0.097977996 -0.01937062 0.052256115 0.10874358
000370 6c 7b 20 3d c9 99 f2 3c 00 12 4c 3d 53 d6 26 be
       0.039180204 0.029614346 0.049821854 -0.16292696
000380 8f f0 25 bd f0 fc b6 3d a0 2e 85 3d 29 82 d5 3d
       -0.040512618 0.08934963 0.06503034 0.10425217
000390 51 a4 13 3d 67 74 d2 bc 32 16 b7 3b e8 22 90 3d
       0.036045376 -0.02569027 0.0055873627 0.07037908
0003a0 57 b6 1e 3d 21 04 52 bd 8d af 81 3c ba bb 6d bd
       0.03874811 -0.05127347 0.01583078 -0.058040358
0003b0 98 2e 8e 3d ea a4 73 3c 3c c4 ad 3d 59 5c 9e bd
       0.06942481 0.014870862 0.08484694 -0.07732458
0003c0 50 91 db 3d ed 08 df 3d ca 36 ba bc 89 49 80 3d
       0.107210755 0.10890374 -0.022731204 0.06264026
0003d0 ba de 62 3d ee 72 3d bd 43 07 a5 3c b9 a8 b5 bd
       0.05538819 -0.046252184 0.020145064 -0.08870072
0003e0 2e d4 ee bc 93 ac 7d 3c f0 3f 0e be 94 db bc bc
       -0.02915391 0.015483039 -0.13891578 -0.023053922
0003f0 03 94 db bc 0f 71 8d bd 51 a7 c0 3d b9 99 8a 3d
       -0.026803976 -0.0690633 0.09406913 0.067676015

2.bias f4 [128]
000000 58 cc a2 3c c1 3e dc bc 24 09 f3 bc 5a ce 99 bb
       0.01987283 -0.026885392 -0.029667445 -0.0046937885
000010 2b 80 a4 3d 1e 4c c5 bd 0a fe 09 bc 97 64 fd 3d
       0.080322586 -0.09633659 -0.008422384 0.123727016
000020 e8 c4 04 3d a2 4f 5f 3d d8 f8 c3 bc ff 74 ce bc
       0.032414347 0.054519303 -0.023922369 -0.025202272
000030 53 27 8e 3d 47 e2 19 bc ec 8b ed 3c f0 67 6c 3e
       0.06941094 -0.009392328 0.028997384 0.23086524
000040 e9 21 2e 3e 63 22 95 bd a2 5f 61 3d 02 75 94 bd
       0.17005123 -0.07281949 0.055022843 -0.0724888
000050 3b ce b1 bd de 5f 3e bd ac 67 95 bd 73 1a 21 3c
       -0.086819135 -0.046478145 -0.072951645 0.009832966
000060 51 92 4a 3d 28 39 10 3d 25 0f 04 3d 95 b1 a6 3b
       0.049455944 0.03521076 0.032241005 0.0050870874
000070 fe 7f 91 bb 37 d8 aa 3d ce 2c ab bd 27 6e 65 bd
       -0.0044403067 0.08342021 -0.08358155 -0.056013253
000080 2f bf af bd 7b 0f 94 bd de 6d 81 3c 26 f2 9f 3d
       -0.08581387 -0.07229515 0.01579946 0.07809858
000090 f8 ed 90 3d 03 c1 98 bc bb 03 24 3b ec 78 82 3d
       0.07076639 -0.018646723 0.0025026638 0.0637072
0000a0 ca cd e9 3b 32 28 a5 bd 10 c3 fd 3a 9d e7 20 3d
       0.0071351277 -0.08064307 0.0019360501 0.039283384
0000b0 47 be c5 3c 7f 6e 91 3d 34 c6 47 3d 36 da d1 bb
       0.024138583 0.071011536 0.048773006 -0.0064041866
0000c0 71 ed 6d 3d 03 dd 3b bd 2e d6 9b bd 30 01 1b 3e
       0.05808777 -0.04586507 -0.07609211 0.15137172
0000d0 08 40 f0 3c 8c 3a 6a 3d 29 8e 48 3e 86 ec dd bc
       0.029327407 0.05718474 0.1958548 -0.027090322
0000e0 ad e8 95 3d ae 08 94 bd 9d 63 06 3c 08 8d db 3c
       0.0731977 -0.07228218 0.008202461 0.026800647
0000f0 34 01 3c 3d 29 6d 94 3d 6d 37 71 3e 17 82 d1 3d
       0.045899585 0.07247383 0.235563 0.10229891
000100 45 ea 64 3e b5 22 4c 3e bf 85 5f bc 16 92 84 3e
       0.22354992 0.19935115 -0.013642727 0.25892705
000110 d0 b3 66 3c fa 7b 83 bc cc a2 f5 3c 47 66 fb 3a
       0.014080957 -0.016050328 0.029984854 0.0019180261
000120 d0 1d 7a 3c 06 45 22 3d 5f 5f 77 bc d1 b9 8d bd
       0.015265897 0.039616607 -0.015098422 -0.06920207
000130 00 ea 98 bd 87 7c 06 3d ee d8 39 bc fe 35 2f 3c
       -0.07466507 0.032833602 -0.011343224 0.010694025
000140 96 70 d2 3d 4e 14 e7 3d 20 7d de 3c fd 74 01 3d
       0.1027538 0.1128317 0.027159274 0.03160571
000150 0f 57 40 3d e2 b7 9d bd ff 84 ea 3d 0b 75 4f bd
       0.046958026 -0.077010885 0.11451148 -0.05064873
000160 aa 9a 6a bd 58 95 9b 3b e3 93 0f 3e ae 63 12 3d
       -0.057276405 0.004748028 0.14021258 0.035739593
000170 da 7a 86 3c d1 eb 8a 3d ce b7 ac bd fd 86 ce bd
       0.016416002 0.0678326 -0.084334955 -0.10084341
000180 69 d3 30 3d 85 02 18 bc 0d a8 14 3d db 53 3b bd
       0.043170366 -0.009277944 0.03629308 -0.045734268
000190 02 aa 57 3e 66 ea 9d bd 79 cd f9 3c 9a 1e 00 3d
       0.21060947 -0.077107236 0.030493485 0.031279184
0001a0 5c b8 82 bd 26 4c b3 3d cd d5 86 3d e0 c5 d1 bc
       -0.0638282 0.087547585 0.06583748 -0.02560705
0001b0 e2 33 43 bd ae 0c 81 3d f6 32 91 bb fa 59 1c bb
       -0.0476569 0.063012466 -0.004431124 -0.002385734
0001c0 24 ac d1 3c 0a 7f 23 3d b3 7c 84 bd 6d 34 8a 3e
       0.025594778 0.039916076 -0.06469097 0.26993123
0001d0 06 f6 c4 3c d6 7b af 3c eb f0 4a bd e7 45 d5 3b
       0.024043094 0.021421354 -0.049546164 0.006508577
0001e0 e4 55 00 bd de b6 3b 3d 88 b9 20 3d 62 25 e1 3d
       -0.03133191 0.045828693 0.039239436 0.10993458
0001f0 cc 26 e3 bc 11 a6 0e 3d 07 c5 74 3d 7d 6a 51 3e
       -0.02772846 0.034826342 0.059758212 0.20450778

4.weight f4 [2, 128]
000000 1d cd 91 bd 6c 55 10 be 1c d4 e0 bd 37 06 11 3c
       -0.071192004 -0.14095086 -0.10977957 0.008851579
000010 2a f3 2d be 79 03 67 bd 90 e2 d0 3c b2 9c 07 be
       -0.16987291 -0.056399796 0.025498658 -0.13243368
000020 1a 51 e1 bd 4d ce 45 bc 86 40 1c 3d 83 7a fb bd
       -0.11001797 -0.012073112 0.03814747 -0.12279227
000030 f1 70 25 3e 7a 8d 5f be 77 5d 93 bc e2 b2 9f 3e
       0.16156365 -0.21831313 -0.017988903 0.31191164
000040 5b ec 0a 3e b3 cc d9 3d a5 dd fc bd cf a3 d0 bd
       0.13566725 0.106347464 -0.12346963 -0.10187494
000050 2f 32 ec 3b 73 25 8d 3c 7a 8d c7 bc f9 ef 9b bd
       0.007208131 0.017229771 -0.024359453 -0.076141305
000060 99 45 1d be 18 85 77 3c 62 28 b4 3c c5 9b c4 bc
       -0.1535858 0.015107416 0.021991912 -0.024000058
000070 84 86 3c 3d d5 cf 26 be f0 11 28 bc 1e 7c 8c 3b
       0.04602672 -0.16290219 -0.010258183 0.004287257
000080 b7 7d ef bd d9 a3 8d 3d fb 29 c6 bd e7 29 88 3c
       -0.116939 0.06916017 -0.09675976 0.016621543
000090 12 32 44 bd 5f 23 bb bd c1 b8 7f 3d c4 33 88 bd
       -0.047899313 -0.09137606 0.062432054 -0.066504985
0000a0 85 51 34 3c ca 5b 9a 3d c2 77 aa bd ca ba b1 3d
       0.011005764 0.075370386 -0.08323623 0.08678205
0000b0 14 fa aa bd df fd db bd b2 da f8 3c 1b b5 59 bd
       -0.0834848 -0.107417814 0.03037772 -0.05315123
0000c0 25 5d af bd 7f 84 dd bd 42 27 8f 3d 25 1d 3d 3e
       -0.08562688 -0.10816287 0.0698991 0.18468149
0000d0 cf fb 8f bd 9b 6d b6 3c c5 1b 2c 3e 8b ef 71 bd
       -0.070304506 0.02226906 0.16807468 -0.059066337
0000e0 41 8d e3 3a 9f e5 80 3d 0c e8 c8 3a aa 7a 6e bd
       0.0017360823 0.06293797 0.0015327944 -0.05822245
0000f0 78 f6 8c 3d 61 f1 ad bd 13 fe b9 3e 34 79 a9 3e
       0.06882948 -0.08493305 0.36326656 0.33100283
000100 a8 22 98 3e d0 88 26 3e 39 0e 00 3c 48 a6 81 3e
       0.2971394 0.16263127 0.007815891 0.25322175
000110 10 ed a5 bd 24 5f 81 bd a0 c8 b8 bd bf fe d3 bc
       -0.08101857 -0.06316975 -0.09022641 -0.025878308
000120 45 8a 0d be f3 89 91 bd 43 4d 19 be 2a 8e 64 bd
       -0.13822277 -0.0710639 -0.1497088 -0.05579964
000130 60 e1 a1 3c fc fc 50 3d 52 bb d6 bd 2b 15 d5 bd
       0.019760787 0.051022515 -0.10484947 -0.10404428
000140 c6 ad 00 be 27 34 e0 bd 8c 0e 34 be 17 75 7d 3d
       -0.1256629 -0.10947447 -0.17583674 0.061879244
000150 2d 6f 60 3d 64 13 31 3d 2b cd 16 be a1 fb dd bd
       0.054793525 0.043231383 -0.14726703 -0.1083901
000160 bd 83 ad 3d 12 65 eb bd d8 5f 19 be c2 5a d7 bd
       0.08472393 -0.11493887 -0.14977968 -0.105153576
000170 22 d6 a8 3c 7a e8 20 be 86 66 d4 bd 73 8a 06 3e
       0.020609919 -0.15713683 -0.10371117 0.13138752
000180 2b 69 29 be 60 74 00 bd 6b d3 1b 3d ff 84 fa 3c
       -0.16544025 -0.031360984 0.03804342 0.030580996
000190 b1 c3 47 3e c8 69 33 bc 86 10 d1 3c fd ea 1f bd
       0.19508244 -0.010950513 0.025520574 -0.03904246
0001a0 65 e0 8f bb 43 57 cf bd f4 6c 6d bb e1 94 5b bc
       -0.0043907636 -0.10124066 -0.0036228271 -0.013402195
0001b0 7f ec e1 3b 3f 20 3d bd e9 de e8 3d 9a 65 08 be
       0.0068946476 -0.04617333 0.11370642 -0.13320008
0001c0 e9 3a 5f 3d c3 bc 55 3c 57 05 e6 3c a4 8a 5e 3e
       0.05449954 0.013045493 0.028078718 0.21732575
0001d0 ae 02 e9 bd 24 27 c4 bc f9 12 80 bd ee 9e a0 bd
       -0.11377464 -0.023944445 -0.06253619 -0.078428134
0001e0 18 a2 54 3d 19 54 40 bd 36 0b a8 3d ad 4e 0d be
       0.051912397 -0.0469552 0.08205263 -0.13799544
0001f0 06 10 9f bd 6b 06 c9 bd 62 b4 ec 3c af 6e 68 3e
       -0.07766728 -0.09815677 0.028894607 0.22698472
000200 9b e1 b7 3b ca eb 64 bd a4 0e 89 3c 3b 68 36 be
       0.005611611 -0.05588893 0.016730614 -0.17813198
000210 c2 25 ad bd 13 6c 81 3d 96 9a 29 3d ef 7b 23 bc
       -0.08454467 0.06319442 0.04140719 -0.009978279
000220 7c 3e 09 be f5 c5 40 be 0f 7b ae 3d 10 fc 08 be
       -0.13402742 -0.18825515 0.08519565 -0.13377404
000230 f5 3c 36 3e cd 64 06 be 98 a1 11 be 63 de 8f 3e
       0.17796691 -0.1312439 -0.142218 0.28099355
000240 33 61 8b 3e e8 51 05 bd 17 c3 45 bd 43 3b f4 bd
       0.27222595 -0.032548815 -0.048281755 -0.11925366
000250 99 4f 04 bb e9 7b b0 3c e3 f5 3b 3d c4 e1 76 3d
       -0.0020189045 0.02154346 0.045888793 0.0602739
000260 63 07 fe bd 1f 20 3d 3d 22 8d ba bc 1b e2 b9 3c
       -0.12403753 0.04617321 -0.022772375 0.022690823
000270 31 06 c3 bd 0a b8 90 3c 51 90 98 3d c8 13 f5 3b
       -0.09522665 0.017665882 0.07449401 0.0074791647
000280 b6 05 05 be 3b 3b 02 3c 14 db 2d be 19 95 26 be
       -0.1299046 0.007948692 -0.16978103 -0.16267814
000290 eb 2e 92 3d aa cf 58 be f2 94 16 bd 25 cd 22 be
       0.07137855 -0.21172968 -0.03676314 -0.15898569
0002a0 0d 47 95 bd 33 ec d8 bc 86 bf 06 3c 3a 62 0a be
       -0.072889425 -0.026479816 0.008224374 -0.13514033
0002b0 31 5c 3b be af 74 0f be f2 1f b8 3b 61 9f 25 be
       -0.18296887 -0.14009355 0.0056190426 -0.1617408
0002c0 3a 2e 4b 3d 7e f7 60 be cf 31 f7 bd b7 91 01 3e
       0.049604632 -0.21969411 -0.12070047 0.12653242
0002d0 24 51 6d 3d ba cc ae 3d a8 de 02 3e fa a5 80 bc
       0.05793871 0.08535142 0.12780249 -0.015704144
0002e0 0e 89 86 bb 6d 5a a8 bb da 10 87 3b a3 59 08 be
       -0.0041056937 -0.0051377327 0.004121882 -0.13315444
0002f0 ab d4 89 bb 9d 7e f9 bd f4 33 ad 3e 50 31 31 3e
       -0.00420626 -0.12182353 0.338287 0.17303967
000300 04 0b 44 3e 19 11 7e 3e c1 b4 41 3d 41 15 92 3e
       0.19144827 0.2481121 0.04729152 0.2853184
000310 b8 9d af bc 32 58 71 bd 2d 80 f8 bd e0 ed 63 3d
       -0.02143751 -0.058922 -0.121338226 0.055646777
000320 f3 c3 40 3c 4c c2 6a be ff 18 0a be 73 b3 b1 3d
       0.011765468 -0.22925681 -0.13486098 0.08676805
000330 63 5b 0c 3d ce fb 1b be 54 e4 e4 bc e4 28 be bd
       0.03426684 -0.15232775 -0.027940907 -0.09285143
000340 b2 36 eb bd cd 46 11 3c ae c6 d8 bd 2d 09 2c 3d
       -0.11485042 0.008866978 -0.1058477 0.04200094
000350 1e f3 f2 bd fb ab 25 3d 44 3d 0d be 34 1e 71 be
       -0.11862777 0.040447216 -0.13792902 -0.23546678
000360 6d 90 33 bd 07 b8 06 3d dc 90 75 3d 6b 33 1e bd
       -0.043838907 0.032890346 0.0599526 -0.038623255
000370 e7 e7 43 3d 44 76 3c be 8e 26 2c be 85 f8 8c bd
       0.04782858 -0.1840449 -0.16811582 -0.06883339
000380 19 d1 36 be 1f d6 36 be 8c e8 69 bd 66 1c 4b be
       -0.17853202 -0.17855118 -0.05710654 -0.19835052
000390 51 8a 94 3e 87 bf 28 bd 02 fd 74 bc 4f 16 c0 bd
       0.29011777 -0.04119828 -0.0149529 -0.09379255
0003a0 cd 70 99 3c a9 8a 57 be 48 e4 48 be 2f 77 32 be
       0.018730545 -0.21048988 -0.19618332 -0.17428277
0003b0 74 b8 97 3d e7 88 bf bd 0d 86 69 bd f8 3d 1a be
       0.074082285 -0.09352284 -0.057012606 -0.15062702
0003c0 5a f5 8b bc d9 b2 2e be 63 32 a8 3d 24 ea b0 3e
       -0.017084766 -0.17060412 0.082127355 0.34553635
0003d0 b9 bf 58 bd 52 16 06 bc aa 92 52 3d 23 c0 f2 bc
       -0.052917216 -0.0081840325 0.0514094 -0.029632634
0003e0 90 23 60 3c 21 ea 90 bd 6f 3e 91 bd c6 90 6b bc
       0.013680354 -0.070759065 -0.070919864 -0.014377778
0003f0 c9 28 33 bd a5 1c 46 3c 12 4f 02 3d 7f 7f ba 3e
       -0.043740068 0.01209179 0.03181369 0.36425397

4.bias f4 [2]
000000 a1 80 71 bd cd f2 f3 3c
       -0.05896056 0.029778862
