checkpoints/dqn/20251120-2008/ckpt_ep100.pth (torch, 72697 bytes, 6 tensors)

0.weight f4 [128, 4]
00000000: 1eed 9b3e c4f2 ba3e 1a50 81bc 7fb7 083f
00000010: 7b90 51be 9851 a43c c095 11be ab03 c33e
00000020: 1505 d83e 1611 bfbe 8bb4 e73e 445c d43d
00000030: 9422 bd3e 50ae 8a3d 5ce1 763e 6094 90bd
00000040: caf0 d13e 5973 a13d ebb5 89be 2823 d63d
00000050: 19d3 a5be 6893 0abe cb99 ddbd aa47 d33e
00000060: 1064 b2be 2c80 5fbe b3c6 53be a208 afbe
00000070: 1202 a43d 2618 ebbe 5c31 c53e 7e72 f6be
00000080: 56af ba3e 7c00 a83d 6a3f f1bd a9cb ab3e
00000090: 61e5 ef3d 68b4 c53e 6068 5e3a 093f 38be
000000a0: 9ef4 993d fcce 28be fafe 9a3e 836e 033f
000000b0: 4bdb 603e c585 88be b399 c13e 99c7 203e
000000c0: f05b a23e b13b 8abe 6a31 0dbf 7e00 70be
000000d0: 9c5b c4be d60e d23e d878 133e cc13 543e
000000e0: 070e 6b3e 66aa 1a3d 34d5 a23e 0ac0 d3be
000000f0: 2ce1 10bd 387d c8be 2786 613e 92d3 efbd
00000100: 207b 683e c254 79bd a1d1 a93e ae59 b9be
00000110: 3e61 c1be 7ebd b3be 0788 093f d1ae 6e3e
00000120: 327d 0e3f 5c51 b9be be9e 13bf c78a e9be
00000130: 5804 ccbe e2a0 1b3e 2261 8b3e e224 fc3e
00000140: de5d 99be 8c37 bebe e999 a03e fbf9 27be
00000150: ac2b c23e 2020 71bd 0d35 583e c206 e8be
00000160: 8fde 36be 2f4d 553e a830 123d aea3 3dbe
00000170: ec1c b63e 1bfe b63e 218e e0be 6edc a3be
00000180: 5019 043f e486 e5bd 3eff 82be 7319 0ebf
00000190: a2fe 59be e8d9 203e e685 1bbe e4cd d9be
000001a0: d301 923c e70e acbe bce9 ddbe 5348 93be
000001b0: a9a4 03bf 8718 babe 31c3 173f cc18 253e
000001c0: 53e2 f13d 7988 02bf 4ba1 b5be 3683 18be
000001d0: 158b 203e f24f c3be 3100 97be 631b bdbe
000001e0: 0472 8e3d b150 24be b689 eabd 7f6e cabe
000001f0: 5134 83be 8b0c 81be be6e 7fbe 1704 e5be
00000200: db42 b63e 70cf 12be 111d 053f c6d8 623e
00000210: a543 b8be 7702 bf3e a6ed 5bbe a10c 7fbe
00000220: 657e f9be 3970 08bf 7818 6a3e f082 52bd
00000230: 75aa 1e3e 23d7 e6be a49c d03e 4d19 a9be
00000240: e701 0bbe fd6a 9f3d aa80 aa3e daf1 e93e
00000250: bfc4 e23e 8463 dabe d401 de3d 4dd9 41be
00000260: d171 513c 9b0b acbe 8bb3 c23e b8b2 d7be
00000270: 72ae aa3e e343 603e d069 bc3d 08a5 a6be
00000280: 0b48 063f 126b 113e 41ae a0bc a985 00bf
00000290: 24be 0d3e c483 fabd 86ac 0abe 1998 003f
000002a0: cf28 393d 7370 a7be dcfe 3ebe 2967 043d
000002b0: c4f0 8e3e 54d5 02be 3211 92be ac54 2fbe
000002c0: dabe a5be 257d 3f3e fe62 a93e 1a86 01bf
000002d0: 688c 433e c7df 9b3e 2eeb 0f3c a44a 75be
000002e0: fb7e ab3e d4ef 9f3e 31a8 e83d 151f 17be
000002f0: c33f a0bd e8a0 af3d 12fa 08be d953 3cbe
00000300: 110f c13e 5bc7 ea3e 9897 dfbd b9b7 1ebe
00000310: 7794 87bd c231 a4bd f73d 563e d6c7 553e
00000320: c130 03bf 176a 5ebe 0b77 ff3e 38e9 803e
00000330: bae8 4d3d 403a 74be b471 c6be 098d 05bf
00000340: 2d1c 83be 7f1d a73d 2894 db3e 0047 a93e
00000350: c1d7 06bf 87c2 b5be 79c3 8e3c d104 0e3f
00000360: 1821 943d d097 04be 7cd2 533e e802 43be
00000370: b802 97be 863e c23e 3f1b 87be cc72 febd
00000380: 7eab febe 5255 ab3e 58f4 c13e f498 3a3e
00000390: 6b65 d4be 6d00 0dbf 5eb6 a7be 9713 e03e
000003a0: c9e8 943e 3e64 e73e 4342 9f3e d081 3a3e
000003b0: d1f1 8b3d 45a8 a3be fff4 01bf 1c76 0abf
000003c0: 7abc 923e 874f 32be 3357 47be c22f bebe
000003d0: 8cc3 27be 9aa5 ccbe c4bd 72be b126 6d3e
000003e0: 7fee a0bd c6e6 b03e d5ef 6dbe 5812 d7be
000003f0: deb1 0bbc 0787 49be 79d6 72be 6864 0abf
0.30454344 0.3651334 -0.015785266 0.5340499 -0.20465271 0.020058438 -0.14217281 0.38088736
0.42191377 -0.37317723 0.4525493 0.10369161 0.36940444 0.06771529 0.24109405 -0.0705955
0.4100402 0.07883329 -0.26896605 0.10455924 -0.32387617 -0.13532794 -0.10820349 0.41265613
-0.34841967 -0.21826237 -0.20681266 -0.34186274 0.080082074 -0.4591686 0.3851422 -0.48134226
0.36461896 0.082032174 -0.117796734 0.33553818 0.117136724 0.38614202 0.0008484181 -0.17992796
0.0751736 -0.16485208 0.30272657 0.513405 0.21958654 -0.26664558 0.37812576 0.1570114
0.31710768 -0.26998666 -0.55153525 -0.23437688 -0.38351142 0.41026944 0.14401567 0.20710677
0.2295457 0.03776016 0.31803286 -0.41357452 -0.03537099 -0.39158034 0.22023831 -0.11710276
0.22703218 -0.060871847 0.33167747 -0.36201233 -0.37769502 -0.3510551 0.53723186 0.23308875
0.5565978 -0.36194885 -0.57664096 -0.4561369 -0.39847064 0.1519809 0.27222544 0.4924689
-0.29954427 -0.37151754 0.31367424 -0.16403954 0.37923944 -0.058868527 0.21113987 -0.45317656
-0.17858337 0.20830224 0.035690933 -0.1851947 0.3556894 0.35740742 -0.43858436 -0.32004112
0.51601124 -0.11207369 -0.2558536 -0.5550758 -0.21288541 0.15708125 -0.15187797 -0.42539895
0.017823135 -0.3360512 -0.43342388 -0.28766116 -0.51423126 -0.36346838 0.59282213 0.1612274
0.11810746 -0.5098949 -0.3547462 -0.14893803 0.15678056 -0.3814693 -0.29492334 -0.36934957
0.069553405 -0.16046406 -0.114520475 -0.39537427 -0.25625852 -0.25204882 -0.24944589 -0.44729683
0.35597882 -0.14336944 0.51997477 0.22153005 -0.3598911 0.37306568 -0.21477374 -0.24907161
-0.48729244 -0.5329624 0.22860897 -0.051394403 0.15494712 -0.4508601 0.40744507 -0.33027115
-0.13574944 0.07784078 0.33301288 0.4569233 0.4429073 -0.4265405 0.108401924 -0.1893055
0.012783484 -0.33602604 0.38027605 -0.4212854 0.33336216 0.21900897 0.0919987 -0.32547784
0.5245368 0.14201 -0.01961434 -0.5020395 0.13842064 -0.122321635 -0.13542375 0.5023208
0.045204934 -0.3270298 -0.18651909 0.032324944 0.27918065 -0.1277669 -0.28528744 -0.17122144
-0.3237217 0.18700083 0.33083338 -0.5059525 0.1909653 0.30444166 0.008784099 -0.23954254
0.33495316 0.31237662 0.11360205 -0.1475795 -0.078246616 0.08575612 -0.13376644 -0.1839136
0.37706807 0.4585522 -0.10917586 -0.15499772 -0.06620114 -0.08017303 0.20922075 0.20877013
-0.5124627 -0.21720158 0.4989551 0.25177932 0.050270773 -0.23850346 -0.38758624 -0.5216833
-0.25607434 0.08159923 0.42886472 0.3306198 -0.52672964 -0.35499975 0.017427193 0.554761
0.07232875 -0.12948537 0.20685762 -0.19044077 -0.29494262 0.37938327 -0.26387975 -0.124242395
-0.49740213 0.33463532 0.37881732 0.1822241 -0.41483626 -0.55078775 -0.32756323 0.43764946
0.2908385 0.45193666 0.3110524 0.18213582 0.06833232 -0.31964317 -0.5076446 -0.5408647
0.2865942 -0.1741315 -0.19466858 -0.3714581 -0.16383189 -0.39970094 -0.23705202 0.23159291
-0.078579895 0.34551066 -0.2323602 -0.42006183 -0.008526294 -0.19680415 -0.23714627 -0.5405946

0.bias f4 [128]
00000000: 5248 683e 9cbd 97be 856f 9ebe 7cd5 d4be
00000010: 4087 e93e ef8d cabe 3af7 bd3e 588f b8bc
00000020: 842e 2bbd a522 a43e ee94 36bc 3f98 b93e
00000030: 913c bd3e 0443 debe f7e6 4d3e 69f9 ee3d
00000040: 5376 d13d ddb2 f23d 7570 073e e78a 29be
00000050: 3cf8 0cbd 0ce4 f13e 0713 b13e 42d4 afbc
00000060: a9c5 cbbe 138a d33c 7a5b abbe 11ce ed3e
00000070: d073 8abe da9d fdbc f936 a7bd 6325 a43d
00000080: 589f 043f b7ca 633d bca0 a43e 54aa d43e
00000090: 5adf ed3e 141f 19be 8135 a0bd ebbc 703e
000000a0: f05f e1bd bf30 8b3e cfa2 92bd f2a1 adbe
000000b0: 2dd0 523e afde da3d 42b3 713e 1aee ff3e
000000c0: e238 aa3e b4d3 003f 4df2 7a3d c3df b4be
000000d0: 6b96 7abe 6d75 79be 7e99 e1be 4514 72be
000000e0: 54aa ebbe 75bb d4be ad8f 82be cdd9 d4be
000000f0: b3ae 5fbe 81cb 663e c90c d23e 3afe dbbd
00000100: a46f e0bd 5a4b 973e 1e8a 4ebe 4c8b 2abe
00000110: 2320 ab3e 909d c3be 8c57 3c3d 5e05 f23e
00000120: eb77 923d cf5e 163e 0419 98be b799 b1bb
00000130: 4900 343d c838 103e 9d0c 893e cb3b db3e
00000140: fa5a 9dbe ebdf 903c d2da 2dbe fcbc d4be
00000150: 00e3 0fbd 78fd b4be 3a4a bc3e e963 c93d
00000160: 170e 5bbe 51f0 a23e cf98 e8be 7b1f 44be
00000170: da7f 41bd d360 e0be 7656 8fbe 2008 25bd
00000180: 8055 ca3e 395d 003f 005a 9c3e 17de a6be
00000190: 1b4e 9bbe 4d12 de3e cf37 343e 2124 003d
000001a0: 3bc8 833d c6ae acbe fb2f 09be f5bf 023f
000001b0: 4870 7abd 9beb 083d 54d4 aabe b1f7 63be
000001c0: 4e46 2bbc 4e04 9fbe be37 cabd 83c2 463e
000001d0: d469 fabe 97a3 333e 5acd 84be b09a 4fbe
000001e0: 1f35 393e 86e4 d73e dc76 d3bd 1c36 52be
000001f0: 402d dbbe 5960 42be 70d5 b6be 2997 a6bd
0.22683838 -0.29636848 -0.30944458 -0.41569126 0.45611 -0.39561412 0.3710268 -0.02252929
-0.041792408 0.32057682 -0.011143906 0.36248967 0.3696027 -0.43410504 0.20107637 0.11668665
0.10227647 0.11850522 0.13226493 -0.16556893 -0.034416422 0.47244298 0.3458483 -0.021463517
-0.3979924 0.025822675 -0.3346823 0.4644628 -0.27041483 -0.030959059 -0.08164782 0.080149435
0.5180564 0.055613246 0.3215388 0.415362 0.46459466 -0.14953262 -0.07822705 0.23509566
-0.11004627 0.27185628 -0.071599595 -0.33912617 0.20587225 0.10687005 0.23603538 0.49986345
0.33246523 0.50323033 0.061266232 -0.35326967 -0.24471442 -0.243612 -0.44062418 -0.23640545
-0.46028388 -0.41549268 -0.2550024 -0.4157242 -0.21843986 0.22538568 0.4102538 -0.10741849
-0.10958794 0.29549676 -0.20169875 -0.166547 0.33422956 -0.38206148 0.04598193 0.4726972
0.07151779 0.14684604 -0.29706585 -0.0054199356 0.043945584 0.1408416 0.26767436 0.42819056
-0.30733472 0.017684897 -0.16978005 -0.41550434 -0.035128593 -0.3534963 0.3677538 0.098335095
-0.21392094 0.31823972 -0.45429084 -0.19152634 -0.04724107 -0.4382387 -0.27995652 -0.04029095
0.39518356 0.50142246 0.30537415 -0.32591316 -0.30333027 0.43373337 0.17599414 0.031284455
0.06434675 -0.33727092 -0.1339721 0.51074153 -0.061142236 0.033427816 -0.33365119 -0.22262456
-0.010453774 -0.31057972 -0.09873913 0.19410138 -0.48908865 0.17542873 -0.2593792 -0.20273852
0.1808667 0.42166537 -0.10325405 -0.20528454 -0.4280796 -0.18982066 -0.35709715 -0.081343

2.weight f4 [128, 128]
00000000: 81bf 3b3d eab6 03bd 055b 043e c623 633d
00000010: 6715 86bd ac92 5f3c 468b 6e3d 7c74 403c
00000020: bf45 893c 2237 8ebd 384a f33d bfc4 ecbb
00000030: f0f1 a73d 60e0 ba3b 7916 17bc dd23 f33d
00000040: 74b8 24bd 4243 153b dc6d 1dbd b3b7 053e
00000050: d00f d33b e215 053c 0324 9abd 25d7 1d3d
00000060: d247 ee3c a4cd c13a 6429 d33c 097f 493d
00000070: 7bb9 b63c 7e08 8dbd 9890 02bc 1a15 2f3d
00000080: 21c0 013e 523e 083d f735 5ebc c1f8 df3d
00000090: 3438 b53c 57f6 52bd bdb5 98bd bd23 56bd
000000a0: 6262 323d 5684 593d 06b0 8fbb 38e1 de3c
000000b0: 7ec6 36bd 9850 373d bd6c e5bd ed6b 3dbc
000000c0: 1cfc f9bd fea8 b03b 6790 a93d aa4b 9a3d
000000d0: ccf8 873d 77a2 0f3e d4aa 8d3c a511 283d
000000e0: c91d 913d 8baf ff3d 43dc aebd 73a7 943d
000000f0: de54 433d 9712 903b 5673 8dbd 5c1d 8ebd
00000100: d4c9 933d b2de ecbc 4ae9 143d 44db 143d
00000110: b167 c3bd 3adb 1d3c 0327 c33b 9e90 a93d
00000120: b37e 093d 1cbb 28bd 8f56 953d 4ad2 9e3d
00000130: f9e1 503c 88ee 06bd 3c6b 963c f04d 2fbd
00000140: b87c 203d b871 333d aaa1 cc3d e383 893d
00000150: c321 5fbd e6de 9d3c e620 ac3d feca bdbc
00000160: a497 afbd ade5 d3bb 348b 7a3d 7571 b4bd
00000170: ccf8 95bc 72d0 4a3d 338f 193d 9080 f53d
00000180: a717 d1bd 20e6 5ebd 3e9a 013c 4d2d 7a3d
00000190: 2e9f 583d 3594 403d f795 433c 7679 423d
000001a0: b4fe 68bd 5907 413c bd32 433d 1485 ccbc
000001b0: 2d32 e3bc 926c f93d c62e e0bb f0d2 933d
000001c0: ce21 0ebd c0e1 9fba e493 943d 4044 a3bd
000001d0: 002c 363a 4341 6a3d d463 4abc f8d5 0e3e
000001e0: 6315 50bc 8428 d23c 90be 72bd fcec 6bbd
000001f0: bca0 b1bd 1574 d43d 5c5e c03c c97e a2bd
00000200: 5ed4 edbd e9e9 b23d 4662 0a3d 1e44 113d
00000210: 7430 82bd 62b7 1ebd 48b1 3dbc 5584 0b3c
00000220: a22c b6bd 90ed fa3b 18dc 8e3b d1b4 7dbd
00000230: 9952 8a3c 877e 0fbd 0952 fa3c 553e d33c
00000240: c497 15bd 6164 eebd b06e 803d 14b8 ac3c
00000250: 7fd1 80bd 083c b43d 6127 2bbd c212 9c3d
00000260: 5643 b13d 117d 74bd 9911 3b3d c44b 16be
00000270: 6fd5 9dbd 8699 6e3c b2f8 f2bc 93b0 ce3d
00000280: 2e79 82bd f603 3a3d e78b debd f9d6 4a3d
00000290: ce86 e2bd 7a21 b4bd b83c 823d 21bf 483d
000002a0: 16c6 ca3d 69cc fabd e9ee a7bd 9436 8b3c
000002b0: cfae fa3c b6bf 313d 6523 4e3d 40fa b6bc
000002c0: 3fb7 4f3d 0041 e73c a71d f8bc 7376 023e
000002d0: 7ae2 303d 29ab 9f3d b4bc 4dbd 5ad0 eabc
000002e0: e45b d1bc 40eb 923b bf0a 0eba 2eb6 853c
000002f0: 546a 073e 1cfb a8bd 4e09 6e3d 15d2 c23c
00000300: b396 9ebd 2578 62bd 7f28 39bd 4b5b b03d
00000310: 50d2 77bd 84c3 713c 93c2 103d 3506 dcbd
00000320: f9d8 213d f769 b0bd 75ff 85bd 664c 76bd
00000330: 0a92 e2bc c96a bcbd fbb8 85bd 8ef7 afbc
00000340: 1a30 2a3d af52 ce3d 72e5 013d 825f 3bbd
00000350: 9683 84bd c6d0 903d 04bd 69bd 0b51 67ba
00000360: 594c d03d 5dbb 12bd 35da a93d e2cf e53d
00000370: f48a 8c3c 7323 3dbd 93af d43d 2fb7 49bd
00000380: aa10 19bd 955b 973d d5ae 963d 09ac 383d
00000390: 35b5 233d 798b 94bd 0d04 92bb b5d7 c93d
000003a0: 6293 123d f0f9 f73b f40d c23b f3c3 31bd
000003b0: 913c 163d 2ae5 753c 7288 6b3d 2429 80bc
000003c0: 12e8 793d 4c70 153d 0389 ec3c 6921 823d
000003d0: bade 623d 193a f43c cf29 8b3d e824 b9bc
000003e0: 94d9 afbd 0d21 d2bb 2836 a4bc 94db bcbc
000003f0: 9cc1 db3b c038 883b 9f7d cd3d e35f 513d
0.04583693 -0.032156862 0.12925346 0.055454038 -0.06547051 0.013645809 0.05823829 0.011746522
0.01675689 -0.069441095 0.118793905 -0.0072256024 0.08200443 0.005703017 -0.0092216665 0.11872075
-0.04021497 0.0022775684 -0.03843485 0.13058357 0.006441094 0.008122893 -0.075264 0.038535256
0.029086981 0.0014786017 0.025776573 0.049193416 0.02230524 -0.068863854 -0.007969044 0.042744733
0.12670948 0.03326256 -0.013562671 0.10936118 0.022121526 -0.05150446 -0.07456539 -0.052280176
0.043550856 0.05310472 -0.0043849973 0.027207002 -0.04462289 0.044754595 -0.11202381 -0.011561376
-0.12206289 0.005391239 0.08279496 0.07533963 0.06639251 0.14026819 0.017293371 0.041032452
0.07085759 0.12484654 -0.08538105 0.07258501 0.047688358 0.0043967473 -0.06906764 -0.069391936
0.0721623 -0.028914783 0.036355294 0.03634192 -0.09541262 0.009634787 0.0059555783 0.08279537
0.033568095 -0.041194066 0.072919 0.07754953 0.012749189 -0.032942325 0.01836168 -0.042798936
0.03918144 0.043809623 0.099917725 0.067146085 -0.054475557 0.019271325 0.084047124 -0.023168083
-0.08573845 -0.0064665885 0.06116791 -0.08810703 -0.018307112 0.049515195 0.03749008 0.11987412
-0.102095895 -0.054418683 0.007910309 0.06107836 0.05288618 0.04701634 0.01193761 0.047479115
-0.05688353 0.011781537 0.04765581 -0.0249658 -0.027733887 0.12178911 -0.0068415133 0.072179675
-0.034700207 -0.0012198016 0.072547704 -0.07972002 0.00069493055 0.057191145 -0.012352902 0.1394881
-0.0127004115 0.025654085 -0.059263766 -0.057599053 -0.08673236 0.103737034 0.023482494 -0.079343386
-0.116127715 0.08736021 0.033785127 0.035465352 -0.06356898 -0.038749106 -0.011577912 0.008515437
-0.08895232 0.007657714 0.0043597333 -0.061940018 0.016885089 -0.035032775 0.030556696 0.025786558
-0.036521688 -0.116402395 0.06271112 0.021083869 -0.06289958 0.088005126 -0.0417856 0.07620765
0.086554214 -0.059689585 0.04567108 -0.1467734 -0.07706725 0.01456297 -0.029659603 0.100922726
-0.063707694 0.045413934 -0.10866528 0.04952142 -0.11060868 -0.08795448 0.063592374 0.0490104
0.09901063 -0.122460194 -0.08199865 0.016993798 0.030600933 0.04339572 0.050326724 -0.022336125
0.050711866 0.028229237 -0.030287577 0.12740497 0.043184735 0.07796318 -0.05022879 -0.028663803
-0.025556512 0.0044836104 -0.00054184714 0.016322222 0.13224155 -0.0825102 0.058114342 0.023781816
-0.07743587 -0.05529036 -0.045204636 0.08611163 -0.060503304 0.014756087 0.03534181 -0.107433714
0.039513562 -0.08613961 -0.06542865 -0.060131453 -0.027657527 -0.09200055 -0.06529423 -0.021480348
0.04154978 0.100743644 0.031712957 -0.04574538 -0.064704105 0.070710704 -0.057065025 -0.0008824027
0.10170812 -0.035823215 0.08293573 0.11221291 0.017156102 -0.046176385 0.103850506 -0.049246963
-0.037369408 0.07390515 0.07357565 0.04508594 0.039967734 -0.07253165 -0.0044560493 0.09855596
0.035785086 0.0075676367 0.0059220735 -0.043399762 0.036678854 0.01500825 0.05750317 -0.015644617
0.061012335 0.036484048 0.028873926 0.06354029 0.05538819 0.02981286 0.06795084 -0.022600606
-0.085864216 -0.0064126314 -0.020045355 -0.023053922 0.0067064296 0.0041571558 0.10033726 0.051116835

2.bias f4 [128]
00000000: 36ae a53c f17e b4bc eb78 02bd 1890 c63b
00000010: ecf4 a13d 784b c5bd cdf1 09bc 2b2a ef3d
00000020: 2564 893d 53d9 4b3d d8f8 c3bc c283 3fbc
00000030: 4c92 9abd b397 41bc ee9d 333d 6430 b93d
00000040: a7e5 233d ceb0 79bd 8000 4a3d 4bd3 75bd
00000050: 1ab4 b1bd ef5c 3ebd db38 76bd e51d 213c
00000060: d8a1 393d 0b3d 103d 9310 043d 2428 8d3c
00000070: 4ed4 503d bff7 783d ce2c abbd 006c 65bd
00000080: a3a4 95bd db34 8bbd 1322 423d 9006 c53d
00000090: e9ec 2c3d ffe5 d9bc eb1b 243b 1351 b63d
000000a0: 36d5 e93b ac27 a5bd 4102 343b e7fb 123d
000000b0: 469c a93c 7cab e13d 6bcf 4b3d 65af 69bd
000000c0: 90ee 6d3d 4094 5ebd b132 87bd fb6e 373d
000000d0: fe34 af3a 503f 6a3d 3c63 913d 92e2 ddbc
000000e0: 6fe9 953d c7ad 92bd 1d72 063c b1cd 6e3d
000000f0: ac04 3c3d 63e1 9c3d e033 cf3d 4065 05bb
00000100: 8ee2 cc3d 60e3 853d 6b7f 5fbc cda9 cc3d
00000110: d0b3 663c fd7a b03c 3451 653d d207 47bc
00000120: 8a52 77ba 4992 bb3c 919d 09bc 4613 8dbd
00000130: 5ce9 98bd 60df 563d 0b85 26bd b0e7 013d
00000140: 9b7b e43d 69a8 c43d eee9 363d 3195 013d
00000150: 1c19 a53d 7cd3 9fbd 0feb e43d 9cc8 86bd
00000160: aa9a 6abd 9f5b 17bc 79fe ec3d 8a45 a23d
00000170: 097c 863c 6bac 863d 2b12 a7bd e99b bbbd
00000180: d506 543d 4cd4 c8bc 70a8 143d 476e 6ebd
00000190: 49d1 b63d 66ea 9dbd 6859 003d 66ab 9b3d
000001a0: 1bb7 82bd 4d29 a63d eaa3 8f3d ae1b a9bc
000001b0: 9332 43bd 4dac c93d d6b2 633c 6d06 a93b
000001c0: c8af d13c 7f0b 843d e17a 84bd 99da eb3d
000001d0: 4976 6a3d 98b1 af3c c7a3 49bd 7946 8c3d
000001e0: 8b52 00bd 011e bb3d 6f0a 213d d2c4 c03d
000001f0: 180f 743c edbf a03d 52d6 743d 0816 6f3d
0.020224672 -0.022033187 -0.031853598 0.006059658 0.07908043 -0.09633535 -0.008419466 0.11677965
0.06708554 0.049767803 -0.023922369 -0.011689128 -0.07547435 -0.011815953 0.043851785 0.09042433
0.040013935 -0.06095963 0.049316883 -0.060015958 -0.0867693 -0.046475347 -0.060112815 0.009833788
0.04532036 0.035214465 0.03224237 0.017231055 0.05098372 0.060783144 -0.08358155 -0.0560112
-0.073067926 -0.06797191 0.047395777 0.09620392 0.042218123 -0.026598928 0.0025041054 0.089021824
0.0071360124 -0.080642074 0.0027467164 0.035884764 0.0207044 0.11019036 0.049758356 -0.057052035
0.05808884 -0.0543406 -0.066014655 0.044783574 0.0013367233 0.057189286 0.070990056 -0.027085576
0.073199145 -0.07162052 0.008205918 0.05830163 0.045902893 0.076601766 0.10117316 -0.002035454
0.100041494 0.06537509 -0.013641219 0.099933244 0.014080957 0.02154302 0.055985644 -0.012147861
-0.00094346015 0.022896903 -0.008399383 -0.06888442 -0.07466385 0.05245912 -0.040654223 0.031715095
0.11156388 0.09602434 0.044656686 0.03163642 0.0806143 -0.07804009 0.11177646 -0.06581232
-0.057276405 -0.009238153 0.11571974 0.0792342 0.016416566 0.06575855 -0.08157762 -0.09160597
0.051764328 -0.024515294 0.036293447 -0.058210637 0.08926637 -0.077107236 0.031335264 0.07601051
-0.06382581 0.08113346 0.07013686 -0.020643082 -0.047655653 0.09847317 0.013897618 0.0051582367
0.025596514 0.06447505 -0.0646875 0.115163036 0.05724171 0.021446988 -0.049228456 0.06849379
-0.03132872 0.09136582 0.03931659 0.094125405 0.014896177 0.07849107 0.059774704 0.05837062

4.weight f4 [2, 128]
00000000: 9f0d 81bd bec1 efbd f8ad ddbd efd7 aa3b
00000010: 1d5b eebd 5a02 67bd 78e7 d03c 29b9 d6bd
00000020: c0f8 f4bd 82c4 c9bc 8640 1c3d b744 05be
00000030: 5024 393c 15fa 01be f52f 0bbc 8660 1d3e
00000040: 5efc 5d3c 0ca4 a43d 426c 97bd 9b8f ccbd
00000050: 5085 ec3b c527 8d3c 56ca 21bd 03ef 9bbd
00000060: 36a4 b5bd 4291 773c 612b b43c 4953 20bd
00000070: 0d3f 353d 88f5 00be f011 28bc 188b 8c3b
00000080: 0c63 f0bd d9f2 903d dc9e c6bd 73ee 413c
00000090: e8b5 30bd e893 bfbd 72bb 7f3d e0c0 7abd
000000a0: 0954 343c 445c 9a3d c277 aabd 1691 353d
000000b0: 9a12 b2bd bd7a ecbd a074 fb3c a65a acbc
000000c0: 6f5c afbd d251 c5bd 4b5c f33c f534 4c3d
000000d0: 88ea 78bd 9576 b63c 7202 293d 70f1 71bd
000000e0: fdbd e33a 9fe5 803d 2064 c83a ddeb 75bd
000000f0: ccf7 8c3d e744 abbd f059 473e 5e31 373e
00000100: 5757 093e 4173 933c cf14 003c 1067 a33d
00000110: 10ed a5bd b46d abbd 8aff d0bd 8e51 d3bc
00000120: b30e d3bd 8199 91bd 33be febd 28db 65bd
00000130: 93e3 a13c bd0f 3f3d 6434 39bd dbaa dfbd
00000140: 5b3e acbd 7fb8 b2bd 2ec0 1fbe 2377 7d3d
00000150: 3cd6 c13c 3122 3f3d 89a8 d0bd d982 d4bd
00000160: bd83 ad3d 1547 d3bd a46c 05be 10e7 fdbd
00000170: fcd6 a83c b0f3 9fbd 4d62 dabd 9426 7e3d
00000180: d0ac ddbd e1a4 29bd ced3 1b3d b319 b73b
00000190: 244b 8a3d c869 33bc f71c d13c 80be 5bbd
000001a0: 9fcf 8fbb b7c0 d2bd 6ee4 023c 29e3 a4bc
000001b0: abf7 e13b 23e7 66bd fb9c af3d cc51 0abe
000001c0: f13c 5f3d fcf8 8f3d b00b e63c b289 383d
000001d0: 7064 06be 2427 c4bc 83b9 80bd 749d b6bd
000001e0: b7a4 543d 1ee1 76bd 650b a83d 88ad c5bd
000001f0: b2b7 bdbd e8a8 eebd 32b6 ec3c f8ce 6b3d
00000200: 98a8 003b bcc0 e73c eb25 673c 53fd 03be
00000210: 3c79 39bd ac6c 813d 069d 293d d8c9 71bb
00000220: cadb cfbd 6e42 f2bd 0f7b ae3d abcd a2bd
00000230: 3883 f73c b331 a1bd b336 9fbd 7a73 c73d
00000240: 5ab9 9b3d 66a0 acbc 8a47 23bc fc2a e7bc
00000250: 1262 04bb 4b83 b03c b094 f03c c1e3 763d
00000260: 7ffd a4bd 0523 3d3d c489 babc 14cd 0e3d
00000270: b935 d7bd f3fe 073c 5190 983d a421 f53b
00000280: 89a8 68bd ef77 fd3b 6c60 05be 10d9 edbd
00000290: a705 bb3c f502 04be 0c92 16bd 83aa e7bd
000002a0: 6647 95bd f4ed d8bc c9ce f23b 8527 ccbd
000002b0: 49b3 e7bd 4f32 ffbd 94e6 b13b 7da9 7dbc
000002c0: b02f 4b3d d464 10be a9a8 e6bd 2c97 c2bc
000002d0: 742c 093d f4cc ae3d b822 72bc c2ad 80bc
000002e0: c67b 86bb f2a9 92bb d92e 873b 769e c1bd
000002f0: 93d3 89bb b15f 32bd b920 183e f52c 31bb
00000300: e266 ba3b b3f7 543d e2b5 413d 48e8 af3d
00000310: b89d afbc 7446 11bd 32f4 b6bd 8887 753d
00000320: 9907 30bb e25b 08be 155a b1bc 73b3 b13d
00000330: 8f5a 0c3d 0c6f f1bd 9356 3b3d fee5 65bd
00000340: c9e0 8cbd f560 0f3b ea9d 6039 3e55 2c3d
00000350: 5ac8 dcbd 36ec 093d 0be4 c9bd 3893 0cbe
00000360: 6d90 33bd c33f 833c 73bc ed3c bbe7 0bbd
00000370: 55e8 433d 19e4 07be 4059 c7bd 3186 8ebd
00000380: b96e f7bd 5659 d3bd efe8 69bd 6b29 00be
00000390: aee0 8d3d 87bf 28bd f996 76bc 8710 8ebd
000003a0: 5e6e 993c 8595 07be 22ff f8bd 4bcc f9bd
000003b0: edb7 973d 5a79 6cbd f767 cbbd 259d adbd
000003c0: 11f1 8bbc ba17 dbbd c331 a83d ba20 1c3e
000003d0: 726c 0dbd dd81 06bc aa92 523d 9e3d 0ebd
000003e0: 5521 603c 59bf 3fbd 5b42 91bd fd85 39bc
000003f0: 6b52 02bd 9110 913b 1953 023d 76b7 253e
-0.06301426 -0.11706875 -0.108241975 0.0052137296 -0.11638472 -0.056398727 0.025500998 -0.10484535
-0.11961508 -0.024629835 0.03814747 -0.13014494 0.0113001615 -0.12693055 -0.008495321 0.15368852
0.013548939 0.08039102 -0.073936954 -0.09988328 0.0072180405 0.017230878 -0.039499603 -0.07613947
-0.088692114 0.015110316 0.02199334 -0.039141927 0.044249583 -0.12593663 -0.010258183 0.004289042
-0.11737642 0.070775695 -0.09698269 0.011836636 -0.04314223 -0.09354383 0.06243462 -0.061219096
0.011006364 0.075371295 -0.08323623 0.044327818 -0.08694954 -0.11546848 0.03069526 -0.021039318
-0.08562552 -0.096347466 0.029707095 0.04985519 -0.06077054 0.022273341 0.041262098 -0.059068143
0.0017375347 0.06293797 0.0015288629 -0.06003939 0.06883201 -0.083627515 0.19467902 0.17889926
0.13412224 0.017999293 0.007817461 0.07978642 -0.08101857 -0.083705336 -0.1020499 -0.025795724
-0.10305538 -0.07109357 -0.12438621 -0.056117207 0.019761836 0.04664587 -0.04521598 -0.1092126
-0.08410331 -0.08726596 -0.15600654 0.061881196 0.023661725 0.046663467 -0.101883955 -0.1037652
0.08472393 -0.10316292 -0.13029724 -0.12397587 0.020610325 -0.078101516 -0.10663281 0.06204851
-0.10823977 -0.041417006 0.03804379 0.0055877804 0.06752613 -0.010950513 0.025526507 -0.05364847
-0.004388764 -0.10290664 0.007989032 -0.02012785 0.0068959794 -0.056372773 0.085748635 -0.13507766
0.054501478 0.07029912 0.028081745 0.04505319 -0.13124251 -0.023944445 -0.062853836 -0.089167506
0.051914897 -0.060273282 0.08205298 -0.09652239 -0.09263553 -0.1165331 0.028895471 0.057570428
0.001963174 0.028290145 0.014108161 -0.12889604 -0.045281634 0.06319556 0.041409515 -0.003689399
-0.10149343 -0.11829077 0.08519565 -0.07949384 0.030213937 -0.078708075 -0.07774105 0.09738822
0.076037124 -0.021072578 -0.009965787 -0.028218739 -0.0020200056 0.02154698 0.029367775 0.060275797
-0.08056163 0.046175975 -0.02277077 0.034863546 -0.10508294 0.008300531 0.07449401 0.007480817
-0.056801353 0.0077352445 -0.13025063 -0.11613667 0.022829844 -0.12891753 -0.036760375 -0.113118194
-0.07289009 -0.026480652 0.0074099046 -0.09968475 -0.11313493 -0.124607675 0.0054290984 -0.015482304
0.049606025 -0.14100963 -0.11262638 -0.023753725 0.03348966 0.085351855 -0.014778785 -0.015707854
-0.0041041104 -0.0044758255 0.0041254577 -0.09454052 -0.00420613 -0.04354829 0.14856233 -0.0027034853
0.005688534 0.051994037 0.047292598 0.08589226 -0.02143751 -0.03546758 -0.08933295 0.059943706
-0.0026859997 -0.133163 -0.0216494 0.08676805 0.03426605 -0.11788759 0.04573686 -0.05612754
-0.06878812 0.002187786 0.00021421132 0.04207348 -0.107804015 0.033672534 -0.09857949 -0.13728034
-0.043838907 0.016021615 0.029020524 -0.034156542 0.04782899 -0.13270606 -0.0973382 -0.06959189
-0.120816655 -0.10319774 -0.05710691 -0.125158 0.0692762 -0.04119828 -0.015050643 -0.06936746
0.018729385 -0.13240631 -0.12158038 -0.12197169 0.07408128 -0.057732917 -0.09931939 -0.084772386
-0.017082723 -0.10697885 0.08212616 0.15246859 -0.03452725 -0.008209673 0.0514094 -0.03472673
0.013679822 -0.046813343 -0.070927344 -0.011323449 -0.03181688 0.0044270237 0.03181753 0.16183266

4.bias f4 [2]
00000000: 1c66 a0bd c998 c5bc
-0.07831976 -0.024120705
