checkpoints/dqn/20251120-2008/ckpt_ep350.pth (torch, 72697 bytes, 6 tensors)

0.weight f4 [128, 4]
000000 d9 a5 a3 3e c2 8f f1 3e a7 5d c0 3d 9a 46 11 3f
       0.3196247 0.4717999 0.09392863 0.56748354
000010 d6 71 6a be 27 8c 91 3c b3 1d b5 bc d0 bd f0 3e
       -0.22894987 0.017767025 -0.022108888 0.47019815
000020 05 02 e8 3e 86 32 b2 be 4d 69 fc 3e c5 d8 ea 3d
       0.4531404 -0.3480417 0.49299088 0.11467127
000030 94 22 bd 3e 50 ae 8a 3d 5c e1 76 3e 60 94 90 bd
       0.36940444 0.06771529 0.24109405 -0.0705955
000040 11 40 93 3e 55 25 24 bc 95 eb 8d be f2 5f 00 3e
       0.28759816 -0.010018666 -0.27718797 0.125366
000050 73 eb a7 be a0 22 07 be ad bb 82 bd ec 4f e6 3e
       -0.3279682 -0.13196802 -0.063834526 0.4498285
000060 89 4c b8 be 09 4d af be 47 02 93 be 06 99 a1 be
       -0.35995892 -0.3423846 -0.28712675 -0.3156206
000070 cc b1 b1 3d e8 d8 09 bf 9a 7d 6f 3e c3 b9 0d bf
       0.0867649 -0.538466 0.23387757 -0.55361575
000080 83 ec ba 3e 1c 15 66 3e d6 dc f1 3c 54 3a cb 3e
       0.3650857 0.2246899 0.029524248 0.39692938
000090 d4 9c 8b 3c b0 ad 69 3e 5a 8d 90 bd b3 78 32 be
       0.017042555 0.22820163 -0.07058211 -0.17428856
0000a0 e1 f3 87 3d eb e0 8d bd 02 10 d7 3e b0 fe 11 3f
       0.06638313 -0.06927665 0.420044 0.5702925
0000b0 ee 3e 45 3e f9 77 7b be 23 81 e1 3e 61 ca 41 3e
       0.19262287 -0.24557485 0.44043836 0.18924858
0000c0 b3 12 82 3e c1 60 be be 94 86 20 bf 8a 38 6f be
       0.2540489 -0.37183192 -0.6270535 -0.23361412
0000d0 0d 65 b4 be 37 74 e4 3e 1a 04 3a 3e 62 ee 5a 3e
       -0.35233346 0.44619915 0.18165627 0.21379998
0000e0 3c 19 f9 3d 79 48 c7 bd 94 8d 84 3e 12 69 c1 be
       0.12163016 -0.0973062 0.25889266 -0.37775475
0000f0 b0 3b 83 bd e1 b4 d6 be 6e 84 78 3e 51 2b a3 bd
       -0.06407869 -0.41934875 0.24269268 -0.07967246
000100 97 ba 0d 3e 29 81 3c be 45 44 9d 3e b1 e0 a2 be
       0.1384071 -0.18408646 0.30716148 -0.3181205
000110 9a 95 b8 be 18 1b 9d be 5a b2 1b 3f 32 36 82 3e
       -0.36051637 -0.30684733 0.6081902 0.25431973
000120 d3 54 1b 3f f9 09 c7 be a2 3d 29 bf 73 da fd be
       0.60676306 -0.38874796 -0.6610967 -0.49580726
000130 7d d5 c8 be 6d 15 6a 3e e5 a4 cf 3e 28 3e 15 3f
       -0.3922538 0.22859736 0.40555492 0.5829797
000140 70 a2 6a be 10 83 b1 be 45 bd 85 3e 97 bb 4f be
       -0.22913527 -0.34670305 0.26120964 -0.20286404
000150 f3 7b 8f 3e 77 a3 50 be e6 a3 00 3e ed 40 df be
       0.28024253 -0.20374857 0.12562522 -0.43604222
000160 09 ad 6d be b3 e6 00 3e ec 02 bc bc 59 2a 35 be
       -0.23210539 0.12588005 -0.022950612 -0.17691936
000170 e8 3f c2 3e f8 7b 8d 3e d4 62 0b bf 1c 37 bd be
       0.37939382 0.27633643 -0.54447675 -0.36956108
000180 f9 06 0b 3f d5 ab 60 be bd 80 e7 be 83 a5 30 bf
       0.54307514 -0.21940549 -0.45215407 -0.6900255
000190 af 83 25 be 10 98 df 3d 4c 72 7a be e6 26 ea be
       -0.16163515 0.109176755 -0.24457663 -0.45732802
0001a0 6a dc 3e bd a9 28 e2 be 55 95 31 bf aa 0c 03 bf
       -0.046596922 -0.44171646 -0.6936849 -0.511912
0001b0 b3 f9 06 bf 4d 94 a7 be 1f 83 2b 3f 81 52 50 3e
       -0.5272476 -0.32730332 0.6699695 0.20343973
0001c0 28 1d 18 3e 1e b4 15 bf 25 a9 b4 be 8c 74 8c bd
       0.14854872 -0.5847796 -0.35285297 -0.06858167
0001d0 ee 70 3b 3e 85 34 d7 be d3 d0 de be 0c 4b f4 be
       0.18304798 -0.42032257 -0.43518695 -0.47713506
0001e0 ae 61 b4 3d bf 8f 71 be 47 56 88 be f1 ea f9 be
       0.088076934 -0.23589991 -0.26628324 -0.4881206
0001f0 34 fd 63 be c8 f9 9f be 32 5b ac be 19 e7 f4 be
       -0.22264558 -0.31245255 -0.33663327 -0.47832564
000200 60 9a 9c 3e 04 e2 f9 bd 73 d5 15 3f f0 d8 7c 3e
       0.3058653 -0.12201312 0.5852882 0.2469213
000210 7e 29 cb be 14 f2 a3 3e e2 f7 75 be 14 e7 80 be
       -0.39680094 0.32020628 -0.24020341 -0.251763
000220 0f 39 fe be 57 3c 04 bf 89 0f 90 3e 95 d1 5f bc
       -0.49652907 -0.5165457 0.28136852 -0.013660808
000230 f1 7a dd 3d 8a 24 03 bf 58 e8 c4 3e 84 f4 9e be
       0.10814465 -0.5122763 0.38458514 -0.31045926
000240 77 00 2c be 2a e6 f5 3d 97 af cc 3e 93 fc ef 3e
       -0.16797052 0.12006791 0.39977714 0.46872386
000250 57 8d da 3e bd 77 19 bf 0f de 92 3d b0 ec a8 bd
       0.4268596 -0.5994833 0.071712606 -0.082482696
000260 25 c8 58 3c 2a 10 de be 61 7b 4f 3e a9 9f 02 bf
       0.013231312 -0.43371707 0.20261909 -0.5102487
000270 ff 20 74 3e 98 2a c3 3d 1a 4f f1 3c 99 d6 a4 be
       0.23840712 0.095296085 0.029456664 -0.32194975
000280 06 cc 0c 3f ed d6 64 3d ae ec 09 be 9b f0 0e bf
       0.54998815 0.05586903 -0.13469192 -0.55835885
000290 23 61 ec 3d d8 46 bc bd 5c 8e 8f bd c3 8b 04 3f
       0.11541965 -0.091932 -0.07009575 0.5177576
0002a0 80 c0 79 3d ac 87 ab be a1 47 0d be 32 71 80 3d
       0.060974598 -0.33501947 -0.13796856 0.0627159
0002b0 c4 f0 8e 3e 54 d5 02 be 32 11 92 be ac 54 2f be
       0.27918065 -0.1277669 -0.28528744 -0.17122144
0002c0 db c8 c4 be 13 46 a8 3d 19 f9 87 3e 4e d6 fc be
       -0.3843449 0.082164906 0.26557234 -0.49382252
0002d0 cb 4e 18 3e 49 b4 7d 3e aa 01 ff bc c6 20 79 be
       0.14873807 0.24775805 -0.031128723 -0.24328908
0002e0 17 b0 5b 3e 1a 7c 57 3e 8d 7b 98 3d 54 c2 0f be
       0.21453892 0.21043435 0.074454404 -0.14038974
0002f0 46 91 02 be 4c 7a 72 3b 8f 30 48 be 2d 1f 38 be
       -0.1275073 0.0036999164 -0.19549774 -0.17980643
000300 da 00 7d 3e 1d b8 ae 3e 38 e7 25 be 65 bb 1f be
       0.24707356 0.34124842 -0.16201484 -0.15598829
000310 b0 36 b8 bd 10 6a 55 bd 57 8a 90 3e 39 29 85 3e
       -0.08994806 -0.052103102 0.28230545 0.26008013
000320 68 3c fe be bd 4d 3d be e7 0d 11 3f b8 3c 93 3e
       -0.4965546 -0.18486686 0.5666184 0.28757262
000330 a1 69 34 3d 6e 09 99 be 49 90 15 bf b7 a2 29 bf
       0.044046048 -0.29890007 -0.58423287 -0.6626391
000340 52 49 8a be f6 62 0f 3e 4a 57 15 3f 73 ff e8 3e
       -0.27009064 0.14002594 0.5833632 0.45507392
000350 5d 4c 00 bf f5 90 8d be b6 4e c0 3d c6 fe 16 3f
       -0.5011652 -0.27649656 0.09390013 0.58982503
000360 18 21 94 3d d0 97 04 be 7c d2 53 3e e8 02 43 be
       0.07232875 -0.12948537 0.20685762 -0.19044077
000370 cc c8 75 be 91 c4 bf 3e 4a 4e a3 be b5 51 0a be
       -0.24002379 0.37454656 -0.31895667 -0.13507731
000380 52 1c eb be fa 02 b8 3e c9 37 cd 3e 7d ff 60 3e
       -0.45920044 0.3593977 0.40081623 0.21972461
000390 c2 b9 c9 be 02 da 0d bf 64 c0 9f be 84 ab e3 3e
       -0.39399534 -0.5541078 -0.3120147 0.44466794
0003a0 44 74 af 3e 9a 16 20 3f f4 2d 06 3f 4a c2 b8 3e
       0.3426839 0.6253449 0.5241387 0.3608573
0003b0 e6 f4 83 3d f2 d4 c0 be b7 bd 38 bf dc fd 36 bf
       0.06443195 -0.37662464 -0.7216448 -0.7148111
0003c0 62 03 a4 3e 68 02 74 be 0c 8b c5 be 6b 03 fd be
       0.3203383 -0.23829043 -0.38582647 -0.4941667
0003d0 54 6a 3b be 6f 5e cb be ac 0b 3c be b8 46 8b 3e
       -0.1830228 -0.39720485 -0.18363827 0.27202392
0003e0 88 ca 09 be 60 89 6e 3e 18 64 9f be 67 dc d5 be
       -0.13456166 0.23294592 -0.31131053 -0.41769716
0003f0 78 47 64 3c 09 e8 83 be b9 cc c1 be 43 4a 1e bf
       0.013933055 -0.25762966 -0.37851503 -0.61832064

0.bias f4 [128]
000000 d0 a4 48 3e 2e 9f 5d be e6 d8 9e be 7c d5 d4 be
       0.19594121 -0.21642753 -0.31024855 -0.41569126
000010 f8 0a 13 3f 3f ef cc be aa 94 09 3f 5b b5 83 bd
       0.5743861 -0.4002628 0.5374247 -0.06431075
000020 a1 c1 00 bd 8e 1f fb 3e aa 47 1d bd 3f 37 f3 3e
       -0.03143466 0.49047512 -0.038398422 0.47503087
000030 33 69 fc 3e 29 3b eb be 4c 1d a8 3e 97 12 5d 3e
       0.4929901 -0.45943573 0.32834852 0.21589123
000040 4c c1 39 3e 0e e4 c0 3d 61 e9 d5 3d 58 34 03 be
       0.18140143 0.09418498 0.10444904 -0.12812936
000050 ee a4 84 bd 2f 2b 0f 3f 76 60 fb 3e 3a d0 8d bc
       -0.0647677 0.5592527 0.4909703 -0.017311204
000060 eb 1e 75 be 8d 01 2e bc 3d 01 1c be e5 45 09 3f
       -0.23937576 -0.010620487 -0.15234847 0.53622276
000070 16 ad 43 be 66 61 98 bd c3 06 b6 bd d1 da f1 3c
       -0.19108996 -0.07440452 -0.088880084 0.029523285
000080 aa 68 20 3f 1d 50 80 3d fb d8 e0 3e b2 2e 05 3f
       0.62659705 0.062652804 0.43915543 0.52024376
000090 1e b5 0f 3f 66 9a e9 3c fa 67 99 bd f7 7d 93 3e
       0.5613574 0.028516006 -0.07490535 0.2880704
0000a0 7d db c5 bd 02 d6 93 3e 8b 97 07 bd f2 a1 ad be
       -0.09661005 0.28874213 -0.033103507 -0.33912617
0000b0 d7 35 b3 3e c0 26 16 3e 57 1f b0 3e 78 cf 26 3f
       0.35002014 0.1466322 0.3439891 0.6516032
0000c0 dc 8e ed 3e f7 bc 20 3f 5e 68 34 3d be 46 6b be
       0.46398056 0.6278834 0.044044845 -0.22976205
0000d0 50 5a 0d be ba ca 8a be 7e 99 e1 be 6c 0c 92 be
       -0.13803983 -0.27107793 -0.44062418 -0.28525102
0000e0 db 13 00 bf 44 92 db be f7 48 a9 bd 19 b2 8b be
       -0.500303 -0.4288503 -0.0826587 -0.27284315
0000f0 a6 a8 ed bd 71 28 8f 3e e1 9c 0c 3f e8 34 e6 bd
       -0.11604433 0.27960542 0.5492688 -0.1124056
000100 ab 5a d5 bd 31 23 dd 3e e9 34 39 be 19 28 04 be
       -0.10417684 0.4319091 -0.1808659 -0.12905921
000110 f5 46 e7 3e 7b 7a b6 be 7e bf 00 bc fc 75 02 3f
       0.45171323 -0.3564032 -0.007858155 0.5096128
000120 0a 93 7f 3d 60 ae 61 3e a5 6f a4 be 08 5d 1c bd
       0.062396087 0.22039175 -0.32116428 -0.03817466
000130 5d 3e 13 3e 90 ca 4d 3d c2 9c c3 3e a6 f2 10 3f
       0.14379258 0.050242007 0.38205534 0.5662025
000140 de 44 8b be 5e 7b 41 bd d4 60 22 be d7 e7 93 be
       -0.2720098 -0.047236793 -0.1585725 -0.28887817
000150 6d 45 81 bc 3e 32 71 be 44 87 fa 3e 7e 88 04 3d
       -0.015780175 -0.23554322 0.48931324 0.03235673
000160 c3 2e 2d be 33 90 c0 3e 91 82 83 be b4 3e fc bd
       -0.1691237 0.37610015 -0.25685552 -0.12316647
000170 a2 13 a4 bd 13 70 ce be ad 0e 80 be ec 89 8f bd
       -0.08011557 -0.4031988 -0.25011197 -0.070087284
000180 15 21 f6 3e cf bd 20 3f 71 7c b7 3e a3 c0 a6 be
       0.48072115 0.62789625 0.3583713 -0.32568845
000190 d6 0b 99 be 3a 26 11 3f bc 21 99 3e c3 79 c2 3c
       -0.29891843 0.56698954 0.2990855 0.023739701
0001a0 82 f9 0a 3d 78 c1 a6 be 55 bf d5 bd 6a 2b 20 3f
       0.033929355 -0.3256948 -0.10436884 0.62566245
0001b0 fb 9d 18 bd 41 8d 55 3c 2b f6 2d be a8 a8 68 be
       -0.037260037 0.013034166 -0.16988437 -0.22720587
0001c0 7f 28 78 bd 61 64 87 be e1 f5 f7 bd 50 bd 84 3e
       -0.060585495 -0.2644377 -0.121074446 0.25925684
0001d0 d4 69 fa be d4 86 df 3d 89 0f 6c be 4b 6c 7d be
       -0.48908865 0.10914388 -0.23052801 -0.24748342
0001e0 46 a9 af 3e e1 23 0e 3f 8b 35 da bc 1c 36 52 be
       0.34308833 0.55523497 -0.02663686 -0.20528454
0001f0 d3 dd d9 be 57 68 52 be cc 3f 97 be b7 17 af bd
       -0.4255205 -0.20547615 -0.2954086 -0.08549445

2.weight f4 [128, 128]
000000 92 6c 9b 3d 78 ff c7 bc 48 0d 07 3e c6 23 63 3d
       0.075890675 -0.02441381 0.1318866 0.055454038
000010 d3 2e 89 bd f8 f1 d2 3a 29 19 12 bd 3c b0 44 bd
       -0.06698384 0.0016093841 -0.035668526 -0.048019633
000020 c0 68 2e 3d 5b f3 33 bd ce 5b 05 3e f7 4e 97 bc
       0.042580366 -0.043933254 0.13023302 -0.01847027
000030 25 1f 08 bc 57 73 69 3d 02 98 32 bd 20 da 41 3d
       -0.008308207 0.056994762 -0.043601997 0.04732716
000040 1c 53 ab bd c3 4e 9c bc 93 e2 9b bd 94 40 25 3e
       -0.08365461 -0.019080525 -0.07611575 0.16137916
000050 e6 ea 90 bd d8 cd 0c bd 43 ce cc bd 0d 52 81 3d
       -0.07076053 -0.034375995 -0.10000279 0.06314478
000060 82 a0 a5 3d bc e9 0c bd 88 a2 72 3c 94 b5 bc 3c
       0.08087255 -0.034402594 0.014809258 0.023035802
000070 03 17 51 bd 2f 03 f5 bd 33 c5 1e bd 99 f4 e6 bc
       -0.051047336 -0.11963498 -0.038762283 -0.028192805
000080 ba a0 03 3e e5 79 fa 3b 72 ca 84 bd 9a c0 36 3d
       0.12854281 0.0076439255 -0.06483926 0.044617273
000090 36 b0 d1 3c 75 2f 26 be 96 15 01 be 83 78 26 bd
       0.02559672 -0.16229041 -0.1260589 -0.040642273
0000a0 46 69 9e 3d e2 26 5a 3d 4a 2b 78 bd 38 e1 de 3c
       0.07734923 0.053259738 -0.06058816 0.027207002
0000b0 96 ad d2 bd 6d 71 a6 3d 9c 44 9b bd 37 c0 50 bd
       -0.10287015 0.08127103 -0.075814456 -0.05096456
0000c0 4f 08 b9 bd 06 59 be bb 0d 53 88 3d da 2e 92 3d
       -0.09034788 -0.0058089523 0.06656466 0.071378425
0000d0 62 8e fc 3d 03 22 f9 3d d4 aa 8d 3c a0 b1 29 3d
       0.12331845 0.1216469 0.017293371 0.041429162
0000e0 8b 30 c3 3d 0f 6c c2 3d 20 52 99 bc ee d2 8f 3d
       0.09530743 0.09493267 -0.018715918 0.070226535
0000f0 36 4c a6 3d e0 00 04 bd 77 78 cb bd da 0e d3 bd
       0.08120005 -0.032227397 -0.09935086 -0.10305567
000100 5e f6 90 3d ea 48 9b bd ce f2 d1 3d 6f 7a 68 bb
       0.07078241 -0.07582267 0.102513894 -0.0035473367
000110 06 8a 63 bd 07 92 cc bc f9 a6 76 bd d8 b7 80 3d
       -0.05555155 -0.024971975 -0.06021783 0.062850654
000120 fb 83 11 3d a3 f8 00 be 5a ce 7c 3c 24 ba 68 3d
       0.035526257 -0.12594847 0.015430057 0.056818143
000130 2f 76 a9 3d 1e 9d 19 bc 4b 57 df 3c fb 9e 45 bc
       0.08274495 -0.009375839 0.027263304 -0.01206183
000140 70 ab c1 3c 47 50 75 bc 90 24 93 3d f0 e8 c3 3c
       0.023641318 -0.014972753 0.07184708 0.023914784
000150 8d ac ec bc dd 06 2d 3d d2 b4 0c 3d 17 db 47 bc
       -0.028890872 0.042242873 0.03435213 -0.012198231
000160 f5 c9 90 bd 76 45 a0 bb aa 08 8d bd fd 8f 70 bd
       -0.0706977 -0.004891093 -0.06886418 -0.058731068
000170 87 b5 6a bc 42 71 13 3c cb 06 3c 3d ed 36 f6 3d
       -0.014325506 0.008999171 0.045904916 0.12022195
000180 38 92 b5 bd 3a 67 d0 bd 9a 7c da 3c 62 f8 09 3a
       -0.0886578 -0.10175939 0.026670743 0.0005263147
000190 d0 54 6d 3d 35 5f 17 bd 7f 25 69 bd d5 1e b3 3d
       0.05794221 -0.03695603 -0.056920525 0.08746115
0001a0 9b 51 a1 bd 04 cc b7 39 36 dd a6 3d f9 3c 27 bd
       -0.07876893 0.00035056483 0.081476614 -0.040829632
0001b0 e8 a4 c0 3c 94 15 d8 3d 10 c7 c4 3d 99 2d 8d 3d
       0.023516133 0.10550991 0.09608281 0.06893463
0001c0 4d 99 54 bd d6 51 43 bd a3 c0 b9 3d c1 81 ea bd
       -0.05190401 -0.047685467 0.09069946 -0.1145053
0001d0 00 2c 36 3a ef 2b d4 3d b0 47 34 bc 44 f6 cc 3d
       0.00069493055 0.10359942 -0.01100342 0.10007909
0001e0 e0 26 41 bd 71 e8 82 bc 0c 69 30 bc fc ec 6b bd
       -0.047156215 -0.015979977 -0.010767233 -0.057599053
0001f0 1e 79 94 bd 4a 05 c7 3d 03 2d 09 3d 96 b8 d8 bd
       -0.07249664 0.09717806 0.033490192 -0.10582082
000200 40 b0 0a be e9 e9 b2 3d 46 62 0a 3d 1e 44 11 3d
       -0.13543797 0.08736021 0.033785127 0.035465352
000210 ee 84 0d bd 38 45 6e bd 93 d1 04 3d 9e 0c a4 3d
       -0.0345506 -0.05817148 0.032426428 0.08010219
000220 fd b9 b6 bd 86 56 00 3d 19 a7 8d 3b 74 c4 37 bd
       -0.08922193 0.031332515 0.004322898 -0.044865087
000230 49 fa 8b 3d 87 7e 0f bd d6 34 80 3d 6c 65 c6 3d
       0.068348475 -0.035032775 0.06260078 0.096873134
000240 d0 8a 0a ba ca db 1b be 3c 34 fa 3d ce 5c 9f 3c
       -0.0005284967 -0.15220562 0.12216994 0.019453432
000250 01 41 cc bb c1 1c fa 3d fa a6 84 bc d0 ad d8 3d
       -0.006233335 0.122125156 -0.016192902 0.10580027
000260 2b d5 35 3e 02 7d f0 bc 3e f7 56 3e f0 a0 0d be
       0.17757098 -0.029356483 0.20992753 -0.13830924
000270 21 fd 01 bd b3 68 cf 3d a4 b9 0a 3d c6 ae 1b 3e
       -0.031735543 0.10127392 0.033868447 0.1520339
000280 57 fa 6c bd 62 4f 89 3d df 10 5b bd 27 e2 ba 3d
       -0.05785593 0.06704594 -0.053482886 0.091251664
000290 68 1c 0f be 5d 3b b9 3c e0 4e 1a 3e eb 01 9e 3d
       -0.1397568 0.022611314 0.15069151 0.077152096
0002a0 0d 47 08 3e db 5e de bd 83 5a e8 bc 94 36 8b 3c
       0.13308354 -0.10857936 -0.028363472 0.016993798
0002b0 eb 80 6c 3d a8 41 88 3d 85 fe 90 3d 8a 87 0f 3c
       0.057740133 0.06653148 0.07079796 0.008760342
0002c0 14 f9 95 3d b4 e8 21 3d 9f 99 05 be ef 69 7f 3e
       0.073228985 0.039528564 -0.13046883 0.24942754
0002d0 7a e2 30 3d 0e 8b f8 3b b4 bc 4d bd 85 47 07 bd
       0.043184735 0.007584936 -0.05022879 -0.03302719
0002e0 e4 5b d1 bc 82 2a 8f bd 29 31 88 bc 3f e2 28 3e
       -0.025556512 -0.069905296 -0.016625004 0.16492556
0002f0 57 84 85 3e c7 b0 18 bd 2f 18 b4 3d 7a 2c a8 3d
       0.2607753 -0.037277963 0.08793675 0.08211608
000300 c5 1b e4 bd 13 bb 17 bc 9a 51 4e bd db 33 28 3e
       -0.11138109 -0.009260911 -0.05037079 0.16426031
000310 8d 06 3c bd 54 f2 14 3d a2 d7 c0 3d ce 0e b2 bd
       -0.045904685 0.036363915 0.09416129 -0.0869423
000320 a3 4f af 3d 8c 8d b0 bc 9f e7 77 bd cc 2a 0c bc
       0.085601114 -0.02155187 -0.060523625 -0.008555125
000330 07 cc 0e bd 8c 51 dd bd 01 67 05 be ca 33 ec bb
       -0.034862544 -0.108065695 -0.13027574 -0.007208322
000340 06 33 34 bb 7e 1d 21 3e cb 09 2b bd fc ff 69 3c
       -0.0027496233 0.15733907 -0.041757386 0.014282223
000350 82 b1 11 bd fd ef 1a 3e 8c d4 d8 bc 0b 2b 8e bb
       -0.035569675 0.15130611 -0.026468538 -0.004338627
000360 81 32 14 3e d6 c7 80 bc c0 34 ee b8 60 de 1b 3e
       0.1447239 -0.01572029 -0.0001135855 0.15221548
000370 27 d6 b9 bc 56 f7 23 bd 29 80 ec 3d 80 7c a8 bd
       -0.022685124 -0.0400308 0.11547882 -0.082268715
000380 2f 81 23 bc ab 65 e4 3d 2a fc cc 3d 75 13 3e 3d
       -0.00997953 0.11152204 0.10009034 0.046405274
000390 33 41 1c 3d 2a bb a2 bc be ff eb 3c fd b3 f0 3d
       0.038148116 -0.019864637 0.02880847 0.1175308
0003a0 7a c3 8d 3d cf 91 ba bc 0d 3b 3f 3d 01 57 d3 bc
       0.0692205 -0.022774605 0.046687175 -0.025798323
0003b0 43 b6 1c 3d 8d b6 2b bd 72 88 6b 3d 24 29 80 bc
       0.038259756 -0.04192214 0.05750317 -0.015644617
0003c0 f7 89 f7 3d a4 fd 2a 3d aa c1 0e 3d f3 6c bf 3d
       0.120868616 0.041745797 0.03485266 0.09346952
0003d0 ba de 62 3d 54 fa c8 3a cf 29 8b 3d 68 6d 08 be
       0.05538819 0.0015333393 0.06795084 -0.13322985
0003e0 b4 ac db bc 30 f1 e6 3c 81 28 89 bd 94 db bc bc
       -0.02681575 0.028191179 -0.06697179 -0.023053922
0003f0 dc 03 0b 3c 42 1a 41 bd e2 31 0d 3e 5f af c3 3d
       0.008484807 -0.047144182 0.1378856 0.09554934

2.bias f4 [128]
000000 65 26 28 3b 7a b0 31 3b b1 f6 38 bd c0 74 2b bc
       0.002565765 0.0027113245 -0.04515714 -0.010464847
000010 68 0d 93 3d 1e 4c c5 bd 0a fe 09 bc cb 0f dc 3d
       0.071802914 -0.09633659 -0.008422384 0.107452
000020 a3 b4 07 3d 96 06 49 3d d8 f8 c3 bc 93 9d 8d bc
       0.033131253 0.049078546 -0.023922369 -0.017287051
000030 95 6d 99 3d 58 95 84 bc 69 e1 de 3c cb 95 6f 3e
       0.07491604 -0.016184494 0.027207093 0.23396985
000040 5c ef 37 3e ad 3c 6c bd 73 fb 36 3d a5 1e 6e bd
       0.17962402 -0.057675052 0.044673394 -0.058134694
000050 0d ce b1 bd de 5f 3e bd 5c 67 95 bd 73 1a 21 3c
       -0.08681879 -0.046478145 -0.07295105 0.009832966
000060 b9 a2 49 3d 28 39 10 3d 25 0f 04 3d 06 b6 a6 3b
       0.04922745 0.03521076 0.032241005 0.005087617
000070 f7 7f 08 bb 1a 12 97 3d ce 2c ab bd 27 6e 65 bd
       -0.0020828226 0.073764995 -0.08358155 -0.056013253
000080 1f 49 99 bd 0e 0a 94 bd 44 cb 70 3c 52 67 94 3d
       -0.0748465 -0.0722848 0.0146969 0.07246269
000090 de b9 a6 3d 03 95 87 bc bb 03 24 3b ce 93 7e 3d
       0.0814092 -0.016550547 0.0025026638 0.062152676
0000a0 ca cd e9 3b 32 28 a5 bd 10 c3 fd 3a 6e ab ae 3c
       0.0071351277 -0.08064307 0.0019360501 0.021321978
0000b0 1f c1 d8 3c cb c8 91 3d 34 c6 47 3d c8 21 d8 bb
       0.026459275 0.07118376 0.048773006 -0.006595824
0000c0 71 ed 6d 3d 20 db 42 bd 0a 0b cb bd 5f ef 1d 3e
       0.05808777 -0.047572255 -0.09914215 0.15423344
0000d0 41 95 2e 3d 8c 3a 6a 3d 6f 40 4c 3e 86 ec dd bc
       0.04262281 0.05718474 0.19946454 -0.027090322
0000e0 ad e8 95 3d ae 08 94 bd 9d 63 06 3c 97 d9 d7 3c
       0.0731977 -0.07228218 0.008202461 0.026348872
0000f0 34 01 3c 3d d5 d9 a9 3d df 47 74 3e 5d 7e d2 3d
       0.045899585 0.08293501 0.23855542 0.10278008
000100 33 92 66 3e e7 12 53 3e bf 85 5f bc 04 e7 86 3e
       0.22516708 0.2061268 -0.013642727 0.26348126
000110 d0 b3 66 3c 1e d2 2f bc bc 9f 00 3d d5 20 58 bb
       0.014080957 -0.010731248 0.031402335 -0.0032978554
000120 ef 66 65 bb 20 05 1c 3d 5c c1 08 3a d1 b9 8d bd
       -0.003500398 0.038090825 0.0005216801 -0.06920207
000130 00 ea 98 bd 4a 5e c2 3c 2c 15 17 3c 22 16 74 3c
       -0.07466507 0.023726601 0.009221356 0.014897855
000140 e2 04 d0 3d 81 10 c0 3d 0c ca 44 3d fd 74 01 3d
       0.10157181 0.09378148 0.04804425 0.03160571
000150 28 c2 18 3d a5 dd a0 bd a0 8d eb 3d 85 05 4c bd
       0.037294537 -0.07854775 0.11501622 -0.04980995
000160 aa 9a 6a bd 3a ae 22 bc b7 04 fe 3d df c2 32 3d
       -0.057276405 -0.009929234 0.12403243 0.043642875
000170 da 7a 86 3c 34 d5 92 3d 0d 4c a6 bd 19 06 9f bd
       0.016416002 0.071695715 -0.08119974 -0.07764835
000180 99 0a 34 3d e3 d7 4f bc 0d a8 14 3d a2 fe 8a bd
       0.04395542 -0.012685749 0.03629308 -0.067868486
000190 1e 27 5e 3e 66 ea 9d bd b8 d2 f9 3c ea 2e fb 3c
       0.2169461 -0.077107236 0.030495986 0.030662019
0001a0 5c b8 82 bd e7 08 b5 3d 87 38 77 3d db e9 f7 bc
       -0.0638282 0.088395886 0.060356643 -0.030262878
0001b0 e2 33 43 bd 9e 5d 83 3d 09 e6 a9 bb 60 97 c2 3b
       -0.0476569 0.064143404 -0.005184893 0.0059384555
0001c0 24 ac d1 3c fc 3f 3d 3d b3 7c 84 bd 3f 75 8d 3e
       0.025594778 0.0462036 -0.06469097 0.27628514
0001d0 00 03 f4 3c d6 7b af 3c eb f0 4a bd 5c 55 e7 3b
       0.029786587 0.021421354 -0.049546164 0.007059736
0001e0 e4 55 00 bd 5e fa 48 3d 88 b9 20 3d e4 c9 c2 3d
       -0.03133191 0.049066894 0.039239436 0.09511164
0001f0 58 b5 97 bc e1 81 11 3d 07 c5 74 3d 34 e5 57 3e
       -0.018519089 0.035524253 0.059758212 0.21083528

4.weight f4 [2, 128]
000000 43 e0 61 bd 71 29 37 be 82 db c1 bd a2 dc c9 bc
       -0.055145513 -0.17886902 -0.09465696 -0.024641339
000010 6f 8b 0a be 79 03 67 bd 90 e2 d0 3c 35 ae db bd
       -0.13529752 -0.056399796 0.025498658 -0.10726587
000020 83 70 f9 bd 7a f4 3e bd 86 40 1c 3d 57 f0 21 be
       -0.12179663 -0.04661987 0.03814747 -0.15814339
000030 1e 6a 28 3e 08 a9 29 be 76 25 2d bd a6 23 a0 3e
       0.1644673 -0.16568387 -0.042272054 0.31277198
000040 17 7c 17 3e 32 26 e9 3d 75 0f b6 bd 63 24 18 be
       0.1479343 0.11384238 -0.08889667 -0.1485763
000050 ac 32 ec 3b 73 25 8d 3c d9 8e c7 bc f9 ef 9b bd
       0.007208189 0.017229771 -0.024360107 -0.076141305
000060 b3 2d e4 bd 18 85 77 3c 62 28 b4 3c e2 9c c4 bc
       -0.11141529 0.015107416 0.021991912 -0.024000589
000070 cb dc 4e 3d 6b 2a 07 be f0 11 28 bc 1e 7c 8c 3b
       0.050503533 -0.13199775 -0.010258183 0.004287257
000080 d3 d1 1f be 5a a6 8d 3d 10 94 dc bd f4 be b6 bb
       -0.15607385 0.06916495 -0.10770428 -0.0055769626
000090 bb 67 0f bd d3 40 02 be c1 b8 7f 3d bd 49 ac bd
       -0.035011034 -0.12720041 0.062432054 -0.08412502
0000a0 85 51 34 3c ca 5b 9a 3d c2 77 aa bd 65 ae ad 3d
       0.011005764 0.075370386 -0.08323623 0.08480529
0000b0 b5 d3 f3 bd af 17 ed bd b2 da f8 3c 59 94 b7 bd
       -0.11905614 -0.11576783 0.03037772 -0.08963842
0000c0 25 5d af bd 17 9d 06 be 08 e5 fa 3c 09 2f 41 3e
       -0.08562688 -0.13145863 0.030626789 0.18865599
0000d0 73 58 8c bd 9b 6d b6 3c 28 10 30 3e 8b ef 71 bd
       -0.06852808 0.02226906 0.17193663 -0.059066337
0000e0 41 8d e3 3a 9f e5 80 3d 0c e8 c8 3a 6d 86 9b bd
       0.0017360823 0.06293797 0.0015327944 -0.07593999
0000f0 78 f6 8c 3d c2 c6 01 be b5 f2 ba 3e 04 66 aa 3e
       0.06882948 -0.12673476 0.36513296 0.33280957
000100 07 f6 98 3e a8 ac 2d 3e 39 0e 00 3c f4 8b 82 3e
       0.29875204 0.16960394 0.007815891 0.254974
000110 10 ed a5 bd 13 34 a7 bd 52 11 e0 bd 6d 42 b3 bc
       -0.08101857 -0.08164229 -0.109408036 -0.02188226
000120 3a 85 eb bd ec 4c de bd 5f be 42 be 2a 8e 64 bd
       -0.1150002 -0.108545154 -0.19017933 -0.05579964
000130 60 e1 a1 3c 8e ed f4 3c 55 b7 03 be df 17 fc bd
       0.019760787 0.029898431 -0.12862904 -0.123092405
000140 56 10 c8 bd 47 6b ba bd 39 29 60 be 17 75 7d 3d
       -0.09768741 -0.09102493 -0.21890725 0.061879244
000150 99 3a 91 3c 68 ad 30 3d e8 f6 ea bd f1 0b 13 be
       0.017728137 0.043134123 -0.11472875 -0.14360024
000160 bd 83 ad 3d 9b 4f d1 bd 04 db 0a be eb 1e f1 bd
       0.08472393 -0.10220262 -0.1356011 -0.11773475
000170 22 d6 a8 3c ae 99 dc bd 91 ba 0e be 9c 2e 17 3e
       0.020609919 -0.107714996 -0.13938357 0.14763874
000180 06 b4 01 be 49 94 86 bd 6b d3 1b 3d 39 85 b6 bb
       -0.1266633 -0.06571252 0.03804342 -0.0055700806
000190 07 52 48 3e c8 69 33 bc 8a 10 d1 3c 55 59 61 bd
       0.19562541 -0.010950513 0.025520582 -0.055016834
0001a0 65 e0 8f bb f0 2a 0a be 90 27 d4 bc 54 cb 2c bd
       -0.0043907636 -0.13492942 -0.025897771 -0.042186096
0001b0 7f ec e1 3b cf f7 87 bd 4c c5 00 3e 88 37 2e be
       0.0068946476 -0.066390626 0.12575263 -0.17013371
0001c0 e9 3a 5f 3d 5b cb a5 3c 57 05 e6 3c ec 53 61 3e
       0.05449954 0.020238569 0.028078718 0.2200467
0001d0 a0 81 01 be 24 27 c4 bc f9 12 80 bd 20 0d 96 bd
       -0.12647104 -0.023944445 -0.06253619 -0.07326722
0001e0 18 a2 54 3d 8a 6f 83 bd 36 0b a8 3d 30 fe d7 bd
       0.051912397 -0.06417759 0.08205263 -0.10546529
0001f0 4a 64 b8 bd ff 16 c4 bd 62 b4 ec 3c 40 67 6a 3e
       -0.090035036 -0.09574699 0.028894607 0.22890949
000200 df 85 02 bc 31 90 1c bc ae d7 21 3c 50 51 2c be
       -0.007966488 -0.009555862 0.009878082 -0.16827893
000210 a2 c3 be bd 13 6c 81 3d 96 9a 29 3d e6 2c d3 bc
       -0.09314658 0.06319442 0.04140719 -0.025778245
000220 00 fb 03 be fe ae 24 be 0f 7b ae 3d ed 2b e0 bd
       -0.12888718 -0.16082379 0.08519565 -0.10945878
000230 86 cf 42 3e ca db 0f be 2f a9 03 be fc 18 96 3e
       0.19024476 -0.14048687 -0.12857507 0.29315937
000240 49 3f 90 3e dc ae ca bc 3b 41 67 bd fa e5 a7 bd
       0.28173283 -0.024741583 -0.056458693 -0.081981614
000250 99 4f 04 bb e9 7b b0 3c 31 f5 3b 3d c4 e1 76 3d
       -0.0020189045 0.02154346 0.04588813 0.0602739
000260 1e 35 0d be 1f 20 3d 3d 22 8d ba bc 36 e3 b9 3c
       -0.13789794 0.04617321 -0.022772375 0.02269135
000270 aa 31 c2 bd ef ee b7 3b 51 90 98 3d c8 13 f5 3b
       -0.09482129 0.0056132 0.07449401 0.0074791647
000280 2f 25 ca bd ad 36 02 3c 9c 5f 26 be 3e b1 1a be
       -0.098703735 0.007947606 -0.1624741 -0.15106675
000290 a6 68 a3 3d 45 75 34 be f2 94 16 bd ce 23 1b be
       0.079789445 -0.1762286 -0.03676314 -0.15150377
0002a0 0d 47 95 bd 33 ec d8 bc 86 bf 06 3c ce 51 05 be
       -0.072889425 -0.026479816 0.008224374 -0.13019487
0002b0 5e cb 1a be 8d 98 0a be f2 1f b8 3b a5 ea 14 be
       -0.15116641 -0.13534756 0.0056190426 -0.14542635
0002c0 3a 2e 4b 3d 42 47 52 be b3 3c f5 bd 51 e5 0d 3e
       0.049604632 -0.20534995 -0.11974468 0.13857009
0002d0 ae c0 95 3d ba cc ae 3d 38 f1 0e 3e fa a5 80 bc
       0.07312141 0.08535142 0.13959205 -0.015704144
0002e0 0e 89 86 bb 6d 5a a8 bb da 10 87 3b e1 33 fe bd
       -0.0041056937 -0.0051377327 0.004121882 -0.12412239
0002f0 ab d4 89 bb 16 91 b2 bd 60 45 b3 3e 59 d8 3d 3e
       -0.00420626 -0.08719079 0.35013866 0.18539561
000300 64 a5 50 3e 9d 59 84 3e c1 b4 41 3d 8b 2c 98 3e
       0.20375592 0.2584962 0.04729152 0.29721484
000310 b8 9d af bc 2a 86 5f bd c5 9c eb bd bd d3 5e 3d
       -0.02143751 -0.05457131 -0.11504511 0.054401148
000320 b2 ed f2 bb 0f c9 43 be 2c e1 b8 bd 73 b3 b1 3d
       -0.0074135894 -0.19119667 -0.09027323 0.08676805
000330 63 5b 0c 3d 9e 3b 1f be 2e f0 66 bb 68 67 ad bd
       0.03426684 -0.15550086 -0.0035238373 -0.08466989
000340 02 72 f8 bd 08 c4 1d bc f8 74 84 bd 2d 09 2c 3d
       -0.1213112 -0.009629257 -0.064676225 0.04200094
000350 ea b6 eb bd 8e 1c 1e 3d f3 0f 1a be 50 81 4a be
       -0.115094975 0.03860145 -0.15045147 -0.19775891
000360 6d 90 33 bd 54 3c c8 3c 3d a7 33 3d 77 a7 2b bd
       -0.043838907 0.02444283 0.043860663 -0.041907754
000370 e7 e7 43 3d 0b 46 4a be 0a a0 0c be 3e 02 81 bd
       0.04782858 -0.19753282 -0.13732925 -0.06299256
000380 3f 9c 3c be c7 88 19 be 8c e8 69 bd b3 17 35 be
       -0.18418978 -0.14993583 -0.05710654 -0.17684822
000390 0d 5d 9b 3e 87 bf 28 bd 6a fe 74 bc 04 52 b9 bd
       0.3034443 -0.04119828 -0.014953235 -0.09048846
0003a0 cd 70 99 3c 6e 73 37 be 4a f4 3a be fc 34 24 be
       0.018730545 -0.17915127 -0.18257251 -0.16035837
0003b0 74 b8 97 3d 37 d5 b6 bd a9 42 4e bd b9 35 f5 bd
       0.074082285 -0.08927386 -0.05035654 -0.119731374
0003c0 5a f5 8b bc 69 24 31 be 63 32 a8 3d 82 1b b7 3e
       -0.017084766 -0.17299046 0.082127355 0.35763174
0003d0 3b 5b 3d bd 52 16 06 bc aa 92 52 3d e2 57 0b bd
       -0.046229582 -0.0081840325 0.0514094 -0.03401936
0003e0 90 23 60 3c 3c 9d 90 bd 6f 3e 91 bd 37 c7 08 bd
       0.013680354 -0.0706124 -0.070919864 -0.03339311
0003f0 42 7b 46 bd fa 44 21 3c 12 4f 02 3d 4a c7 c0 3e
       -0.04845739 0.009843105 0.03181369 0.37652045

4.bias f4 [2]
000000 75 60 82 bd 1d ad 1e 3d
       -0.06366054 0.038739312
