checkpoints/dqn/20251120-2008/ckpt_ep500.pth (torch, 72697 bytes, 6 tensors)

0.weight f4 [128, 4]
00000000: 070c ac3e 11da 013f 7cb7 fc3d 35e8 133f
00000010: 41bc 85be ec74 95bc 99c0 88bd a094 e03e
00000020: 423c f33e 4bde aebe 9a42 013f 2ca5 fc3d
00000030: 9422 bd3e 50ae 8a3d 5ce1 763e 6094 90bd
00000040: 945c 8e3e 6c3e c0bc d7b4 8abe b392 f23d
00000050: 1797 b8be 67b1 2cbe db13 f4bd 3300 d63e
00000060: 70f8 abbe c90a a7be 68b8 8abe 101d a4be
00000070: d814 883d 13f4 11bf a845 483e 3ebc 05bf
00000080: 883c c33e 31c9 873e 1011 5b3d b2be ca3e
00000090: ec98 c43c 2648 673e dd8a 71bd a89a 31be
000000a0: d8b1 b03d 86c0 21bd b4ed e13e d035 0e3f
000000b0: 1c8f 5a3e 30d0 69be 0e0b ea3e 7f14 323e
000000c0: 1799 923e 91ce b6be 3ad8 1dbf 7b8b 70be
000000d0: 0568 aebe 23a8 ee3e 9a3c 3c3e 6498 5e3e
000000e0: 20a2 0c3e 8a7b d5bd 5d43 883e 1a19 bbbe
000000f0: 530a 15bd 779d cfbe 5867 863e c2ce 8ebd
00000100: 5bfe 293e 18ea 4bbe 3e81 9c3e ed77 94be
00000110: 66c9 abbe 293a a2be 40f1 1c3f 1bf2 843e
00000120: c756 283f 0400 efbe 8787 30bf 0a9c e7be
00000130: 2a06 d6be 9c7b 523e 8339 c63e 2c5e 0f3f
00000140: 3bcb 58be 6fc8 a9be fe82 5c3e 3db6 76be
00000150: b8de 9c3e 7c23 4ebe d757 073e 0d5f ddbe
00000160: cd50 57be ae12 0e3e 4379 24bc 780d 3fbe
00000170: 9b95 d03e 55d1 2e3e fef3 11bf 3591 a7be
00000180: 7e8f 113f cc55 a4be 4ddf f3be d52d 27bf
00000190: 2f17 08be d415 423d 6ee8 8ebe 39d6 d7be
000001a0: 7572 7abd 66d6 f3be ddc6 3abf 961e f7be
000001b0: dc06 02bf 682e 9fbe 240a 313f bc97 453e
000001c0: 427c 523e 8053 0bbf 612f bcbe 862c c5bd
000001d0: 275a 3b3e 0c28 e2be dd18 eebe fb12 e3be
000001e0: b700 763d 25cc 93be 9dd7 98be a7d5 e6be
000001f0: 14d4 2bbe e167 aabe f1dd bfbe a34e e0be
00000200: 183b 9e3e 5b8d f1bd caf5 173f ded9 643e
00000210: d2c9 bbbe 183c ab3e 0559 6fbe 3da5 80be
00000220: 0936 f4be aad3 ffbe 586e 9c3e 580e 8dbc
00000230: a28e 073e e61f ffbe 790f cc3e d879 a1be
00000240: d61b 1bbe 840f 0c3e 1fe5 d63e da31 e73e
00000250: 8b75 dd3e da69 1cbf 6d67 5b3d 6689 d0bd
00000260: c511 77ba e231 eebe 1c4f 2a3e 22fd f5be
00000270: 956d 353e bfb6 b2bc 3bc1 7b3c ab48 9ebe
00000280: 8f69 123f 74e0 46bd 7006 25be 8a2f 05bf
00000290: 97d3 0d3e 4981 bebd 7aec 5dbd ad77 083f
000002a0: 62c7 bf3d 3f90 a7be 8b46 02be 2fd4 983d
000002b0: c4f0 8e3e 54d5 02be 3211 92be ac54 2fbe
000002c0: 0857 b8be 837a b93d f01c 8d3e c8e0 fbbe
000002d0: f8a8 ef3d 8e1f 443e 0b28 36bd f526 80be
000002e0: 9df0 da3d e632 c63d 4868 883d a7b5 17be
000002f0: 5687 d4bd f526 933c e53e 3bbe 3c12 42be
00000300: a946 183e 27fc 773e 1fb6 2dbe 265f 2fbe
00000310: d863 90bd 8cec 18bd 8361 9a3e 803e 803e
00000320: 13fe febe bb1f 5abe 71e8 0e3f 5b84 8d3e
00000330: e814 f7ba d330 bebe 7290 1ebf 2c78 21bf
00000340: a61c 9abe ec40 e13d d842 113f 82ba de3e
00000350: 290a 06bf 093f 96be b362 813d 3f42 113f
00000360: 1821 943d d097 04be 7cd2 533e e802 43be
00000370: 4cf3 79be a570 993e d05f aabe e220 bebd
00000380: 1e08 e2be 409f c13e 7b54 d53e 9eef 463e
00000390: 5a17 d4be a78b 15bf aa0b b4be 39d6 d43e
000003a0: 35b1 b33e 67fc 243f c40b 0c3f 3f5f c13e
000003b0: 3a0d a83c 0ab0 e2be e954 41bf 6231 2fbf
000003c0: 28ff b53e 9807 99be f8b5 cfbe 0100 eabe
000003d0: 616e 25be 0d7e c9be 269d 21be 607c 983e
000003e0: 17f6 e2bd e4b2 793e a7b0 98be 3f14 d4be
000003f0: b1bc abbc 2527 a2be c796 d4be 38c1 14bf
0.33602926 0.5072337 0.12339684 0.57776195 -0.2612019 -0.01824423 -0.0667736 0.43863392
0.4750691 -0.3415397 0.5049225 0.123361915 0.36940444 0.06771529 0.24109405 -0.0705955
0.27805007 -0.023467265 -0.27091095 0.11844387 -0.36052772 -0.16864549 -0.1191785 0.41797027
-0.3358798 -0.32625416 -0.27093816 -0.32053423 0.06644601 -0.5701305 0.19557822 -0.5224036
0.3813212 0.26520684 0.05348307 0.39598614 0.0239987 0.22586116 -0.05897032 -0.17344153
0.08627671 -0.039490245 0.44126666 0.5555086 0.21343654 -0.22833323 0.4571156 0.17390631
0.28632423 -0.35704473 -0.6165806 -0.23490708 -0.34063736 0.46612653 0.18382493 0.2173782
0.13733721 -0.10423954 0.26613894 -0.36542588 -0.0363868 -0.40549824 0.2625072 -0.0697303
0.16600935 -0.19913518 0.30567354 -0.28997746 -0.33552092 -0.31684998 0.6130562 0.25965962
0.6575741 -0.466797 -0.689568 -0.45236236 -0.41801578 0.20554966 0.38715753 0.5600307
-0.21171276 -0.3316073 0.21534345 -0.24092956 0.3063867 -0.20130724 0.13217102 -0.4323658
-0.21026917 0.13874313 -0.010038677 -0.18657482 0.4073914 0.17072041 -0.5701293 -0.32727972
0.56859577 -0.32096708 -0.47631302 -0.6530431 -0.13290094 0.0473841 -0.27911705 -0.42155626
-0.06114431 -0.4762451 -0.7295969 -0.48265523 -0.50791717 -0.31090093 0.691561 0.19296163
0.20555213 -0.54424286 -0.36754897 -0.09627633 0.18296109 -0.44171178 -0.46503344 -0.44350418
0.060059275 -0.28866687 -0.29852 -0.4508488 -0.1678012 -0.33282378 -0.37474015 -0.43809995
0.3090446 -0.117945395 0.5935942 0.22348735 -0.36677414 0.33444285 -0.23373802 -0.25126067
-0.47697476 -0.49966174 0.30552936 -0.017218754 0.13238004 -0.49829024 0.39855555 -0.31538272
-0.15147337 0.13677794 0.4197168 0.4515522 0.4325374 -0.61099017 0.05356543 -0.10182457
-0.000942495 -0.46522433 0.1663174 -0.48044688 0.17717583 -0.021815656 0.015365894 -0.30914816
0.5719232 -0.0485539 -0.16115737 -0.52025664 0.13850246 -0.09302003 -0.0541806 0.5330761
0.09364201 -0.3272724 -0.12722223 0.07462346 0.27918065 -0.1277669 -0.28528744 -0.17122144
-0.360039 0.090565704 0.2756114 -0.49194932 0.1170215 0.19152662 -0.04447178 -0.25029722
0.106904246 0.09677677 0.06660515 -0.14815389 -0.10377376 0.017962912 -0.18285711 -0.18952268
0.14870705 0.24217282 -0.16964005 -0.1712614 -0.07050294 -0.037334964 0.3015252 0.25047684
-0.49803218 -0.21301167 0.5582343 0.27640042 -0.0018850835 -0.37146625 -0.61939156 -0.6307399
-0.30099982 0.10998711 0.5674262 0.4350167 -0.52359253 -0.29344967 0.063176535 0.5674171
0.07232875 -0.12948537 0.20685762 -0.19044077 -0.24409217 0.29968753 -0.33276224 -0.09283616
-0.44146818 0.3781681 0.41666016 0.19427344 -0.41424066 -0.5841622 -0.3516515 0.4156969
0.35096136 0.64447635 0.5470545 0.3776798 0.02051412 -0.44274932 -0.7552019 -0.6843473
0.3554623 -0.29888606 -0.4056852 -0.45703128 -0.16155387 -0.39353982 -0.15782604 0.2978239
-0.11082094 0.24384648 -0.29822275 -0.41421697 -0.020963999 -0.3167049 -0.41521284 -0.5810733

0.bias f4 [128]
00000000: 7bae 393e 11bf 6abe 4628 9cbe 7cd5 d4be
00000010: 7f94 253f e668 d0be bd69 163f 2e4a cfbd
00000020: be6c 52bd 4a5f 0d3f e4f2 c4bd ad3b 083f
00000030: 969a 083f f9e6 f0be 726d c43e ea1f 853e
00000040: 8715 653e b91b 153e 550d 6c3d cafb 14be
00000050: ae0b debd a8b1 1b3f c3b4 0b3f c8a0 37bd
00000060: 81ac 86be a96b 2fbd c4bb 42be 0a85 163f
00000070: 1175 4dbe 382d f7bd 17dd f9bd 8d97 95bc
00000080: 0a7f 323f f9d8 b63d 59a5 fa3e bdee 113f
00000090: 9a0f 1f3f 2fa8 db3d d157 e7bd 4176 bd3e
000000a0: baca f9bd 9d65 b13e f462 2eb9 f2a1 adbe
000000b0: 6e2f cd3e c6a2 513e f3c7 e13e 571c 343f
000000c0: 4c38 0e3f d4b8 2e3f ea8d 613d 6209 7cbe
000000d0: 1dc3 14be 7438 9bbe 7e99 e1be 97a9 aabe
000000e0: e35f 05bf 4c17 e6be 46f0 b6bd dbbe 94be
000000f0: 7f6a 18be 4514 a33e 8d7f 193f 70a7 0dbe
00000100: 6978 04be c578 f73e 2fee 4cbe e1b6 2abe
00000110: c185 0e3f cf27 c3be 003a 71bd d09e 0b3f
00000120: b2b5 473c ea8a 863e d2b6 a8be ad69 abbd
00000130: 9da0 473e 29dc f33c 1244 e23e 3844 2a3f
00000140: 131c 9abe fa9f c3bd 4263 47be 80a7 abbe
00000150: 6a14 56bd 9628 80be c3f8 0a3f be6f 3e3b
00000160: c5a8 4abe e550 dd3e d1b9 65be 33c2 13be
00000170: 9e39 e2bd 3013 d1be c47c 91be d65d d8bd
00000180: 5e6e 093f 67ba 2d3f fbb6 e03e e908 b1be
00000190: 3ee9 9ebe d622 1e3f 611a b13e ddd3 173d
000001a0: 51b5 4cbc d970 a9be 266a 0bbe 1096 2e3f
000001b0: 08c4 16bd a903 b33b c2d3 2dbe 15e3 7abe
000001c0: cd6f d1bd 53a6 94be 7d84 09be b6d5 9a3e
000001d0: d469 fabe 80c4 413d 6259 78be a736 90be
000001e0: dca7 c83e 6b54 1b3f d1c6 91bd 1c36 52be
000001f0: 54df fabe 1783 74be 3358 a4be 3a75 e6bd
0.18132965 -0.22924449 -0.30499476 -0.41569126 0.6467971 -0.4070503 0.58755094 -0.101215705
-0.051373236 0.55223525 -0.0961664 0.5321606 0.5336088 -0.47051218 0.3836475 0.2600091
0.22371493 0.14561357 0.057629902 -0.14549175 -0.108420715 0.60817957 0.54572695 -0.044831067
-0.26303485 -0.042827282 -0.1901694 0.5879675 -0.20064189 -0.12069172 -0.12200373 -0.018260742
0.69725096 0.08928103 0.48954275 0.5700491 0.6213318 0.10725438 -0.112960465 0.37004283
-0.1219687 0.34647837 -0.00016630796 -0.33912617 0.40075248 0.2047225 0.44097862 0.70355743
0.5555465 0.68250775 0.05506698 -0.24612954 -0.14527555 -0.30316508 -0.44062418 -0.33332512
-0.52099437 -0.4493965 -0.08932547 -0.2905186 -0.14884375 0.31851402 0.5996025 -0.13833404
-0.12936558 0.48334327 -0.20012735 -0.16671325 0.5567284 -0.3811631 -0.058893204 0.54539204
0.012189316 0.26277858 -0.3295198 -0.083697654 0.19494863 0.029768066 0.4419256 0.66510344
-0.30099544 -0.095519975 -0.19471458 -0.3352623 -0.052265562 -0.25030965 0.5428583 0.0029058303
-0.19790943 0.4322578 -0.22434165 -0.1442955 -0.11046146 -0.4083495 -0.284155 -0.10564773
0.5368403 0.6786255 0.43889603 -0.3457711 -0.31037325 0.61771905 0.34590438 0.037067283
-0.012494401 -0.33093908 -0.13614711 0.6819773 -0.036808044 0.005463083 -0.1697531 -0.24500687
-0.102264024 -0.29033145 -0.13429447 0.30241174 -0.48908865 0.047306538 -0.24252847 -0.28166696
0.39190567 0.60675687 -0.07117999 -0.20528454 -0.4899851 -0.23878132 -0.3209854 -0.11252828

2.weight f4 [128, 128]
00000000: 54d3 f53d fe8b b53d 32bf 223e c623 633d
00000010: 68f3 7bbd 15e4 bf3d 7d99 5b3c d2cd 52bc
00000020: 5b6a ba3d 3ba7 54bc 25b1 213e b311 163c
00000030: 0e3f e73b e5dc 913d 984d acbc 2205 cc3d
00000040: e48a 98bd 520f 233d e2e7 21be 4a5c 6f3e
00000050: cce0 9cbc f64e e7bc 1afd 40bd a833 623b
00000060: 2164 083d b148 763c 5ff8 753d 5e6f a83d
00000070: 4ae0 e9bc e0a9 f1bd 3c00 34bc c858 793c
00000080: 292e 0e3e f2e3 953d 896a 03bc ec57 ae3d
00000090: 2d84 9a3d 239d 39be 394c adbd 122d 56bd
000000a0: 270b 2c3c a3d0 8d3d 9208 34bc 38e1 de3c
000000b0: a1b8 52bd d519 a73d 8876 96bd d487 2bbb
000000c0: 3ded b1bd 50ba 383d 6579 073e 4f83 023e
000000d0: df95 6a3e 6bc9 3f3e d4aa 8d3c 97ca 663d
000000e0: 6dbc 183e e704 293e 2a00 013d 975d fe3d
000000f0: 0377 0c3d d069 b83c 9b31 78bd 2fe4 69bd
00000100: 2bb7 c33d 90e6 40bd c30d 113e dace 2f3d
00000110: 60d7 46bd b4af 5c3d 137a c6bc 70d2 f03d
00000120: 843c 30bd 9fb4 94bd 9c50 cf3d 95d4 aa3c
00000130: 5a98 153e 7a8f 023d 61d8 c33d b884 573b
00000140: bd5d da3d acc4 fb3c ef82 163e a67b a43d
00000150: b54d 60bd 693e bf3d 6d32 bc3d 3e06 5b3d
00000160: e0b0 70bd 5b1f 233c 6224 d13a 2d92 ebbd
00000170: 9f80 563d bb32 c73d e211 9b3c 80cd 113e
00000180: 8f30 8dbd 6438 b2bd 888a 943c 4d23 9a3d
00000190: f14e b33d 40e3 083c 2bb1 ccbb 4e0a d53d
000001a0: 63d7 37bd 5821 a43d 4c4f 643c c787 883c
000001b0: 6056 c13d ff99 383e 02c2 343e 32f2 c13d
000001c0: 50de ddbd e073 fe3c 7e27 c13d 3de2 a2bd
000001d0: 002c 363a f486 143e f9c0 fe3c 32dc 2c3e
000001e0: a438 0abd becf 273d cf0d fa3c fcec 6bbd
000001f0: 1e79 94bd fbbb 1a3e 23a4 d43b 3d60 61bd
00000200: 74cd 4fbe 5aa2 6c3d 088a 10bb 1e44 113d
00000210: d5bb 90bd e7ac d0bd 69fb 97ba 675d 703d
00000220: 93c7 bfbd f30d 80bc f150 63bd a6a3 afbd
00000230: d476 313d d9b5 d1bd 6867 993c f85e b13d
00000240: c4d0 2abd 1e7f 34be 66a0 d53d e788 973c
00000250: 1391 3bbc 25ac a73d 983f 82bd 0f91 7b3d
00000260: f2aa 203e 378f 99bd 0424 603e 1484 39be
00000270: c3f2 5bbd d0b6 be3d 63b5 d83b b9c2 013e
00000280: dbc5 debd d723 933c 7256 99bd 7ec6 603d
00000290: 6c5e 53be 1d9b ef3c 9fbb f93d 6777 0b3d
000002a0: 7c9d b63d 7abc 19be f5c4 5ebd 9436 8b3c
000002b0: 21fc eb3b 96ff 903c a1b6 b33c a27e 08bd
000002c0: f0dd d73c c9e1 0dbc a614 00be c0a2 713e
000002d0: 7f26 cfba b207 223c b4bc 4dbd b3f9 5fbd
000002e0: 35f4 63bd df81 d0bd 2cf1 53bd c009 253e
000002f0: 5173 763e 2cb5 3cbd abce 333d 6be3 623d
00000300: ccc9 5bbe 25cc 34bd 3d20 0fbe 7b9c 0e3e
00000310: 9adf cebd fe1c e6bc 1d2d 973d cbd6 ccbd
00000320: ff1d 5a3d 6885 06bd 349d 8bbc 63d4 18bd
00000330: 47ed c3bd d4c4 0bbe 950e 66be 5bd6 68bd
00000340: 47c6 aabc 750e 0f3e 8702 74bc 6d89 b63c
00000350: ca72 a9bd 8232 fb3d a19c 93bd 1441 ac3c
00000360: 90f8 c03d 97cc 1cbd 2a97 173c 5f1f d13d
00000370: 0d6e 803b b675 a33b 7574 2e3d c89b 3dbe
00000380: fb56 54bd a957 9a3d 61f9 613d aeb3 a33d
00000390: 5d64 133d 783a 36bd 0a73 34bc e893 803d
000003a0: 7987 f03c 622f 93bd 9620 1c3c 69c2 9ebd
000003b0: f0d9 903d d854 a9bc 5edb ae3d f244 a4bd
000003c0: 72e0 cc3d 6777 ac3d 9c88 f6bc 9160 4b3d
000003d0: bade 623d e8c5 49bd 67b6 923c 22d5 03be
000003e0: deab 33bd 4ff6 31bc 1d47 11be 94db bcbc
000003f0: 7457 eebc e3b5 bebd 8f13 b63d d414 683d
0.12003198 0.08864592 0.15893248 0.055454038 -0.061511427 0.09369675 0.013403294 -0.012866454
0.09102317 -0.012979324 0.15790232 0.009159493 0.0070570773 0.071222104 -0.021033093 0.099619165
-0.07448366 0.039809532 -0.15811113 0.23375049 -0.01915016 -0.028235894 -0.047116376 0.0034515653
0.033298615 0.015031979 0.06005132 0.082243666 -0.028549332 -0.11799979 -0.010986384 0.015218921
0.13884796 0.07318868 -0.008021005 0.085128635 0.07544742 -0.18126349 -0.08461804 -0.052289076
0.010500706 0.0692456 -0.010988371 0.027207002 -0.051445607 0.08159224 -0.07346827 -0.002617349
-0.08687828 0.045099556 0.13229902 0.12745403 0.22908734 0.18729179 0.017293371 0.05634555
0.14915629 0.16505776 0.031494297 0.124201946 0.034293186 0.022511393 -0.060594182 -0.05710238
0.09556421 -0.04709488 0.14165406 0.04292188 -0.04854524 0.0538785 -0.024228131 0.11758888
-0.043026462 -0.07261013 0.10122797 0.02085332 0.14608899 0.03187511 0.095627554 0.0032885503
0.106624104 0.030733429 0.14698385 0.080313966 -0.054761607 0.09338076 0.091893055 0.05347275
-0.05876243 0.009956206 0.0015956277 -0.1150249 0.052368756 0.09726473 0.018929426 0.14238548
-0.068940274 -0.08702162 0.018132463 0.07526264 0.08755291 0.008354962 -0.006246706 0.10402356
-0.044883143 0.08014172 0.0139349215 0.016666306 0.09440303 0.18027495 0.17652133 0.09470023
-0.10833418 0.031061113 0.09431361 -0.07953308 0.00069493055 0.14504606 0.031097876 0.16880873
-0.033745423 0.040969603 0.030524163 -0.057599053 -0.07249664 0.15110771 0.006489293 -0.05502342
-0.20293218 0.057772018 -0.002205493 0.035465352 -0.07067076 -0.101892285 -0.0011595312 0.058682825
-0.09364238 -0.015631652 -0.055497114 -0.08576135 0.043326214 -0.10239763 0.018726066 0.08660692
-0.041703 -0.17626616 0.10430984 0.018497897 -0.011448163 0.08187131 -0.06359786 0.061417636
0.1569021 -0.07498019 0.21888739 -0.1811679 -0.053698312 0.093122125 0.00661342 0.12671937
-0.10877582 0.017961426 -0.07487191 0.054876797 -0.20641488 0.029248768 0.12193989 0.034049418
0.089167565 -0.15013304 -0.05438705 0.016993798 0.007201687 0.017699998 0.02193767 -0.03332389
0.026350945 -0.008659788 -0.12507877 0.2359724 -0.0015804319 0.00988953 -0.05022879 -0.05468149
-0.055652816 -0.10181021 -0.05174367 0.16117 0.24067427 -0.046071216 0.043898266 0.055392664
-0.21463698 -0.04414 -0.13977142 0.1392688 -0.10101242 -0.028089996 0.073816516 -0.10001906
0.053251263 -0.03284207 -0.017042734 -0.037311923 -0.095667414 -0.13649303 -0.224665 -0.05684505
-0.0208465 0.13970359 -0.014893181 0.022282327 -0.082738474 0.12265493 -0.07207609 0.021027125
0.094224095 -0.03828105 0.009252349 0.10211062 0.003919369 0.0049883975 0.04259153 -0.18516457
-0.051840764 0.07536251 0.055169467 0.079932556 0.035984386 -0.044489354 -0.011013756 0.06278211
0.029361473 -0.07186772 0.0095292535 -0.077519245 0.07072818 -0.02067034 0.08537935 -0.08020963
0.10003747 0.08421212 -0.030094437 0.04965264 0.05538819 -0.049261004 0.017909242 -0.12874272
-0.043865077 -0.010861947 -0.14187284 -0.023053922 -0.029094435 -0.09312036 0.08890449 0.05666049

2.bias f4 [128]
00000000: a6bf 213d 6d50 30bd d3b8 45bd 0320 10bd
00000010: 5e33 af3d 1e4c c5bd 0afe 09bc 6cb0 003e
00000020: 0586 113b 3c31 093d d8f8 c3bc e58c 65bd
00000030: ed13 0b3e 6340 5ebc 2ab1 2abc 65e6 973e
00000040: fcfa 6f3e 7b52 9dbd 41a3 663d ff74 b3bd
00000050: 3bce b1bd de5f 3ebd ac67 95bd 731a 213c
00000060: 08fd e43c 2839 103d 250f 043d 92b1 a63b
00000070: 79f2 12ba 0ae1 973d ce2c abbd 276e 65bd
00000080: 80c3 debd 800f 94bd 4f0a 99bc 7e8c 503d
00000090: c054 c13d 67cf 5ebd bb03 243b 821d bd3c
000000a0: 9870 823b 3228 a5bd 10c3 fd3a 73e3 4b3d
000000b0: 156a 61bc e16e 1c3d 34c6 473d eaf7 8abd
000000c0: 71ed 6d3d 4a85 afbd d063 68bd ba77 5d3e
000000d0: a9b6 0d3d 8c3a 6a3d 19ce 853e 86ec ddbc
000000e0: ade8 953d ae08 94bd 9d63 063c e98c 5abc
000000f0: 3401 3c3d e846 403d eb21 9a3e 9465 293e
00000100: 338e 933e 9fe5 873e bf85 5fbc 218a a63e
00000110: d0b3 663c d133 27bd 4026 f4ba ec3d 8cbb
00000120: 6376 09bc 8d48 c03b f69d 27bd d1b9 8dbd
00000130: 00ea 98bd ea5e 4f3c 3b20 44bd 56d0 b5bc
00000140: 4ec5 c43d 5223 9f3d e3f0 833c fd74 013d
00000150: e13b 443d 1b92 8f3b fd5b af3d 0c7c babd
00000160: aa9a 6abd 75d5 a8bb 2b1d 073e 8d3e 0d3d
00000170: da7a 863c b910 403d 4778 f4bd 6c84 a9bd
00000180: bbc9 013d f658 2fbd 0da8 143d ad38 4dbd
00000190: 4881 8d3e 66ea 9dbd 75cd f93c fe20 4cbb
000001a0: 5cb8 82bd 0c7a 5b3d c710 fc3c b8b8 82bd
000001b0: e233 43bd 5dd8 f23c 68fe ce3c d975 11bd
000001c0: 24ac d13c fe08 0e3d b37c 84bd 43b9 ab3e
000001d0: 7694 c2ba d67b af3c ebf0 4abd 75c0 d33c
000001e0: e455 00bd 0011 bf3c 88b9 203d ac4e d53d
000001f0: 939e 22bd fa36 1b3d 07c5 743d 8a2e 8a3e
0.03948941 -0.04304545 -0.048271965 -0.03518678 0.085547194 -0.09633659 -0.008422384 0.125673
0.0022205126 0.03349422 -0.023922369 -0.05604257 0.1358182 -0.013565156 -0.010418216 0.29667965
0.23435587 -0.076817475 0.056308035 -0.087625496 -0.086819135 -0.046478145 -0.072951645 0.009832966
0.027952686 0.03521076 0.032241005 0.005087086 -0.0005605589 0.0741597 -0.08358155 -0.056013253
-0.108771324 -0.07229519 -0.018681673 0.050915234 0.09439993 -0.054397013 0.0025026638 0.02308536
0.0039807074 -0.08064307 0.0019360501 0.04977746 -0.013758202 0.03819168 0.048773006 -0.06785567
0.05808777 -0.08570345 -0.056735814 0.21627703 0.034598026 0.05718474 0.26133803 -0.027090322
0.0731977 -0.07228218 0.008202461 -0.01333926 0.045899585 0.04694262 0.30104002 0.16542655
0.28819427 0.26542374 -0.013642727 0.3252726 0.014080957 -0.0408209 -0.0018627122 -0.0042798426
-0.008390042 0.0058680237 -0.040922128 -0.06920207 -0.07466507 0.012656907 -0.0478823 -0.022194069
0.096079454 0.07770409 0.016106075 0.03160571 0.047908667 0.004381431 0.08562467 -0.09105691
-0.057276405 -0.005152399 0.1319472 0.03448348 0.016416002 0.046890948 -0.119370036 -0.082772106
0.031686526 -0.04280945 0.03629308 -0.05010288 0.27637696 -0.077107236 0.030493477 -0.0031147595
-0.0638282 0.05358319 0.030769719 -0.063828886 -0.0476569 0.029644186 0.025267795 -0.03551278
0.025594778 0.034676544 -0.06469097 0.3353978 -0.001484527 0.021421354 -0.049546164 0.025848607
-0.03133191 0.023323536 0.039239436 0.10415396 -0.03970201 0.037894227 0.059758212 0.2698863

4.weight f4 [2, 128]
00000000: 57d2 e2bd c408 0cbe 75aa d5bd 206f c03c
00000010: 09aa 61be 7903 67bd 90e2 d03c 3f44 24be
00000020: bcc9 f9bd 6a2f 9d3c 8640 1c3d 0d27 e8bd
00000030: 485e 513e ccc3 8bbe 4b56 81bc 3613 bb3e
00000040: 7fff 3a3e 82df c73d e63f 2fbe 1f57 c6bd
00000050: 2f32 ec3b 7325 8d3c 7a8d c7bc f9ef 9bbd
00000060: a89f 2bbe 1885 773c 6228 b43c c59b c4bc
00000070: ff7d 3b3d ed7e 33be f011 28bc 1e7c 8c3b
00000080: 25ad e1bd d9a3 8d3d f9b3 dcbd 7cb0 943c
00000090: 2e95 3c3b d661 8ebd c1b8 7f3d 8800 9ebd
000000a0: 8551 343c ca5b 9a3d c277 aabd eadf f03d
000000b0: b6b5 7cbd aa2d edbd b2da f83c bc71 bcbc
000000c0: 255d afbd f43c d7bd dad6 db3d b96c 703e
000000d0: bfaa afbc 9b6d b63c 5e1f 5d3e 8bef 71bd
000000e0: 418d e33a 9fe5 803d 0ce8 c83a 59f4 7fbd
000000f0: 78f6 8c3d 65ff 9dbd cd83 d43e 052c c43e
00000100: 5de4 b23e 86aa 5b3e 390e 003c 76a1 9b3e
00000110: 10ed a5bd be82 9fbd 5d12 cabd 3423 afbc
00000120: 4c81 0abe 8092 38bd 402c 12be 2a8e 64bd
00000130: 60e1 a13c 8716 1d3d bcea bebd c2e9 e1bd
00000140: 2a84 25be eaa7 d2bd f04e 30be 1775 7d3d
00000150: 8e6a 983d 0320 d13d 65c8 1dbe f991 adbd
00000160: bd83 ad3d 5d81 e3bd 3f62 0cbe 2dfb 04be
00000170: 22d6 a83c 75e4 2fbe 0723 b8bd c289 ea3d
00000180: 896a 54be 1805 c5bb 6bd3 1b3d 1ef7 723d
00000190: 7625 7f3e c869 33bc 8610 d13c d4b7 4ebd
000001a0: 65e0 8fbb c2a1 a9bd 83e9 35bb 28ec e33b
000001b0: 7fec e13b 707a 7ebd 99f8 093e 5308 fbbd
000001c0: e93a 5f3d 0df2 fcbb 5705 e63c 2ed6 883e
000001d0: bb77 f4bd 2427 c4bc f912 80bd fcb3 00be
000001e0: 18a2 543d 261f 8cbd 360b a83d dfc3 2bbe
000001f0: 09ec b1bd b827 ccbd 62b4 ec3c 14d1 8e3e
00000200: 039a 7c3c 6d08 61bd b9fd 2d3d dcbc 24be
00000210: e06c 96bd 136c 813d 969a 293d 3796 453c
00000220: 5ae6 00be 1e5c 3bbe 0f7b ae3d 8978 07be
00000230: c09d 583e 178b f3bd 1137 05be 3b82 a53e
00000240: 0fc6 9d3e 7a91 1cbd 4786 11bd 9d15 f1bd
00000250: 994f 04bb e97b b03c e3f5 3b3d c4e1 763d
00000260: 6de6 c9bd 1f20 3d3d 228d babc 1be2 b93c
00000270: 64d6 c6bd 9c29 373d 5190 983d c813 f53b
00000280: fe84 03be 3e3b 023c 850d 26be 64cf 20be
00000290: 5721 df3d 3595 56be f294 16bd 401f 19be
000002a0: 4a8a 94bd 33ec d8bc 86bf 063c 1934 fcbd
000002b0: d27b 39be 8729 06be f21f b83b 8e12 01be
000002c0: 3a2e 4b3d 8d3a 4fbe 04dc c0bd febc 273e
000002d0: c2a4 cf3d bacc ae3d 2c93 283e faa5 80bc
000002e0: 0e89 86bb 6d5a a8bb da10 873b 3a55 fcbd
000002f0: abd4 89bb 50fa f5bd 2be7 c13e ec34 5a3e
00000300: f08c 6e3e b9ee 933e c1b4 413d d4ca a63e
00000310: b89d afbc 55f1 4bbd d418 dfbd 21b4 553d
00000320: bbef 443d 2dcf 68be 9ca4 08be 73b3 b13d
00000330: 635b 0c3d c9d3 14be 0895 a5bb fe63 a0bd
00000340: 85e6 dbbd 7510 3a3d 69d6 d6bd 2d09 2c3d
00000350: caca dfbd b403 a13d 7aa8 e4bd 86df 6ebe
00000360: 6d90 33bd e44a 7e3d 3138 cd3d b109 0dbd
00000370: e7e7 433d 8da3 24be 8f8a 2abe fbd3 96bd
00000380: 06ec 2fbe f64d 30be 8ce8 69bd 3738 49be
00000390: feda aa3e 87bf 28bd 02fd 74bc c0da acbd
000003a0: cd70 993c bedc 55be f8db 40be 119d 1abe
000003b0: 74b8 973d 1f7e abbd a636 29bd cec7 18be
000003c0: 5af5 8bbc 0552 39be 6332 a83d cef3 c43e
000003d0: 2b24 2fbd 5216 06bc aa92 523d db9f 6fbd
000003e0: 9023 603c 1b04 7bbd 6f3e 91bd 2333 063c
000003f0: 88fc f4bc 2283 303c 124f 023d 248e cf3e
-0.110752754 -0.13675219 -0.10432903 0.023490489 -0.2203752 -0.056399796 0.025498658 -0.16041659
-0.12196681 0.019187648 0.03814747 -0.11335573 0.20446122 -0.2729782 -0.015788218 0.36538094
0.18261527 0.097594276 -0.17114219 -0.09684586 0.007208131 0.017229771 -0.024359453 -0.076141305
-0.16760123 0.015107416 0.021991912 -0.024000058 0.045774456 -0.17528887 -0.010258183 0.004287257
-0.11019353 0.06916017 -0.107765146 0.01815056 0.0028775441 -0.069522545 0.062432054 -0.07714945
0.011005764 0.075370386 -0.08323623 0.11761458 -0.06169673 -0.11580975 0.03037772 -0.023003452
-0.08562688 -0.10509673 0.10734339 0.23478974 -0.021443723 0.02226906 0.21593997 -0.059066337
0.0017360823 0.06293797 0.0015327944 -0.062488887 0.06882948 -0.07714728 0.41506806 0.38314834
0.34939852 0.21451768 0.007815891 0.30396622 -0.08101857 -0.07788609 -0.09866784 -0.02137909
-0.13525885 -0.04506159 -0.14274693 -0.05579964 0.019760787 0.038351562 -0.09322116 -0.11030914
-0.16163698 -0.10285933 -0.17217612 0.061879244 0.07442199 0.10211184 -0.15408476 -0.08475108
0.08472393 -0.111086585 -0.13709353 -0.12986441 0.020609919 -0.17176993 -0.08991056 0.114520565
-0.20743765 -0.00601257 0.03804342 0.0593177 0.24916634 -0.010950513 0.025520574 -0.05046828
-0.0043907636 -0.08282806 -0.0027757592 0.0069556423 0.0068946476 -0.062128484 0.13473739 -0.12257447
0.05449954 -0.0077192844 0.028078718 0.26725906 -0.11936899 -0.023944445 -0.06253619 -0.12568659
0.051912397 -0.068418786 0.08205263 -0.16773938 -0.08687598 -0.09968513 0.028894607 0.2789389
0.015417579 -0.054939676 0.042478297 -0.16087669 -0.07344985 0.06319442 0.04140719 0.01205974
-0.12587872 -0.18296859 0.08519565 -0.13229574 0.21153927 -0.11891764 -0.13009287 0.3232592
0.3081517 -0.038224675 -0.035528447 -0.117717005 -0.0020189045 0.02154346 0.045888793 0.0602739
-0.09858403 0.04617321 -0.022772375 0.022690823 -0.097088605 0.044717416 0.07449401 0.0074791647
-0.12843701 0.007948695 -0.16216095 -0.15704113 0.10895031 -0.20955355 -0.03676314 -0.14953327
-0.07252939 -0.026479816 0.008224374 -0.12314624 -0.1811364 -0.13101779 0.0056190426 -0.12604734
0.049604632 -0.20237179 -0.09416965 0.16380689 0.10138847 0.08535142 0.16462392 -0.015704144
-0.0041056937 -0.0051377327 0.004121882 -0.12320943 -0.00420626 -0.12010634 0.3787168 0.2130925
0.23295951 0.28893068 0.04729152 0.3257662 -0.02143751 -0.0497907 -0.108934075 0.052173737
0.048080187 -0.22735281 -0.13344043 0.08676805 0.03426684 -0.14533915 -0.0050531663 -0.07831572
-0.107373275 0.04542585 -0.10490114 0.04200094 -0.10927351 0.078620344 -0.11164947 -0.23327455
-0.043838907 0.06208314 0.10020483 -0.03443307 0.04782858 -0.16078015 -0.16654418 -0.07364651
-0.1717988 -0.1721724 -0.05710654 -0.1965035 0.33370203 -0.04119828 -0.0149529 -0.08440161
0.018730545 -0.20884988 -0.18833911 -0.15098979 0.074082285 -0.08373665 -0.041311882 -0.1491997
-0.017084766 -0.18097694 0.082127355 0.38467258 -0.0427591 -0.0081840325 0.0514094 -0.05850206
0.013680354 -0.061283212 -0.070919864 0.008190903 -0.029905573 0.010773452 0.03181369 0.40538132

4.bias f4 [2]
00000000: 8f8c aabc 889f 903d
-0.020818977 0.07061678
