checkpoints/dqn/20251120-2008/ckpt_ep300.pth (torch, 72697 bytes, 6 tensors)

0.weight f4 [128, 4]
0	0x3ea38f29	0.3194516
1	0x3eea94af	0.45816562
2	0x3d9a1587	0.07523637
3	0x3f0dd71d	0.5540636
4	0xbe514fa7	-0.20440541
5	0x3d38ab1e	0.045085065
6	0xbd34b15b	-0.04411445
7	0x3edc211e	0.42994016
8	0x3edaf88f	0.4276776
9	0xbeb8534a	-0.36001045
10	0x3ef7674d	0.48321
11	0x3de1bb41	0.11022044
12	0x3ebd2294	0.36940444
13	0x3d8aae50	0.06771529
14	0x3e76e15c	0.24109405
15	0xbd909460	-0.0705955
16	0x3e8f86d4	0.28032553
17	0xbccefc75	-0.025266865
18	0xbea02a07	-0.31282064
19	0x3dea4de0	0.11440635
20	0xbe99c5e2	-0.30033785
21	0xbdced022	-0.10098292
22	0xbd8b9648	-0.06815773
23	0x3ed8463d	0.42241088
24	0xbec01f88	-0.37524056
25	0xbeb7d05c	-0.35901153
26	0xbea4d1ac	-0.32191217
27	0xbea8c116	-0.32959813
28	0x3dea683f	0.114456646
29	0xbf044f54	-0.51683545
30	0x3e96d01e	0.29455656
31	0xbf072bb4	-0.5280106
32	0x3eb919c7	0.3615248
33	0x3e581092	0.21100071
34	0x3c213987	0.009840376
35	0x3ec190dc	0.3780583
36	0x3d34a17e	0.044099323
37	0x3e82812a	0.2548917
38	0xbdd7e5a5	-0.10541848
39	0xbe57970c	-0.21053714
40	0x3dd4732b	0.10373529
41	0xbd23e617	-0.040014353
42	0x3ed08ab5	0.40730825
43	0x3f09f5e9	0.53890854
44	0x3e3a8233	0.1821373
45	0xbe856d13	-0.2605978
46	0x3ecbe8c1	0.39826015
47	0x3e2b0368	0.16700518
48	0x3e793159	0.24335231
49	0xbec96673	-0.39335975
50	0xbf2a0b18	-0.6642318
51	0xbe75231f	-0.23939179
52	0xbec3d8a9	-0.38251236
53	0x3ed55381	0.4166527
54	0x3e1f262e	0.15541908
55	0x3e4c3459	0.19941844
56	0x3e11ac75	0.14225943
57	0xbd9e37dc	-0.07725498
58	0x3e64af1a	0.22332421
59	0xbeda5d6d	-0.42649403
60	0xbd94acd1	-0.072595246
61	0xbee0ec1a	-0.4393013
62	0x3e4e6f48	0.20159638
63	0xbdbf9b7d	-0.09355829
64	0x3e19eedd	0.15032525
65	0xbe33817f	-0.17529868
66	0x3e85e0c4	0.26148045
67	0xbeb74106	-0.35791796
68	0xbeb9cf65	-0.36291042
69	0xbea1f655	-0.3163325
70	0x3f1712db	0.59013146
71	0x3e7f4579	0.24928845
72	0x3f18c0cf	0.596692
73	0xbec732bc	-0.38905895
74	0xbf20f7b4	-0.62877965
75	0xbeefc21d	-0.46827784
76	0xbec3240a	-0.38113433
77	0x3e81251b	0.25223622
78	0x3ec8529f	0.39125535
79	0x3f0aab6d	0.54167825
80	0xbe684513	-0.226826
81	0xbeaecfa7	-0.341428
82	0x3e818e93	0.25304088
83	0xbe586a26	-0.21134242
84	0x3e98b519	0.29825667
85	0xbe41abc5	-0.18913181
86	0x3dc1426e	0.094364986
87	0xbef0e169	-0.47046974
88	0xbe7b07b8	-0.24514663
89	0x3de2599c	0.11052248
90	0xbd6d617f	-0.057954308
91	0xbe41f776	-0.18942055
92	0x3eaaaf4b	0.33336863
93	0x3e8c7efa	0.27440625
94	0xbefd29ff	-0.49446103
95	0xbea9c865	-0.331607
96	0x3ef50fa5	0.47863498
97	0xbe541e7d	-0.20714755
98	0xbec69eff	-0.3879318
99	0xbf2322e8	-0.6372514
100	0xbe3b356d	-0.18282099
101	0x3dd9ab29	0.10628349
102	0xbe52a345	-0.20570095
103	0xbedb647f	-0.4285011
104	0xbcad8941	-0.021183612
105	0xbed6f186	-0.41981143
106	0xbf219939	-0.63124424
107	0xbef5e021	-0.4802256
108	0xbf09a589	-0.5376821
109	0xbeaf4c83	-0.3423806
110	0x3f209c6a	0.6273867
111	0x3e3934c3	0.18086533
112	0x3df4d82d	0.11955295
113	0xbf1b90fa	-0.6076809
114	0xbec340e5	-0.38135448
115	0xbd69737d	-0.056994904
116	0x3e3a9968	0.18222582
117	0xbed9cae9	-0.4253762
118	0xbebfbc77	-0.37448475
119	0xbed80eff	-0.4219894
120	0x3db6616e	0.08905302
121	0xbe72ff2b	-0.23730151
122	0xbe51cb94	-0.20487815
123	0xbede0cf4	-0.43369257
124	0xbe665d4e	-0.2249653
125	0xbe9fade5	-0.31187358
126	0xbea51737	-0.32244274
127	0xbeebb865	-0.4603912
128	0x3e983951	0.2973123
129	0xbe0a9925	-0.13534983
130	0x3f0b16ae	0.5433148
131	0x3e65ab3b	0.224286
132	0xbed39bc7	-0.41329786
133	0x3e979ec1	0.29613307
134	0xbe8e8086	-0.2783243
135	0xbe88e030	-0.2673354
136	0xbf01e9d0	-0.50747395
137	0xbf0874f3	-0.5330345
138	0x3e7756dd	0.2415423
139	0xbcf64d3d	-0.030066127
140	0x3dc2808f	0.09497177
141	0xbf0768ec	-0.52894473
142	0x3eb365f8	0.35038733
143	0xbea45c42	-0.32101637
144	0xbe34ec4c	-0.17668265
145	0x3ddc99fe	0.10771559
146	0x3eb55eb4	0.35423815
147	0x3ee174e2	0.44034487
148	0x3ecad095	0.3961226
149	0xbf203f8f	-0.6259698
150	0x3d411d40	0.047147036
151	0xbd99a27e	-0.07501696
152	0x3d19f583	0.037587654
153	0xbed3bb44	-0.4135381
154	0x3e87b6ce	0.26506656
155	0xbef5eb8e	-0.48031276
156	0x3e781b06	0.24229059
157	0x3dd9431e	0.10608505
158	0xba4549de	-0.00075259607
159	0xbeb570d4	-0.35437644
160	0x3efde527	0.49588892
161	0x3d7334f2	0.059376664
162	0xbd9da293	-0.07697024
163	0xbf03e8dd	-0.51527196
164	0x3dec101c	0.1152651
165	0xbddb00b9	-0.10693497
166	0xbdd4aef4	-0.10384932
167	0x3f028194	0.5097897
168	0x3d367fc9	0.04455546
169	0xbeb634d6	-0.35587186
170	0xbe2e1973	-0.17001896
171	0x3d8e0486	0.069344565
172	0x3e8ef0c4	0.27918065
173	0xbe02d554	-0.1277669
174	0xbe921132	-0.28528744
175	0xbe2f54ac	-0.17122144
176	0xbecc7d66	-0.3993942
177	0x3d894342	0.067022815
178	0x3e6aaa32	0.22916487
179	0xbf0322a7	-0.5122475
180	0x3e0c68b0	0.1371181
181	0x3e763496	0.24043497
182	0xbd80bc71	-0.06285942
183	0xbe8c4831	-0.27398828
184	0x3e740148	0.23828614
185	0x3e5ffd94	0.21874076
186	0x3d2bd615	0.04195221
187	0xbe2a7d4d	-0.16649361
188	0xbe0ffa1c	-0.14060253
189	0xbc4866b8	-0.012231521
190	0xbe6baf22	-0.23016027
191	0xbe43e2c6	-0.19129476
192	0x3e8ba4c4	0.27274144
193	0x3eb3864c	0.35063398
194	0xbe46d3d6	-0.19416746
195	0xbe3b61a2	-0.18298963
196	0xbdcf31ff	-0.10116958
197	0xbd8b6b04	-0.06807521
198	0x3e775147	0.24152099
199	0x3e781818	0.24227941
200	0xbefc4c68	-0.49277043
201	0xbe29dc11	-0.16587855
202	0x3f0fd5a0	0.5618534
203	0x3e8cb680	0.27482986
204	0x3d445e34	0.0479414
205	0xbe97c9f6	-0.2964627
206	0xbf057c0f	-0.52142423
207	0xbf1bbd55	-0.6083577
208	0xbe83b1bf	-0.25721547
209	0x3e287b8b	0.16453378
210	0x3f1166fe	0.5679778
211	0x3ed3fb7e	0.4140281
212	0xbef60199	-0.48048094
213	0xbe851870	-0.25995207
214	0x3dbf6a38	0.093464315
215	0x3f1295d1	0.5725985
216	0x3d942118	0.07232875
217	0xbe0497d0	-0.12948537
218	0x3e53d27c	0.20685762
219	0xbe4302e8	-0.19044077
220	0xbe8bde1e	-0.273179
221	0x3ebe22ef	0.37136027
222	0xbe908a53	-0.28230533
223	0xbdf4616f	-0.119326465
224	0xbeeeff25	-0.46679035
225	0x3eba052d	0.36332074
226	0x3ed5cf52	0.41759735
227	0x3e592a5e	0.21207568
228	0xbec47a4f	-0.38374564
229	0xbf086821	-0.5328389
230	0xbea03376	-0.31289262
231	0x3ee072b5	0.43837515
232	0x3eb76540	0.35819435
233	0x3f19c4f4	0.6006615
234	0x3efec6d6	0.49761075
235	0x3ead8e78	0.33897758
236	0x3d8a92ed	0.06766305
237	0xbec05ad7	-0.37569305
238	0xbf28e4ed	-0.65974313
239	0xbf2900ff	-0.66017145
240	0x3e95dee2	0.2927161
241	0xbe73525d	-0.23761888
242	0xbea5a5e6	-0.32353133
243	0xbee1e482	-0.4411965
244	0xbe45aa1c	-0.19303173
245	0xbed42d67	-0.4144089
246	0xbe628dc5	-0.22124393
247	0x3e8415b7	0.25797817
248	0xbe199da1	-0.15001537
249	0x3e5c9373	0.21540622
250	0xbeb14537	-0.3462312
251	0xbedbff5c	-0.4296826
252	0x3c24d4a7	0.010060466
253	0xbe85037d	-0.25979224
254	0xbea1c515	-0.31595674
255	0xbf115b5e	-0.5678004

0.bias f4 [128]
0	0x3e46e351	0.19422652
1	0xbe73d4ff	-0.2381172
2	0xbe9f9732	-0.3117004
3	0xbed4d57c	-0.41569126
4	0x3f179bf3	0.59222335
5	0xbed39941	-0.4132786
6	0x3f0edfb9	0.55810124
7	0xbde2330c	-0.11044893
8	0xbd356ccb	-0.044293206
9	0x3f001457	0.50031036
10	0xbd78fb50	-0.060786545
11	0x3f004d33	0.50117797
12	0x3f01d75c	0.5071924
13	0xbedea601	-0.43486026
14	0x3ea921ba	0.33033544
15	0x3e6d6c2c	0.23185796
16	0x3e336fc6	0.17523107
17	0x3dc4faf7	0.0961818
18	0x3d79146a	0.060810484
19	0xbe04fff0	-0.12988257
20	0xbd8af7a9	-0.06785519
21	0x3f10b30d	0.5652321
22	0x3f034bd4	0.5128758
23	0xbd86c942	-0.06581356
24	0xbe99183a	-0.29901296
25	0xbd185f84	-0.037200466
26	0xbe4f5ff6	-0.2025145
27	0x3f109028	0.56469965
28	0xbe2d4f06	-0.16924676
29	0xbdefacb3	-0.11702862
30	0xbe0c7f8e	-0.13720533
31	0xbb7d355b	-0.0038636539
32	0x3f270c79	0.65253407
33	0x3db2bddb	0.08727618
34	0x3eee0ef2	0.46495777
35	0x3f0af6ee	0.54283035
36	0x3f16b62a	0.5887171
37	0x3d4f164e	0.05055838
38	0xbdf7c3b9	-0.12097878
39	0x3e9b3957	0.30317184
40	0xbe194f83	-0.14971738
41	0x3e99f793	0.30071697
42	0xbc5bd3c8	-0.013417192
43	0xbeada1f2	-0.33912617
44	0x3ebc4476	0.36770982
45	0x3e30d1bd	0.17267509
46	0x3eba55a6	0.3639347
47	0x3f2c930f	0.67411894
48	0x3ef89d56	0.48557538
49	0x3f272d52	0.6530353
50	0x3d018588	0.031621486
51	0xbe9187aa	-0.28423816
52	0xbe12ff1c	-0.14355129
53	0xbe8d973d	-0.27654448
54	0xbee1997e	-0.44062418
55	0xbe84b895	-0.25922075
56	0xbefa15d9	-0.48844793
57	0xbee21a48	-0.44160676
58	0xbdd77093	-0.10519519
59	0xbea6644f	-0.32498404
60	0xbe2fdab7	-0.17173277
61	0x3e9ad23b	0.30238518
62	0x3f11792b	0.5682551
63	0xbe1fa1a2	-0.15589002
64	0xbe052e65	-0.1300598
65	0x3ee6d318	0.45082927
66	0xbe598e26	-0.21245632
67	0xbe35b3fb	-0.17744438
68	0x3ef1406a	0.47119457
69	0xbeba1808	-0.3634646
70	0xbd498ce4	-0.04920663
71	0x3f0953ad	0.53643304
72	0x3c8b7c60	0.01702708
73	0x3e6f1ddf	0.23351239
74	0xbeaae691	-0.33379033
75	0xbdbcd334	-0.09219971
76	0x3e32f08b	0.17474572
77	0x3d7eaf32	0.062178798
78	0x3ed4418c	0.41456258
79	0x3f1599fe	0.584381
80	0xbe8d38d7	-0.27582428
81	0xbda6217a	-0.08111854
82	0xbe27a2fb	-0.16370766
83	0xbe98c249	-0.29835728
84	0xbd904e5c	-0.07046196
85	0xbe96c9d9	-0.29450873
86	0x3f032def	0.51241964
87	0x3cdff113	0.027336633
88	0xbe58de79	-0.21178617
89	0x3ecc269a	0.398732
90	0xbe86f1ef	-0.26356456
91	0xbe333929	-0.17502274
92	0xbdb75968	-0.089526
93	0xbedc9516	-0.43082494
94	0xbe94417e	-0.28956217
95	0xbdb68d05	-0.08913616
96	0x3ef8b8e9	0.48578575
97	0x3f2631a3	0.6491949
98	0x3ec51ee8	0.38500142
99	0xbea0261d	-0.31279078
100	0xbe9b2e8c	-0.3030895
101	0x3f167340	0.5876961
102	0x3ea27e65	0.31737056
103	0x3d1bb23b	0.03801177
104	0xbb295c28	-0.0025842283
105	0xbeb5fa7b	-0.35542664
106	0xbe23aae6	-0.15983161
107	0x3f262c96	0.6491178
108	0xbd42e125	-0.047577996
109	0x3b25598e	0.002523038
110	0xbe369379	-0.17829694
111	0xbe6cb563	-0.23116069
112	0xbddf84e8	-0.10914022
113	0xbe7ea6a1	-0.24868251
114	0xbe125e2c	-0.14293736
115	0x3e876445	0.26443687
116	0xbefa69d4	-0.48908865
117	0x3dd44b84	0.10365966
118	0xbe74316e	-0.23846981
119	0xbe815e54	-0.2526728
120	0x3eb9751f	0.3622217
121	0x3f14b40c	0.5808723
122	0xbd3299a2	-0.043603547
123	0xbe52361c	-0.20528454
124	0xbee6037e	-0.4492454
125	0xbe5cf665	-0.21578367
126	0xbead703c	-0.3387469
127	0xbe09bc13	-0.13450651

2.weight f4 [128, 128]
0	0x3d9a4140	0.07531977
1	0xbcf77c7e	-0.03021073
2	0x3e06f310	0.13178658
3	0x3d6323c6	0.055454038
4	0xbd89ea21	-0.0673411
5	0xbb055aeb	-0.002034838
6	0xbd18fc03	-0.037349712
7	0xbd45dde4	-0.048307315
8	0x3d2c7738	0.042105883
9	0xbd36d145	-0.04463317
10	0x3e04c56d	0.12965937
11	0xbc9e108e	-0.019295003
12	0xbc0ee227	-0.008720911
13	0x3d1ab395	0.03776892
14	0xbd31e5b5	-0.043431956
15	0x3d3b5313	0.045733523
16	0xbdaadd6d	-0.08343015
17	0xbcaa07b0	-0.020755619
18	0xbd9b722d	-0.07590137
19	0x3e22710f	0.15863441
20	0xbd940566	-0.07227592
21	0xbd0bc97d	-0.0341277
22	0xbdd0c2dd	-0.10193417
23	0x3d815000	0.06314087
24	0x3da5a404	0.08087924
25	0xbd0b5d4b	-0.034024518
26	0x3c6a2d84	0.014293078
27	0x3cae5c3f	0.02128422
28	0xbd55108b	-0.05201773
29	0xbdf40826	-0.11915617
30	0xbd1cf7b4	-0.038322166
31	0xbcef9ed9	-0.02925055
32	0x3e031047	0.12799178
33	0x3b97a945	0.004628333
34	0xbd888edd	-0.06667874
35	0x3d32d5c3	0.04366089
36	0x3cc74eab	0.024329504
37	0xbe263795	-0.1623214
38	0xbe0180e9	-0.12646832
39	0xbd270ef4	-0.040785745
40	0x3d9e668f	0.07734405
41	0x3d56e635	0.052465636
42	0xbd8009ae	-0.06251846
43	0x3cdee138	0.027207002
44	0xbdd6b2dc	-0.104833335
45	0x3da5c058	0.08093327
46	0xbd9c7c8a	-0.076409414
47	0xbd56aec9	-0.052412782
48	0xbdba58d6	-0.09098975
49	0xbbea40e1	-0.0071488474
50	0x3d83fd37	0.06444781
51	0x3d930b92	0.07179941
52	0x3df12a3d	0.117756344
53	0x3df54198	0.11975402
54	0x3c8daad4	0.017293371
55	0x3d221cf8	0.039578408
56	0x3da3d834	0.08000222
57	0x3dbdefc8	0.0927425
58	0xbca7c308	-0.02047874
59	0x3d90bdf1	0.070674784
60	0x3da6a836	0.081375524
61	0xbd0a57cf	-0.033775147
62	0xbdccf84e	-0.10008298
63	0xbdd21d26	-0.10259466
64	0x3d9002a3	0.07031753
65	0xbd9ca47e	-0.07648562
66	0x3dd208db	0.10255595
67	0xbb7a030e	-0.0038148793
68	0xbd66130e	-0.056170516
69	0xbcc96808	-0.024585739
70	0xbd78737c	-0.06065701
71	0x3d7b5da7	0.06136861
72	0x3d1190d9	0.035538528
73	0xbe02ea7d	-0.12784763
74	0x3c35cd29	0.011096277
75	0x3d69ba5c	0.05706249
76	0x3da34b59	0.07973356
77	0xbc29b74b	-0.010358642
78	0x3ccbbf95	0.024871627
79	0xbc513491	-0.01276888
80	0x3ca68434	0.020326711
81	0xbc822340	-0.01588595
82	0x3d8cf38f	0.068823926
83	0x3cb679f7	0.022274954
84	0xbcecb491	-0.028894695
85	0x3d2db569	0.042409334
86	0x3d049350	0.03236705
87	0xbc66861e	-0.014070062
88	0xbd90cd58	-0.07070416
89	0xbbb6deb8	-0.0055807494
90	0xbd9385cd	-0.07203255
91	0xbd7084c4	-0.058720365
92	0xbc8733e0	-0.016504228
93	0x3b8e61d2	0.004345157
94	0x3d3c0413	0.045902323
95	0x3df57f60	0.119871855
96	0xbdb6ecda	-0.089318946
97	0xbdd0e811	-0.10200513
98	0x3cd8e2f3	0.026475405
99	0xbb3da755	-0.002893885
100	0x3d64e734	0.055884555
101	0xbd1cd14a	-0.03828553
102	0xbd7227d1	-0.059120003
103	0x3db30deb	0.08742889
104	0xbda0e1ee	-0.07855593
105	0xbb10b5c1	-0.002208099
106	0x3da6dda1	0.08147741
107	0xbd2e65e6	-0.042577647
108	0x3ca91783	0.020641094
109	0x3dd295e3	0.10282495
110	0x3dbec719	0.093153186
111	0x3d8cfc02	0.06884004
112	0xbd53a92a	-0.051675
113	0xbd5d1e39	-0.0539839
114	0x3db77b86	0.08959107
115	0xbdea635b	-0.11444732
116	0x3a362c00	0.00069493055
117	0x3dd2e346	0.10297255
118	0xbc3856ad	-0.011251134
119	0x3dc89214	0.09793487
120	0xbd444178	-0.047914
121	0xbc915b11	-0.01774362
122	0xbc3fac7b	-0.011698837
123	0xbd6becfc	-0.057599053
124	0xbd947ada	-0.072499946
125	0x3dc41a4e	0.0957533
126	0x3d0929a6	0.033486985
127	0xbdd7ed4b	-0.10543307
128	0xbe08dde4	-0.13365895
129	0x3db2e9e9	0.08736021
130	0x3d0a6246	0.033785127
131	0x3d11441e	0.035465352
132	0xbd9e2e6e	-0.077236995
133	0xbd5defa3	-0.054183614
134	0xbbe8757e	-0.0070940843
135	0x3d4f5006	0.050613426
136	0xbdb6b9fd	-0.08922193
137	0xbbc82133	-0.0061074733
138	0x3b8da719	0.004322898
139	0xbdb8414f	-0.089968316
140	0x3cd5cc6e	0.026098456
141	0xbd0f7e87	-0.035032775
142	0x3cd86757	0.026416464
143	0x3d5dfdd8	0.054197162
144	0xbd11ec9b	-0.035626035
145	0xbe1f2ce2	-0.15544465
146	0x3dacbec5	0.08434824
147	0x3cacb814	0.021083869
148	0xbc2e03d9	-0.010621035
149	0x3dae3484	0.0850611
150	0xbd5ea272	-0.05435414
151	0x3d9afd8c	0.075678915
152	0x3e0a3faf	0.13500856
153	0xbd65bdee	-0.056089334
154	0x3e2a2ff1	0.1661985
155	0xbe30bf0e	-0.17260382
156	0xbd4383b4	-0.047733024
157	0x3d80c31a	0.06287213
158	0xb94e33c6	-0.00019664978
159	0x3df668c1	0.12031699
160	0xbdcc3108	-0.099702895
161	0x3d1bd278	0.038042516
162	0xbdbf7170	-0.09347808
163	0x3d56a35d	0.05240189
164	0xbe3448f0	-0.17605948
165	0xbc9cce7d	-0.01914143
166	0x3df50ed7	0.11965721
167	0x3d2cfda1	0.042234067
168	0x3dd5c7bb	0.10438486
169	0xbe10602b	-0.14099185
170	0xbd5546fa	-0.05206964
171	0x3c8b3694	0.016993798
172	0x3cc5562c	0.024088942
173	0x3d0623d8	0.032749027
174	0x3d097a59	0.033563945
175	0xbcf74c4c	-0.030187748
176	0x3d14027d	0.036135186
177	0xbabd7387	-0.0014453985
178	0xbe09c23c	-0.13453001
179	0x3e55403f	0.20825289
180	0x3d30e27a	0.043184735
181	0x3bce57cd	0.0062970878
182	0xbd4dbcb4	-0.05022879
183	0xbd105c0c	-0.035244033
184	0xbcd15be4	-0.025556512
185	0xbd8de362	-0.069281355
186	0xbc63e6a7	-0.013909972
187	0x3dfae2d6	0.12250297
188	0x3e5d43d2	0.21607903
189	0xbda1670b	-0.07880982
190	0x3d552fb9	0.052047465
191	0x3d4b6245	0.049654264
192	0xbdd1c213	-0.10242095
193	0xbd53a335	-0.05166932
194	0xbd71a777	-0.058997598
195	0x3e071b03	0.13193898
196	0xbda75412	-0.08170332
197	0x3cd8d3e7	0.02646823
198	0x3d7d93db	0.061908584
199	0xbe04d300	-0.12971115
200	0x3d4b6025	0.049652237
201	0xbd6b5356	-0.057452522
202	0xbd838e67	-0.064236455
203	0xbd28d48a	-0.041218318
204	0xbd93b498	-0.0721218
205	0xbddd4943	-0.10804989
206	0xbe22fef5	-0.15917571
207	0xbd3923a8	-0.04520002
208	0xbaf6cef4	-0.0018829987
209	0x3e00ca24	0.1257711
210	0xbd3d6b36	-0.046244822
211	0x3c298214	0.010345954
212	0xbd87645c	-0.06610939
213	0x3de9a97a	0.11409278
214	0xbd81b727	-0.06333762
215	0xbc165e3a	-0.009177739
216	0x3dd890d1	0.105744965
217	0xbd821d77	-0.06353276
218	0xbb521730	-0.0032057278
219	0x3dfbfc37	0.123039655
220	0xbce45798	-0.0278738
221	0xbd3531bb	-0.04423688
222	0x3dcee4d9	0.10102243
223	0xbd9b5292	-0.075841084
224	0xbd3b4128	-0.045716435
225	0x3d92aa74	0.071614176
226	0x3d85c886	0.065323874
227	0x3d3007cf	0.042976197
228	0x3d218fdd	0.03944384
229	0xbd7a1b6f	-0.06106132
230	0xbc13d7b8	-0.009023599
231	0x3db52c5b	0.08846351
232	0x3d21911c	0.039445028
233	0xbcba49d2	-0.022740278
234	0x3c810498	0.01574926
235	0xbd80613c	-0.06268546
236	0x3d15c564	0.0365652
237	0xbd3f794c	-0.046746537
238	0x3d6b8872	0.05750317
239	0xbc802924	-0.015644617
240	0x3db11a5c	0.08647606
241	0x3d15704c	0.036484048
242	0x3ca0999c	0.019604497
243	0x3d754d10	0.059887946
244	0x3d62deba	0.05538819
245	0x3bc70066	0.0060730455
246	0x3d8b29cf	0.06795084
247	0xbe0a0215	-0.13477357
248	0xbd9dba93	-0.07701602
249	0xbc456abb	-0.012049372
250	0xbd4c2617	-0.049841013
251	0xbcbcdb94	-0.023053922
252	0x3b9ed906	0.0048476486
253	0xbd40eb6d	-0.04709952
254	0x3dde2615	0.10847107
255	0x3d87efd5	0.06637541

2.bias f4 [128]
0	0x3ae01536	0.0017096165
1	0xbd0b6490	-0.03403145
2	0xbd396928	-0.0452663
3	0xbcd5378d	-0.026027465
4	0x3da2bb7f	0.07945918
5	0xbdc54c1e	-0.09633659
6	0xbc09fe0a	-0.008422384
7	0x3dcd68a8	0.10029727
8	0x3c4aec8f	0.0123855015
9	0x3cafd0bc	0.021461837
10	0xbcc3f8d8	-0.023922369
11	0xbd587cb5	-0.052853305
12	0x3dc45a1b	0.09587499
13	0xbc0677db	-0.008207287
14	0x3c0db037	0.00864797
15	0x3e82f69d	0.25578776
16	0x3e485413	0.19563322
17	0xbd05f88e	-0.032707743
18	0x3d4bb9de	0.049737804
19	0xbdbb08a6	-0.09132509
20	0xbdb1b57c	-0.086771935
21	0xbd3e5fde	-0.046478145
22	0xbd952d72	-0.07284059
23	0x3c211a73	0.009832966
24	0x3d232ad7	0.039835777
25	0x3d103928	0.03521076
26	0x3d040f25	0.032241005
27	0x3ba9cafc	0.0051816683
28	0x3c9de776	0.019275408
29	0x3d976e45	0.07394079
30	0xbdab2cce	-0.08358155
31	0xbd656e27	-0.056013253
32	0xbde19af0	-0.1101588
33	0xbd905e1f	-0.07049202
34	0xbc1e80f9	-0.009674304
35	0x3d86d955	0.065844215
36	0x3d99806e	0.07495199
37	0xbd5ba4b3	-0.053623866
38	0x3b2403bb	0.0025026638
39	0x3d19511f	0.03743088
40	0x3be9cdca	0.0071351277
41	0xbda52832	-0.08064307
42	0x3afdc310	0.0019360501
43	0x3cf9b0b3	0.030479765
44	0xbc2af6e7	-0.010434843
45	0x3d4f1a35	0.050562102
46	0x3d47c63b	0.04877303
47	0xbd4cd7bc	-0.050010428
48	0x3d6ded71	0.05808777
49	0xbdb328a2	-0.087479845
50	0xbdbf597f	-0.09343242
51	0x3e36f405	0.17866524
52	0x3cd551cd	0.026039982
53	0x3d6a3a8c	0.05718474
54	0x3e64af3a	0.22332469
55	0xbcddec86	-0.027090322
56	0x3d95e8ad	0.0731977
57	0xbd9408ae	-0.07228218
58	0x3c06639d	0.008202461
59	0xbbeb7f79	-0.007186827
60	0x3d3c0134	0.045899585
61	0x3d3408be	0.04395365
62	0x3e85100f	0.25988814
63	0x3e0335c2	0.12813476
64	0x3e7f968f	0.24959777
65	0x3e65b3ba	0.22431841
66	0xbc5f85bf	-0.013642727
67	0x3e91417d	0.28370276
68	0x3c66b3d0	0.014080957
69	0xbd1cf794	-0.038322046
70	0xba07d9e0	-0.0005182307
71	0xbc43ff32	-0.011962699
72	0xbb123665	-0.0022310254
73	0x3a810bc2	0.0009845423
74	0xbd2e4ba4	-0.042552605
75	0xbd8db9d1	-0.06920207
76	0xbd98ea00	-0.07466507
77	0x3ceea1f8	0.029129967
78	0xbd22d844	-0.03975703
79	0xbc826694	-0.015918054
80	0x3ddc5075	0.107575335
81	0x3db9cefa	0.09072681
82	0x3c740055	0.014892657
83	0x3d017515	0.0316058
84	0x3d33bf4f	0.043883618
85	0xbd9dd4f1	-0.07706631
86	0x3dd2c56e	0.10291563
87	0xbdba55d7	-0.09098404
88	0xbd6a9aaa	-0.057276405
89	0xbc164520	-0.009171754
90	0x3dfabfc3	0.12243607
91	0x3ce3a019	0.027786301
92	0x3c867ada	0.016416002
93	0x3d7b26d5	0.06131633
94	0xbdf4648f	-0.119332425
95	0xbd324510	-0.043522894
96	0x3d46c742	0.04852987
97	0xbd4ae99c	-0.049539194
98	0x3d14a80d	0.03629308
99	0xbda1c61e	-0.07899116
100	0x3e707c3e	0.23484895
101	0xbd9dea66	-0.077107236
102	0x3cfd7665	0.030940244
103	0xbadf3b42	-0.001703121
104	0xbd82b85c	-0.0638282
105	0x3d4faffb	0.050704937
106	0x3d4cb7a2	0.049979813
107	0xbd76951f	-0.060200807
108	0xbd4333e2	-0.0476569
109	0x3d046909	0.03232673
110	0x3cbac028	0.022796705
111	0xbcf23862	-0.029567901
112	0x3cd1ac24	0.025594778
113	0x3d55e399	0.052219007
114	0xbd847cb3	-0.06469097
115	0x3e963cc1	0.29343227
116	0x3b5d53c7	0.003377186
117	0x3caf7bd6	0.021421354
118	0xbd4af0eb	-0.049546164
119	0x3b9f16b3	0.004855001
120	0xbd0055e4	-0.03133191
121	0x3cd547ea	0.026035268
122	0x3d20baad	0.039240528
123	0x3dbbfdbf	0.091792576
124	0xbd18332b	-0.037158173
125	0x3d0c3f61	0.03424013
126	0x3d74c507	0.059758212
127	0x3e694e40	0.22783756

4.weight f4 [2, 128]
0	0xbd6247db	-0.055244308
1	0xbe15d7d9	-0.1463312
2	0xbdc3455a	-0.09534712
3	0x3c56a7ad	0.0131015
4	0xbe04a706	-0.1295434
5	0xbd670379	-0.056399796
6	0x3cd0e290	0.025498658
7	0xbdd8140d	-0.105506994
8	0xbdde8a04	-0.10866168
9	0xbbfdee67	-0.007749367
10	0x3d1c4086	0.03814747
11	0xbe0af4c8	-0.13569939
12	0x3e461537	0.1934403
13	0xbe1ec402	-0.15504459
14	0xbab098b0	-0.0013473239
15	0x3eadf80c	0.33978307
16	0x3e2f8897	0.17141949
17	0x3dfcae55	0.12337939
18	0xbdaf2cfb	-0.08553501
19	0xbe006c3b	-0.12541287
20	0x3bec734a	0.007215892
21	0x3c8d2573	0.017229771
22	0xbcc8844e	-0.02447715
23	0xbd9beff9	-0.076141305
24	0xbdd43f57	-0.103636436
25	0x3c778518	0.015107416
26	0x3cb42862	0.021991912
27	0xbcc564aa	-0.024095852
28	0x3d8ceac0	0.068807125
29	0xbe0b787a	-0.13620177
30	0xbc2811f0	-0.010258183
31	0x3b8c7c1e	0.004287257
32	0xbe073482	-0.13203624
33	0x3d8f5f6d	0.07000623
34	0xbdb57e13	-0.088619374
35	0x3cfe5227	0.031045033
36	0xbcbdb149	-0.023155825
37	0xbdb9b66d	-0.09067998
38	0x3d7fb8c1	0.062432054
39	0xbd6dca80	-0.058054447
40	0x3c345185	0.011005764
41	0x3d9a5bca	0.075370386
42	0xbdaa77c2	-0.08323623
43	0x3de34fec	0.11099228
44	0xbdb04b79	-0.08608145
45	0xbdcabac1	-0.09898902
46	0x3cf8dab2	0.03037772
47	0xbcc61ffe	-0.024185177
48	0xbdaf5d25	-0.08562688
49	0xbdc31541	-0.09525538
50	0x3d6738e0	0.056450725
51	0x3e5c6cb9	0.2152585
52	0xbd6dbeee	-0.058043413
53	0x3cb66d9b	0.02226906
54	0x3e4c501b	0.19952433
55	0xbd71ef8b	-0.059066337
56	0x3ae38d41	0.0017360823
57	0x3d80e59f	0.06293797
58	0x3ac8e80c	0.0015327944
59	0xbd57d2dc	-0.052691326
60	0x3d8cf678	0.06882948
61	0xbdce8597	-0.10084074
62	0x3ec84bbd	0.39120284
63	0x3eb87e93	0.36034068
64	0x3ea7565e	0.3268308
65	0x3e461d74	0.19347173
66	0x3c000e39	0.007815891
67	0x3e905b79	0.28194788
68	0xbda5ed10	-0.08101857
69	0xbd9161ca	-0.0709873
70	0xbdbde870	-0.092728496
71	0xbcd48634	-0.0259429
72	0xbde06b8c	-0.10958013
73	0xbd8dd138	-0.06924671
74	0xbe236df0	-0.15959907
75	0xbd648e2a	-0.05579964
76	0x3ca1e160	0.019760787
77	0x3d68a68b	0.056799453
78	0xbd9b014d	-0.075686075
79	0xbdd39398	-0.10330886
80	0xbdc163ed	-0.094428875
81	0xbdb6d2a8	-0.08926898
82	0xbe47a5da	-0.19496861
83	0x3d7d7517	0.061879244
84	0x3d29782b	0.041374367
85	0x3d3f3c3e	0.04668831
86	0xbde31e37	-0.110897474
87	0xbdd41e5d	-0.10357354
88	0x3dad83bd	0.08472393
89	0xbdd3fbed	-0.103507854
90	0xbe08a8b4	-0.13345605
91	0xbde8ce4e	-0.113674745
92	0x3ca8d622	0.020609919
93	0xbdc771dc	-0.09738514
94	0xbde41118	-0.11136073
95	0x3e239643	0.15975289
96	0xbdfad577	-0.122477464
97	0xbce41d95	-0.027846137
98	0x3d1bd36b	0.03804342
99	0x3d0129e4	0.03153409
100	0x3e65eec3	0.22454362
101	0xbc3369c8	-0.010950513
102	0x3cd115a9	0.025523024
103	0xbd340628	-0.043951184
104	0xbb8fe065	-0.0043907636
105	0xbdd44780	-0.103652
106	0x3c743292	0.014904635
107	0xbbafc35c	-0.005363865
108	0x3be1ec7f	0.0068946476
109	0xbd528bd6	-0.05140289
110	0x3e1a2df2	0.15056589
111	0xbe1333e7	-0.14375268
112	0x3d5f3ae9	0.05449954
113	0x3d1d7a2c	0.03844659
114	0x3ce60557	0.028078718
115	0x3e7c2793	0.24624471
116	0xbde8b54c	-0.11362705
117	0xbcc42724	-0.023944445
118	0xbd8012f9	-0.06253619
119	0xbd961d2a	-0.07329781
120	0x3d54a218	0.051912397
121	0xbd5ea305	-0.054354686
122	0x3da80b36	0.08205263
123	0xbdd13039	-0.10214276
124	0xbdb2a576	-0.087229654
125	0xbdc3ec33	-0.09566536
126	0x3cecb462	0.028894607
127	0x3e831623	0.25602826
128	0xba79eb1c	-0.000953363
129	0x3b6aa4c4	0.0035803774
130	0x3cef406a	0.02920552
131	0xbe1a1601	-0.15047456
132	0xbd90d86a	-0.07072528
133	0x3d816c13	0.06319442
134	0x3d299a96	0.04140719
135	0xbbedb36f	-0.007254056
136	0xbdd94bec	-0.10610184
137	0xbe1411bb	-0.14459889
138	0x3dae7b0f	0.08519565
139	0xbdd11681	-0.102093704
140	0x3e4c181b	0.1993107
141	0xbdf60866	-0.120133206
142	0xbdcc2383	-0.09967711
143	0x3e985b03	0.29756936
144	0x3e9467d7	0.28985474
145	0xbc1dc8f6	-0.009630432
146	0xbd109902	-0.03530217
147	0xbd9b0fce	-0.07571374
148	0xbb044f99	-0.0020189045
149	0x3cb07be9	0.02154346
150	0x3d3b7940	0.04576993
151	0x3d76e1c4	0.0602739
152	0xbde79421	-0.1130755
153	0x3d3d201f	0.04617321
154	0xbcba8d22	-0.022772375
155	0x3cbaa8b9	0.022785531
156	0xbdbe72dc	-0.092992514
157	0x3c66fae2	0.014097901
158	0x3d989051	0.07449401
159	0x3bf513c8	0.0074791647
160	0xbdbaf505	-0.09128765
161	0x3bfe1d43	0.007754953
162	0xbe0cd799	-0.13754119
163	0xbe06c68f	-0.13161682
164	0x3db6fe75	0.089352526
165	0xbe21c915	-0.15799363
166	0xbd1694f2	-0.03676314
167	0xbdfff488	-0.124978125
168	0xbd95470d	-0.072889425
169	0xbcd8ec33	-0.026479816
170	0x3c06bf86	0.008224374
171	0xbde99263	-0.11404874
172	0xbe0b5c85	-0.13609512
173	0xbded10f6	-0.11575501
174	0x3bb81ff2	0.0056190426
175	0xbdc4270a	-0.095777586
176	0x3d4b2e3a	0.049604632
177	0xbe37ee1d	-0.17961927
178	0xbde8937b	-0.11356255
179	0x3e159b11	0.14609934
180	0x3da1fcf6	0.079095766
181	0x3daeccba	0.08535142
182	0x3e162516	0.14662585
183	0xbc80a5fa	-0.015704144
184	0xbb86890e	-0.0041056937
185	0xbba85a6d	-0.0051377327
186	0x3b8710da	0.004121882
187	0xbdce9e8c	-0.10088834
188	0xbb89d4ab	-0.00420626
189	0xbda0f7ed	-0.07859788
190	0x3eb5c49c	0.35501564
191	0x3e42c4f0	0.19020438
192	0x3e55252b	0.2081496
193	0x3e8765f3	0.2644497
194	0x3d41b4c1	0.04729152
195	0x3e9ae811	0.30255178
196	0xbcaf9db8	-0.02143751
197	0xbd1d66d2	-0.038428135
198	0xbdc5a0dd	-0.09649823
199	0x3d762e17	0.06010255
200	0xbbe671a0	-0.007032588
201	0xbe307b15	-0.17234452
202	0xbda0009a	-0.07812615
203	0x3db1b373	0.08676805
204	0x3d0c5b63	0.03426684
205	0xbe073937	-0.1320542
206	0x3cd21be5	0.025648067
207	0xbd8651b9	-0.06558556
208	0xbdc52b01	-0.09627343
209	0x39b446c0	0.00034384988
210	0xbd6d0ce2	-0.057873614
211	0x3d2c0970	0.042001188
212	0xbddda9c0	-0.10823393
213	0x3d0b1dc2	0.033963926
214	0xbdfe210d	-0.12408648
215	0xbe36231e	-0.17786834
216	0xbd33906d	-0.043838907
217	0x3d1239ed	0.035699774
218	0x3d2f973f	0.04286885
219	0xbd118b2e	-0.035533123
220	0x3d43e7e7	0.04782858
221	0xbe2fbf9f	-0.17162941
222	0xbe01ad0b	-0.12663667
223	0xbd42bcfd	-0.047543515
224	0xbe1cfffa	-0.15332022
225	0xbe081e76	-0.1329287
226	0xbd69e88c	-0.05710654
227	0xbe2a7314	-0.16645461
228	0x3e9cf8e6	0.30658644
229	0xbd28bf87	-0.04119828
230	0xbc75f96a	-0.015013078
231	0xbd8fa802	-0.07014467
232	0x3c9970cd	0.018730545
233	0xbe2af6a4	-0.16695648
234	0xbe1bf945	-0.15231808
235	0xbe0f8904	-0.14017111
236	0x3d97b874	0.074082285
237	0xbd895ba1	-0.0670693
238	0xbd218b1c	-0.039439306
239	0xbde09174	-0.10965243
240	0xbc8bf55a	-0.017084766
241	0xbe224c73	-0.15849476
242	0x3da83263	0.082127355
243	0x3eba49c2	0.36384398
244	0xbcffb855	-0.031215826
245	0xbc061652	-0.0081840325
246	0x3d5292aa	0.0514094
247	0xbd064e34	-0.032789424
248	0x3c602390	0.013680354
249	0xbd628949	-0.055306707
250	0xbd913e79	-0.07091994
251	0xbc84a360	-0.016191185
252	0xbd25e5ac	-0.040502235
253	0x3c609d06	0.013709312
254	0x3d024f12	0.03181369
255	0x3ec35ba0	0.38155842

4.bias f4 [2]
0	0xbd3e8dc6	-0.046521924
1	0x3d2657bf	0.040611025
