checkpoints/dqn/20251120-2008/ckpt_ep150.pth (torch, 72697 bytes, 6 tensors)

0.weight f4 [128, 4]
0	0x3e949244	0.29017842
1	0x3ecb33f3	0.39688072
2	0x3d069b03	0.032862674
3	0x3f0ce4ff	0.5503692
4	0xbe6dbacd	-0.2321579
5	0x3c5e4061	0.013565154
6	0xbdcacee4	-0.099027425
7	0x3ecf6698	0.4050796
8	0x3ecd8a98	0.401448
9	0xbec2517f	-0.37952802
10	0x3ef492a6	0.47768134
11	0x3deec55a	0.116587356
12	0x3ebd2294	0.36940444
13	0x3d8aae50	0.06771529
14	0x3e76e15c	0.24109405
15	0xbd909460	-0.0705955
16	0x3ed0be72	0.40770298
17	0x3d9e7044	0.07736257
18	0xbe86da58	-0.26338458
19	0x3ddd2c01	0.10799409
20	0xbeaf3a43	-0.34224138
21	0xbe0e97ea	-0.13925138
22	0xbda6efab	-0.08151182
23	0x3ed9d7f1	0.42547563
24	0xbea639be	-0.3246593
25	0xbe87bbcf	-0.26510474
26	0xbe856566	-0.26053923
27	0xbeb4f307	-0.35341665
28	0x3daf8c3d	0.0857167
29	0xbef159a7	-0.47138712
30	0x3eb9b38a	0.3626979
31	0xbefb8ee4	-0.49132454
32	0x3eab7e94	0.3349501
33	0x3de96626	0.113964364
34	0xbd7d9b04	-0.061915413
35	0x3eb781d7	0.35841247
36	0x3dfbb48e	0.122902974
37	0x3eaf048b	0.34183154
38	0xbd39ce0c	-0.045362517
39	0xbe52d331	-0.20588376
40	0x3d71a240	0.058992624
41	0xbe0277d0	-0.12741017
42	0x3eb4a213	0.35279903
43	0x3f08911f	0.5334644
44	0x3e5d89b7	0.21634565
45	0xbe7d7924	-0.24753243
46	0x3ed0b6f4	0.40764582
47	0x3e289779	0.16464032
48	0x3ea447b4	0.32085955
49	0xbe95ab6d	-0.2923235
50	0xbf161484	-0.58625054
51	0xbe78e0d9	-0.24304523
52	0xbec45b9c	-0.38351142
53	0x3ed20ed6	0.41026944
54	0x3e1378d8	0.14401567
55	0x3e5413cc	0.20710677
56	0x3e659a7f	0.22422217
57	0x3cc87610	0.02447036
58	0x3e9bcd25	0.3042995
59	0xbed5610c	-0.41675603
60	0xbd2004a1	-0.039066914
61	0xbec70969	-0.38874367
62	0x3e74a04b	0.23889272
63	0xbddac933	-0.10682907
64	0x3e6269bb	0.22110645
65	0xbd980c32	-0.07424201
66	0x3ea47b2e	0.3212523
67	0xbeba68d7	-0.3640811
68	0xbec4c480	-0.38431168
69	0xbea9a7e7	-0.33135912
70	0x3f141813	0.57849234
71	0x3e7e4c6a	0.24833837
72	0x3f0d92b9	0.55302006
73	0xbebff151	-0.37488797
74	0xbf174f3b	-0.5910527
75	0xbeeb9609	-0.46012905
76	0xbeda5f3f	-0.42650792
77	0x3e33aed5	0.17547162
78	0x3ea7414c	0.32667005
79	0x3f0571a9	0.52126557
80	0xbe9d19da	-0.30683786
81	0xbebc0257	-0.36720535
82	0x3ea52075	0.32251325
83	0xbe28bf0a	-0.16479126
84	0x3ec1fa33	0.378862
85	0xbd984b69	-0.07436258
86	0x3e41649b	0.18886034
87	0xbeebaedb	-0.46031842
88	0xbe3268b9	-0.17422761
89	0x3e448748	0.1919223
90	0x3bb783bb	0.0056004203
91	0xbe47e9c5	-0.1952277
92	0x3eb0660a	0.3445285
93	0x3eaaee64	0.33385003
94	0xbee8f140	-0.4549656
95	0xbea56b37	-0.3230836
96	0x3efebe5d	0.4975461
97	0xbdf5f86a	-0.12010272
98	0xbe944620	-0.2895975
99	0xbf140947	-0.57826656
100	0xbe5c5bd7	-0.21519409
101	0x3e0b88fc	0.13626474
102	0xbe2ba1e7	-0.1676098
103	0xbedabf27	-0.42723963
104	0xbcba9442	-0.022775773
105	0xbeb8353a	-0.3597811
106	0xbf028a5a	-0.5099236
107	0xbeb8d0f0	-0.36096907
108	0xbf03712c	-0.5134456
109	0xbeadfd68	-0.33982396
110	0x3f21791f	0.6307544
111	0x3e340123	0.17578559
112	0x3da40335	0.08008424
113	0xbf11a683	-0.568947
114	0xbeafe337	-0.3435304
115	0xbda4009c	-0.08007929
116	0x3e1f5bec	0.15562409
117	0xbec9be47	-0.39402983
118	0xbea1baf0	-0.31587934
119	0xbec2ed3d	-0.38071623
120	0x3d84a6f5	0.06477157
121	0xbe428d1c	-0.18999141
122	0xbe0e89ac	-0.13919705
123	0xbece812a	-0.4033292
124	0xbe85b343	-0.26113328
125	0xbe8c0d42	-0.27353865
126	0xbe8859da	-0.2663105
127	0xbee6c9ea	-0.45075923
128	0x3eb39cd9	0.35080603
129	0xbdf80665	-0.12110595
130	0x3f0dd013	0.5539562
131	0x3e6befc5	0.23040684
132	0xbeb991b8	-0.36243987
133	0x3eb9bb64	0.3627578
134	0xbe66101e	-0.22467086
135	0xbe817690	-0.25285769
136	0xbef77546	-0.4833166
137	0xbf0617bf	-0.52379984
138	0x3e7ce320	0.24696016
139	0xbd27d6b5	-0.040976245
140	0x3e1fddeb	0.15611999
141	0xbeea4871	-0.45758393
142	0x3ecf5922	0.4049769
143	0xbea72b68	-0.32650304
144	0xbe14a83d	-0.14517303
145	0x3ddb44b5	0.10706464
146	0x3ebde4f3	0.37088737
147	0x3eedadac	0.46421564
148	0x3ed87980	0.42280197
149	0xbefca0de	-0.49341482
150	0x3df42810	0.11921704
151	0xbdf55a47	-0.1198011
152	0x3c4f8d19	0.012667918
153	0xbeb8c728	-0.36089444
154	0x3eb146d8	0.34624362
155	0xbedef511	-0.43546346
156	0x3ea9c326	0.331567
157	0x3e518f05	0.20464714
158	0x3d963ad4	0.07335439
159	0xbea9893b	-0.3311251
160	0x3f03e457	0.51520294
161	0x3df852e6	0.121251866
162	0xbd0f018e	-0.034913592
163	0xbf0136dd	-0.5047434
164	0x3e068181	0.1313534
165	0xbdcf5386	-0.10123353
166	0xbdc71e29	-0.097225495
167	0x3f03ff5e	0.51561534
168	0x3d39854c	0.045293137
169	0xbea78b81	-0.3272362
170	0xbe331aa2	-0.17490628
171	0x3d21b3e2	0.03947819
172	0x3e8ef0c4	0.27918065
173	0xbe02d554	-0.1277669
174	0xbe921132	-0.28528744
175	0xbe2f54ac	-0.17122144
176	0xbea7e884	-0.32794583
177	0x3e23b38b	0.15986459
178	0x3e9efb7d	0.31051245
179	0xbf021d0b	-0.50825566
180	0x3e4285e7	0.18996392
181	0x3e978ac9	0.29598072
182	0xbb6fb9a9	-0.0036579168
183	0xbe798e24	-0.24370629
184	0x3eac39a7	0.33637735
185	0x3e999a9a	0.30000764
186	0x3dbba02d	0.091614105
187	0xbe1e8217	-0.15479313
188	0xbd8ccf16	-0.06875436
189	0x3d903564	0.070414335
190	0xbe2bc109	-0.16772856
191	0xbe4970e6	-0.19671974
192	0x3ec12e04	0.3773042
193	0x3ee10c34	0.43954623
194	0xbe0f9251	-0.14020659
195	0xbe2dbd81	-0.16966821
196	0xbd83c83b	-0.06434675
197	0xbd738bda	-0.059459545
198	0x3e780789	0.24221624
199	0x3e6410af	0.2227199
200	0xbf057628	-0.5213342
201	0xbe3fc526	-0.1872755
202	0x3f0c0fc2	0.54711545
203	0x3e8b03e5	0.2715141
204	0x3d10db6d	0.03536551
205	0xbe8014e8	-0.2501595
206	0xbedc6d76	-0.43052262
207	0xbf0cbdff	-0.5497741
208	0xbe98d6e0	-0.29851437
209	0x3db2a905	0.08723644
210	0x3efcbb32	0.4936157
211	0x3ec020ee	0.37525123
212	0xbf0aa536	-0.5415834
213	0xbeab23ff	-0.334259
214	0x3d7d06e1	0.06177414
215	0x3f12e7ed	0.5738514
216	0x3d942118	0.07232875
217	0xbe0497d0	-0.12948537
218	0x3e53d27c	0.20685762
219	0xbe4302e8	-0.19044077
220	0xbe9c8d0a	-0.30576354
221	0x3ebe0922	0.37116343
222	0xbe8d2ca2	-0.27573115
223	0xbe02d4fc	-0.1277656
224	0xbefeab7e	-0.49740213
225	0x3eab5552	0.33463532
226	0x3ec1f458	0.37881732
227	0x3e3a98f4	0.1822241
228	0xbed6d9fa	-0.41963178
229	0xbf0aef95	-0.54271823
230	0xbe9cc261	-0.3061705
231	0x3ee1ef90	0.44128084
232	0x3e9ac0b5	0.3022515
233	0x3ef0ac6b	0.47006544
234	0x3ead2f55	0.33825174
235	0x3e51ccef	0.20488332
236	0x3d546cff	0.05186176
237	0xbea7c293	-0.32765636
238	0xbf100316	-0.5625471
239	0xbf156ee8	-0.58372355
240	0x3e8753d9	0.26431158
241	0xbe47234a	-0.19447055
242	0xbe73b1b0	-0.23798251
243	0xbecbcf50	-0.39806604
244	0xbe2a6e56	-0.16643652
245	0xbec5dc9f	-0.38644883
246	0xbe548e34	-0.20757371
247	0x3e7a2edf	0.24431942
248	0xbda2c5a7	-0.079478554
249	0x3e9e6465	0.3093597
250	0xbe8b2d54	-0.2718302
251	0xbedcc28d	-0.4311718
252	0xbc34e7f9	-0.011041635
253	0xbe5e8f14	-0.21734267
254	0xbe83933d	-0.2569827
255	0xbf0c0e3c	-0.5470922

0.bias f4 [128]
0	0x3e58a1da	0.21155491
1	0xbe89e376	-0.2693135
2	0xbe989db0	-0.29807806
3	0xbed4d57c	-0.41569126
4	0x3ee87379	0.454006
5	0xbec5504c	-0.38537824
6	0x3ece4193	0.40284404
7	0xbd457e2c	-0.04821603
8	0xbd283037	-0.041061606
9	0x3eb300b8	0.34961486
10	0xbcde5c37	-0.02714358
11	0x3ebf6409	0.37381008
12	0x3ec0403f	0.37549016
13	0xbede4304	-0.43410504
14	0x3e52af5a	0.20574704
15	0x3deaaeb9	0.11459107
16	0x3dc2caf1	0.09511364
17	0x3dd68dc5	0.10476259
18	0x3de4116d	0.11136136
19	0xbe0c83a4	-0.13722092
20	0xbd200038	-0.03906271
21	0x3eee0d6a	0.4649461
22	0x3eb77d99	0.3583801
23	0xbd2added	-0.04171555
24	0xbebebcd6	-0.37253445
25	0x3b37ddfa	0.0028055892
26	0xbe853cc8	-0.26022935
27	0x3eeeb24d	0.46620408
28	0xbe6952be	-0.2278547
29	0xbd5d4279	-0.05401847
30	0xbdc59083	-0.09646704
31	0x3d7d0c74	0.061779454
32	0x3f056a6b	0.52115506
33	0x3d243d96	0.040097795
34	0x3eaec564	0.34134972
35	0x3ed5c62b	0.41752753
36	0x3ef09081	0.46985248
37	0xbdca0ea5	-0.098660745
38	0xbdb33394	-0.08750072
39	0x3e624d1a	0.22099724
40	0xbe030992	-0.1279662
41	0x3e822767	0.25420687
42	0xbd92c722	-0.07166888
43	0xbeada1f2	-0.33912617
44	0x3e67265c	0.22573227
45	0x3dcc8690	0.09986603
46	0x3e6eed76	0.23332772
47	0x3f041b05	0.5160373
48	0x3eaed7b6	0.3414895
49	0x3f031085	0.5119708
50	0x3d23cf5f	0.039992686
51	0xbea34e58	-0.3189571
52	0xbe41f202	-0.18939975
53	0xbe6e98cc	-0.23300475
54	0xbee1997e	-0.44062418
55	0xbe76102f	-0.24029611
56	0xbeebaa54	-0.46028388
57	0xbeda967a	-0.4269293
58	0xbe6b5ca5	-0.2298456
59	0xbebb4eba	-0.365835
60	0xbe3f4dc8	-0.18682015
61	0x3e621ee2	0.22082093
62	0x3ed82dad	0.42222348
63	0xbdf680e1	-0.120363005
64	0xbdea1464	-0.114296705
65	0x3e9addc4	0.3024732
66	0xbe56df67	-0.20983659
67	0xbe27dd19	-0.16392936
68	0x3eac3b56	0.3363902
69	0xbebdf695	-0.3710219
70	0x3cc92054	0.024551548
71	0x3eead50b	0.45865664
72	0x3d54cf07	0.05195525
73	0x3e0ea200	0.13928986
74	0xbe9c4317	-0.30519935
75	0xbceb5a94	-0.028729714
76	0x3d3ae906	0.045632385
77	0x3df49f4c	0.11944446
78	0x3e90f7ec	0.2831415
79	0x3edfba43	0.43696794
80	0xbe89791f	-0.2685022
81	0xbc17388c	-0.00922979
82	0xbe1392ae	-0.14411423
83	0xbec45e30	-0.3835311
84	0xbd5d92b1	-0.054094974
85	0xbeab5939	-0.3346651
86	0x3ebf5c49	0.37375095
87	0x3d9c0daf	0.076197974
88	0xbe5505ce	-0.20802996
89	0x3e9bfbad	0.3046545
90	0xbed45ee2	-0.4147864
91	0xbe442ab4	-0.19156915
92	0xbd5246eb	-0.051337164
93	0xbee11eaa	-0.43968707
94	0xbe8e1a36	-0.27754372
95	0xbd4ce06d	-0.050018717
96	0x3ec5b7fd	0.38616934
97	0x3f01cdc2	0.50704587
98	0x3e94f78f	0.29095122
99	0xbea7131f	-0.32631776
100	0xbe9f458e	-0.31107754
101	0x3ee27c3c	0.44235408
102	0x3e393a85	0.1808873
103	0x3c88dd95	0.016707221
104	0x3d2d1e97	0.0422655
105	0xbeac2cc4	-0.33627903
106	0xbe199b94	-0.15000755
107	0x3f02f6af	0.5115766
108	0xbd4679bf	-0.04845595
109	0x3c98bb82	0.018644098
110	0xbe81b6b5	-0.25334707
111	0xbe5c09e1	-0.21488144
112	0xbd10bdea	-0.035337366
113	0xbe9f044e	-0.31057972
114	0xbdebf5a8	-0.115214646
115	0x3e3e06dd	0.18557306
116	0xbefa69d4	-0.48908865
117	0x3e1c65d6	0.15273222
118	0xbe7f14df	-0.24910305
119	0xbe60d3e9	-0.21955837
120	0x3e4708e0	0.1943698
121	0x3ede5081	0.43420795
122	0xbda43388	-0.08017641
123	0xbe52361c	-0.20528454
124	0xbee0c0a8	-0.43896985
125	0xbe350b01	-0.17679979
126	0xbeb10806	-0.34576434
127	0xbdc73af0	-0.09728038

2.weight f4 [128, 128]
0	0x3d7e7930	0.062127292
1	0xbcb05e63	-0.021529382
2	0x3e089c44	0.1334086
3	0x3d6323c6	0.055454038
4	0xbd84bd44	-0.06481412
5	0x3ca988a4	0.020695038
6	0x3cfaeeec	0.030631505
7	0x3a827f10	0.000995608
8	0x3d010d5e	0.03150689
9	0xbd82b507	-0.063821845
10	0x3e03de6a	0.12877813
11	0xbb52f354	-0.0032188492
12	0x3d471239	0.048601363
13	0x3bbae060	0.005703017
14	0xbd089ffb	-0.033355694
15	0x3ddd8693	0.108166836
16	0xbd70984f	-0.058739003
17	0x3c07b8e8	0.008283831
18	0xbd66bcdf	-0.056332465
19	0x3e1bd8b9	0.15219392
20	0x3a295851	0.00064599985
21	0xbc225794	-0.009908576
22	0xbd9b2a1d	-0.07576392
23	0x3d222850	0.039589226
24	0x3d0188ee	0.031624727
25	0xbb7bcd7c	-0.0038422039
26	0x3d210429	0.039310608
27	0x3d5b1855	0.05349
28	0x3be132e4	0.0068725217
29	0xbd9ffc9c	-0.07811853
30	0xbbe8bb84	-0.0071024317
31	0x3ccbbe75	0.02487109
32	0x3e0809d5	0.13285
33	0x3cd11890	0.025524408
34	0xbc85fc8d	-0.016355777
35	0x3dc6e016	0.0971071
36	0x3cffe038	0.031234846
37	0xbdb242bf	-0.08704137
38	0xbda497b7	-0.0803675
39	0xbd7e4a85	-0.062082786
40	0x3d3a164a	0.045431413
41	0x3d70f173	0.058824014
42	0xbc313698	-0.010816239
43	0x3cdee138	0.027207002
44	0xbd805bb5	-0.06267492
45	0x3d26f552	0.0407613
46	0xbdd3c67b	-0.103405915
47	0xbc94a254	-0.01814381
48	0xbdee4e5d	-0.1163604
49	0x3c2ce403	0.010552409
50	0x3dbb659d	0.091502406
51	0x3daeffd1	0.08544887
52	0x3dd33ed3	0.10314717
53	0x3e150153	0.14551286
54	0x3c8daad4	0.017293371
55	0x3d15f995	0.036614973
56	0x3d911dc9	0.07085759
57	0x3e01de51	0.12682463
58	0xbd9ff46f	-0.07810294
59	0x3dabc784	0.08387664
60	0x3d72eec6	0.059309743
61	0x3b60eafd	0.0034319751
62	0xbdacdf03	-0.084409736
63	0xbd8ee179	-0.06976599
64	0x3d9e24dd	0.07721875
65	0xbd10ba71	-0.035334054
66	0x3d143d2c	0.03619115
67	0x3d12645f	0.035740253
68	0xbda7ed20	-0.08199525
69	0x3bae2c94	0.0053153727
70	0xbc28579d	-0.010274795
71	0x3daf86dd	0.08570645
72	0x3cbe268b	0.023211738
73	0xbd6ce7a0	-0.057838082
74	0x3d87c4dd	0.066293456
75	0x3d98e086	0.074646994
76	0x3d24f0c7	0.040268686
77	0xbc993f21	-0.01870686
78	0x3d0bb4d2	0.03410799
79	0xbd05feff	-0.032713886
80	0x3d4bd09d	0.049759496
81	0x3d035adc	0.032069072
82	0x3de3d5d4	0.11124769
83	0x3d9afe8c	0.07568082
84	0xbd64f1b0	-0.055894554
85	0x3ce8a0d6	0.028397005
86	0x3daa3f1a	0.08312817
87	0xbc1f3932	-0.009718226
88	0xbdaf97a4	-0.08573845
89	0xba2b6cf1	-0.0006539366
90	0x3d48f6fc	0.049063668
91	0xbdbf4397	-0.093390636
92	0xbb839e3f	-0.004016667
93	0x3d4ad072	0.049515195
94	0x3d07146b	0.032978456
95	0x3e00cefd	0.1257896
96	0xbddd4244	-0.10803655
97	0xbd8c7b31	-0.068594344
98	0x3b51c6de	0.0032009403
99	0x3d5d961a	0.054098226
100	0x3d589f2e	0.05288618
101	0x3ccb09ed	0.024785006
102	0xbc3ea9b9	-0.011637145
103	0x3d3e21ff	0.04641914
104	0xbd82da20	-0.0638926
105	0x3c82bbd1	0.015958698
106	0x3d4cb223	0.049974572
107	0xbc9eab06	-0.01936866
108	0x3ab8c3d9	0.0014096453
109	0x3e063dbe	0.1310949
110	0x3d301f67	0.042998698
111	0x3d9710a1	0.073762186
112	0xbd216f8d	-0.039413024
113	0xba9fe1c0	-0.0012198016
114	0x3d867a09	0.06566245
115	0xbdcb2ae5	-0.09920291
116	0x3a362c00	0.00069493055
117	0x3da62aa5	0.081136025
118	0xbc004ce6	-0.007830834
119	0x3e10b9f2	0.14133433
120	0xbc9b9d4e	-0.018995907
121	0x3ccc794a	0.024960179
122	0xbd3fd3fe	-0.04683303
123	0xbd6becfc	-0.057599053
124	0xbdb1a0bc	-0.08673236
125	0x3de25d93	0.11053004
126	0x3cc05e5c	0.023482494
127	0xbda1e229	-0.07904465
128	0xbe01fa1a	-0.12693062
129	0x3db2e9e9	0.08736021
130	0x3d0a6246	0.033785127
131	0x3d11441e	0.035465352
132	0xbd8bd429	-0.06827576
133	0xbd1eb762	-0.038749106
134	0xbc2b5765	-0.010457848
135	0x3ca5db17	0.020246072
136	0xbdb6b91b	-0.08922025
137	0x3ac9f2a5	0.0015407397
138	0x3b8da90b	0.00432313
139	0xbd878b6a	-0.06618388
140	0x3c9e424d	0.019318724
141	0xbd0f7e87	-0.035032775
142	0x3ce0609f	0.027389823
143	0x3d1ece27	0.03877082
144	0xbd1dab74	-0.03849359
145	0xbdd2516a	-0.10269435
146	0x3d8b1b4f	0.06792318
147	0x3cacb814	0.021083869
148	0xbd2f6ff0	-0.04283136
149	0x3daf2d46	0.08553557
150	0xbd3feefa	-0.046858765
151	0x3d96ff29	0.07372887
152	0x3dc23f6a	0.094847515
153	0xbd78dc41	-0.060756925
154	0x3d9d88b0	0.07692087
155	0xbe1928e8	-0.14957011
156	0xbd7f0723	-0.062262665
157	0x3cec777d	0.02886557
158	0xbcbcbeb9	-0.023040162
159	0x3dd8f261	0.10593105
160	0xbd94ce3e	-0.072659
161	0x3d28836d	0.041140962
162	0xbdc8e88c	-0.0980998
163	0x3d4e2cb6	0.05033561
164	0xbe022566	-0.12709579
165	0xbd9c4082	-0.076294914
166	0x3da3cca5	0.07998017
167	0x3d3754a8	0.04475847
168	0x3dc8877c	0.097914666
169	0xbe00b2a7	-0.1256815
170	0xbd886388	-0.06659609
171	0x3c8b3694	0.016993798
172	0x3cdd3d00	0.027006626
173	0x3d1b0f48	0.03785637
174	0x3d308e22	0.0431043
175	0xbcd164b5	-0.025560716
176	0x3d359683	0.044332992
177	0x3cafc8b0	0.021458
178	0xbd062e98	-0.03275928
179	0x3e18470f	0.14870857
180	0x3d30e27a	0.043184735
181	0x3d9fab29	0.07796318
182	0xbd4dbcb4	-0.05022879
183	0xbd0ee486	-0.034885906
184	0xbcd15be4	-0.025556512
185	0x3b92eb40	0.0044836104
186	0xbbbe1b5a	-0.0058016004
187	0x3d414e85	0.047194023
188	0x3e1f327e	0.15546605
189	0xbd9fe2b2	-0.078069106
190	0x3d60123f	0.0547049
191	0x3cf433c3	0.029809838
192	0xbd9e96b3	-0.07743587
193	0xbd59fc77	-0.053219285
194	0xbd5ed9b5	-0.05440684
195	0x3dca58e3	0.09880235
196	0xbd8dc2a6	-0.06921892
197	0x3c61497e	0.013750432
198	0x3d2d8fec	0.042373583
199	0xbde05b2b	-0.10954889
200	0x3d234f7d	0.039870728
201	0xbd97f062	-0.07418896
202	0xbd6dbe5a	-0.05804286
203	0xbd67f69e	-0.056631677
204	0xbd2fc9c7	-0.04291704
205	0xbdd6a780	-0.10481167
206	0xbdb9f5bf	-0.090800755
207	0xbcf7a597	-0.030230327
208	0x3d2a301a	0.04154978
209	0x3ddc5ac2	0.10759498
210	0x3d01e572	0.031712957
211	0xbd06e3b3	-0.032931995
212	0xbd8b8351	-0.06812156
213	0x3da2b566	0.07944755
214	0xbd6ca9a5	-0.057778973
215	0xbb3a6ff1	-0.002844807
216	0x3dcd9d00	0.10039711
217	0xbd26a85d	-0.040687907
218	0x3da9da35	0.08293573
219	0x3de55c49	0.111992426
220	0x3c8c8e3e	0.01715767
221	0xbd1b03d6	-0.037845455
222	0x3dcbf9c1	0.09959746
223	0xbd49e448	-0.04928997
224	0xbd2ab000	-0.041671753
225	0x3d940d33	0.0722908
226	0x3d8d3a8c	0.068959326
227	0x3d4886cb	0.048956674
228	0x3d1fcfe5	0.039016623
229	0xbd8bfb64	-0.06835058
230	0xbbe8c9cc	-0.007104134
231	0x3dbe4f28	0.092924416
232	0x3d0e9f92	0.034820147
233	0x3bf7f9f0	0.0075676367
234	0x3bc930dc	0.0061398577
235	0xbd4a44b8	-0.04938194
236	0x3d15c620	0.0365659
237	0x3caaa7f3	0.020832038
238	0x3d6b8872	0.05750317
239	0xbc802924	-0.015644617
240	0x3d8859e3	0.066577695
241	0x3d15704c	0.036484048
242	0x3cc09b47	0.023511542
243	0x3d77dd0f	0.060513552
244	0x3d62deba	0.05538819
245	0x3c85edb2	0.016348694
246	0x3d8b29cf	0.06795084
247	0xbd010eaf	-0.031508144
248	0xbda2c3db	-0.07947513
249	0xbbc1de2a	-0.0059163766
250	0xbd0fe36a	-0.03512899
251	0xbcbcdb94	-0.023053922
252	0x3b3917ee	0.0028243023
253	0x3b8838c0	0.0041571558
254	0x3dccad01	0.099939354
255	0x3d5a8eeb	0.053358953

2.bias f4 [128]
0	0x3cae7541	0.021296145
1	0xbcd707f2	-0.026248906
2	0xbcf93bfb	-0.030424109
3	0xbc5d750c	-0.013516676
4	0x3d9b9819	0.0759737
5	0xbdc54c1e	-0.09633659
6	0xbc09fdf9	-0.008422368
7	0x3de9c833	0.11415138
8	0x3d56592b	0.05233113
9	0x3d1ac3c7	0.037784364
10	0xbcc3f8d8	-0.023922369
11	0xbcce797c	-0.025204413
12	0xbd9a924c	-0.07547435
13	0xbc8fd224	-0.017556258
14	0x3cacb401	0.021081926
15	0x3e02ecf9	0.1278571
16	0x3d8a7197	0.06759947
17	0xbd79b1b9	-0.060960505
18	0x3d3617f8	0.044456452
19	0xbd89bc99	-0.06725425
20	0xbdb1b57c	-0.086771935
21	0xbd3e5fde	-0.046478145
22	0xbd7638db	-0.060112815
23	0x3c211a74	0.009832967
24	0x3d174608	0.03693202
25	0x3d10392a	0.035210766
26	0x3d040f25	0.032241005
27	0x3c8d2824	0.017231055
28	0x3d1f214f	0.038850125
29	0x3d80ff68	0.06298715
30	0xbdab2cce	-0.08358155
31	0xbd656e27	-0.056013253
32	0xbdab4c92	-0.08364214
33	0xbd8f9249	-0.070103236
34	0x3cf73251	0.03017536
35	0x3da38520	0.07984376
36	0x3d3fd58d	0.046834517
37	0xbd19e7e1	-0.037574653
38	0x3b2403df	0.0025026721
39	0x3d879f2b	0.06622156
40	0x3be9cdd3	0.007135132
41	0xbda52832	-0.08064307
42	0x3afe6eda	0.0019411698
43	0x3d173395	0.036914427
44	0x3bf047ac	0.0073327627
45	0x3dc38deb	0.09548553
46	0x3d4bf8e0	0.049797893
47	0xbd69afef	-0.05705255
48	0x3d6ded71	0.05808777
49	0xbd96b269	-0.07358248
50	0xbd9ce4a4	-0.07660797
51	0x3d5da242	0.05410982
52	0x3b905eac	0.004405817
53	0x3d6a3a90	0.057184756
54	0x3dacd44c	0.0843893
55	0xbcddec79	-0.027090298
56	0x3d95e8ad	0.0731977
57	0xbd94067f	-0.072278015
58	0x3c0663b1	0.008202479
59	0x3d173e4b	0.03692464
60	0x3d3c0135	0.04589959
61	0x3d88a8b0	0.066727996
62	0x3e0d4831	0.1379707
63	0x3c9c05b9	0.019045698
64	0x3dfff135	0.124971785
65	0x3db9c4c0	0.0907073
66	0xbc5f85b8	-0.013642721
67	0x3e10f449	0.14155687
68	0x3c66b3d0	0.014080957
69	0x3bc6c9c8	0.0060665347
70	0x3d225b1c	0.03963767
71	0xbc470daf	-0.0121492585
72	0xbb919232	-0.0044424767
73	0x3c7bb665	0.01536331
74	0xbc6bde75	-0.0143963
75	0xbd8db8c6	-0.06920008
76	0xbd98ea00	-0.07466507
77	0x3d202173	0.0390944
78	0xbd2685b3	-0.04065485
79	0x3c8d7bef	0.01727101
80	0x3dd41322	0.10355212
81	0x3dc11156	0.09427135
82	0x3d21c55b	0.039494853
83	0x3d0192ca	0.03163413
84	0x3d85dabb	0.0653586
85	0xbd9fd4d9	-0.07804269
86	0x3dd33525	0.10312871
87	0xbd96c1da	-0.07361193
88	0xbd6a9aaa	-0.057276405
89	0xbc3058b3	-0.010763335
90	0x3dedf4f9	0.116189905
91	0x3d89d0c8	0.06729275
92	0x3c867ada	0.016416002
93	0x3d6394e4	0.055561915
94	0xbdbe11d2	-0.09280743
95	0xbdbc1368	-0.09183389
96	0x3d2dcea3	0.042433392
97	0xbd048ffa	-0.03236387
98	0x3d14a80d	0.03629308
99	0xbd7401e0	-0.0595721
100	0x3deafcbf	0.11473989
101	0xbd9dea66	-0.077107236
102	0x3d005689	0.031332526
103	0x3d55cd41	0.0521977
104	0xbd82b85c	-0.0638282
105	0x3d932f88	0.071868
106	0x3d4fda4d	0.050745297
107	0xbd29c4a2	-0.04144729
108	0xbd4333e2	-0.0476569
109	0x3d95e029	0.07318146
110	0x3befd67d	0.00731927
111	0xbbdf3792	-0.0068120444
112	0x3cd1ac26	0.025594782
113	0x3d655c90	0.055996478
114	0xbd847cb3	-0.06469097
115	0x3e224756	0.15847525
116	0x3d3d1725	0.04616465
117	0x3caf7c29	0.021421509
118	0xbd4aeed3	-0.049544167
119	0x3d59a45e	0.05313527
120	0xbd0055e3	-0.031331908
121	0x3d8cdb95	0.068778194
122	0x3d210a0c	0.039316222
123	0x3dbadf44	0.09124616
124	0xba9f26b9	-0.0012142278
125	0x3d8eaa15	0.06966034
126	0x3d74c51f	0.0597583
127	0x3dc817b2	0.097701445

4.weight f4 [2, 128]
0	0xbd8a82f9	-0.06763262
1	0xbdf7e236	-0.12103693
2	0xbde6ba91	-0.112660535
3	0x3c0816b1	0.008306191
4	0xbdfe9a27	-0.12431746
5	0xbd670379	-0.056399796
6	0x3cd0e295	0.025498668
7	0xbde2a6aa	-0.11066945
8	0xbdf340d4	-0.11877599
9	0xbcb47fc1	-0.022033574
10	0x3d1c4086	0.03814747
11	0xbe051e9a	-0.12999955
12	0x3c392450	0.0113001615
13	0xbe10dfda	-0.14147893
14	0xbbcdf3f1	-0.0062851836
15	0x3e4d20c1	0.20032026
16	0x3ca7a54b	0.02046456
17	0x3da4a3b3	0.08039036
18	0xbda5f437	-0.08103221
19	0xbdd6e905	-0.10493664
20	0x3bec7365	0.0072159045
21	0x3c8d2573	0.017229771
22	0xbd21ca56	-0.039499603
23	0xbd9beff9	-0.076141305
24	0xbdc9dbed	-0.09856401
25	0x3c778529	0.015107431
26	0x3cb42862	0.021991912
27	0xbd205349	-0.039141927
28	0x3d598a2d	0.05311029
29	0xbe080fee	-0.13287327
30	0xbc2811f0	-0.010258183
31	0x3b8c7c33	0.0042872666
32	0xbdf60f4d	-0.12014637
33	0x3d900cea	0.07033713
34	0xbdc567b7	-0.09638923
35	0x3c8da065	0.017288396
36	0xbd324aad	-0.043528248
37	0xbdbad923	-0.09123447
38	0x3d7fb8c1	0.062432054
39	0xbd7805eb	-0.06055252
40	0x3c345185	0.011005764
41	0x3d9a5bca	0.075370386
42	0xbdaa77c2	-0.08323623
43	0x3d4475da	0.047963955
44	0xbdad2318	-0.08453959
45	0xbde7e12f	-0.11322247
46	0x3cfb82a7	0.030701948
47	0xbcac59da	-0.021038938
48	0xbdaf5d25	-0.08562688
49	0xbdc71f54	-0.09722772
50	0x3d1a7fae	0.03771942
51	0x3d9a0409	0.07520301
52	0xbd84892a	-0.064714745
53	0x3cb66da6	0.022269081
54	0x3d821505	0.063516654
55	0xbd71ef8b	-0.059066337
56	0x3ae38d8c	0.001736091
57	0x3d80e59f	0.06293797
58	0x3ac8e73b	0.0015327701
59	0xbd6d4cbe	-0.057934515
60	0x3d8cf678	0.06882948
61	0xbdb107c9	-0.08644063
62	0x3e7c0b68	0.24613726
63	0x3e63636c	0.22205895
64	0x3e38a902	0.18033221
65	0x3d42250d	0.047398616
66	0x3c000e41	0.007815898
67	0x3e066a61	0.13126518
68	0xbda5ed10	-0.08101857
69	0xbda5d04c	-0.0809637
70	0xbdcd2b74	-0.10018054
71	0xbcd353ca	-0.02579679
72	0xbde08067	-0.10961991
73	0xbd922192	-0.07135309
74	0xbe06c1ec	-0.13159913
75	0xbd649042	-0.055801637
76	0x3ca1e160	0.019760787
77	0x3d4f5a77	0.050623383
78	0xbd39351c	-0.045216665
79	0xbddadd92	-0.106867924
80	0xbdbae00a	-0.09124763
81	0xbdbbbac1	-0.0916648
82	0xbe27e832	-0.16397169
83	0x3d7d7517	0.061879244
84	0x3d000656	0.031256042
85	0x3d3f1f65	0.0466608
86	0xbddffcfe	-0.10936926
87	0xbdd6f510	-0.10495961
88	0x3dad83bd	0.08472393
89	0xbddb3656	-0.10703723
90	0xbe0a5927	-0.13510571
91	0xbdfb17c4	-0.12260392
92	0x3ca8d622	0.020609919
93	0xbdba0b0f	-0.090841405
94	0xbddc1ef1	-0.10748089
95	0x3d7d8b2b	0.0619003
96	0xbdefa3c6	-0.11701159
97	0xbd282c26	-0.04105773
98	0x3d1bd36b	0.03804342
99	0x3b5a2f63	0.0033292405
100	0x3dc6d369	0.09708292
101	0xbc3369c8	-0.010950513
102	0x3cd117ac	0.025523983
103	0xbd556b61	-0.052104358
104	0xbb8fe04d	-0.0043907524
105	0xbdd5ad3c	-0.104334325
106	0x3c19cec9	0.00938768
107	0xbc70c4fe	-0.014695404
108	0x3be1ec8e	0.0068946546
109	0xbd6384d5	-0.0555466
110	0x3dc55790	0.09635842
111	0xbe0a264c	-0.13491172
112	0x3d5f3ae9	0.05449954
113	0x3d81a496	0.063302204
114	0x3ce6055e	0.028078731
115	0x3dc96a56	0.09834735
116	0xbe03bdc2	-0.12865356
117	0xbcc42724	-0.023944445
118	0xbd801404	-0.06253818
119	0xbdb156fb	-0.08659168
120	0x3d54a218	0.051912397
121	0xbd72e8f2	-0.059304185
122	0x3da80b36	0.08205263
123	0xbdd15dd9	-0.10222978
124	0xbdc0ed2c	-0.09420237
125	0xbde7dfb4	-0.11321965
126	0x3cecb462	0.028894607
127	0x3ddf4179	0.1090116
128	0xbb2ebcfd	-0.0026662939
129	0x3ca4f68c	0.020137094
130	0x3c6ff7e8	0.014646508
131	0xbe06c8a4	-0.13162476
132	0xbd62f8a2	-0.055412896
133	0x3d816c13	0.06319442
134	0x3d299a96	0.04140719
135	0xbc0346db	-0.008012499
136	0xbdd0941a	-0.10184498
137	0xbdfc22bc	-0.123113126
138	0x3dae7b0f	0.08519565
139	0xbdae4cb8	-0.08510727
140	0x3cf78338	0.030213937
141	0xbdc241a1	-0.09485174
142	0xbda5ff74	-0.081053644
143	0x3e1d4bef	0.15360998
144	0x3df9000e	0.121582136
145	0xbcaca020	-0.021072447
146	0xbca18818	-0.019718215
147	0xbd220ee6	-0.03956499
148	0xbb044fb4	-0.0020189108
149	0x3cb07bf2	0.021543477
150	0x3cf094b0	0.029367775
151	0x3d76e1c4	0.0602739
152	0xbdbff35d	-0.0937259
153	0x3d3d201f	0.04617321
154	0xbcba8d21	-0.022772374
155	0x3d0ecd14	0.034863546
156	0xbdcd0001	-0.10009766
157	0x3b821732	0.0039700503
158	0x3d989051	0.07449401
159	0x3bf513db	0.0074791736
160	0xbd85965e	-0.06522821
161	0x3bfd2f88	0.0077266134
162	0xbe055cf1	-0.13023736
163	0xbdf2cb0a	-0.11855133
164	0x3d0202fe	0.031741135
165	0xbe09e303	-0.13465504
166	0xbd1694f2	-0.03676314
167	0xbdeb0f4b	-0.11477526
168	0xbd95470d	-0.072889425
169	0xbcd8ec33	-0.026479816
170	0x3c06a9ee	0.008219225
171	0xbdd579dd	-0.10423634
172	0xbdf1307d	-0.117768265
173	0xbdf6b40e	-0.120460615
174	0x3bb27c4e	0.005446947
175	0xbc7da723	-0.015481743
176	0x3d4b2e3a	0.049604632
177	0xbe1c1005	-0.15240486
178	0xbde8bb6d	-0.11363874
179	0x3bb77145	0.0055982196
180	0x3d09beb2	0.033629127
181	0x3daeccba	0.08535142
182	0x3c737955	0.014860471
183	0xbc80a603	-0.01570416
184	0xbb8688fb	-0.004105685
185	0xbba83755	-0.005133549
186	0x3b871107	0.004121903
187	0xbdc0efc9	-0.094207354
188	0xbb89d4ab	-0.00420626
189	0xbd5617d7	-0.05226883
190	0x3e56595b	0.20932524
191	0x3d3d6c57	0.0462459
192	0x3d67f95c	0.056634292
193	0x3dd5ece9	0.10445578
194	0x3d41b4c1	0.04729152
195	0x3e186330	0.14881587
196	0xbcaf9db8	-0.02143751
197	0xbd0d2b8b	-0.034465354
198	0xbdb4fcb7	-0.08837264
199	0x3d758626	0.059942387
200	0xbbb563d2	-0.005535581
201	0xbe10001e	-0.14062545
202	0xbd0db236	-0.034593783
203	0x3db1b373	0.08676805
204	0x3d0c5b63	0.03426684
205	0xbdf82114	-0.12115684
206	0x3d3b55b1	0.04573602
207	0xbd6a5d97	-0.05721816
208	0xbda3ed1f	-0.08004212
209	0xbb05c1ff	-0.002040982
210	0xbc55dfea	-0.013053874
211	0x3d2c555f	0.042073604
212	0xbdd7afd0	-0.105315804
213	0x3d09ebe8	0.033672243
214	0xbde044bf	-0.10950612
215	0xbe1492aa	-0.14509073
216	0xbd33906d	-0.043838907
217	0x3c81b61d	0.015833909
218	0x3cd767c7	0.026294602
219	0xbd095da7	-0.03353658
220	0x3d43e7e7	0.04782858
221	0xbe1890d5	-0.14898999
222	0xbdd50e54	-0.104031235
223	0xbd8eb0fe	-0.06967352
224	0xbe084012	-0.13305691
225	0xbddfc324	-0.10925892
226	0xbd69e88c	-0.05710654
227	0xbe094352	-0.13404587
228	0x3e0bdf27	0.13659345
229	0xbd28bf87	-0.04119828
230	0xbc76a182	-0.015053155
231	0xbd89e60e	-0.067333326
232	0x3c9970cd	0.018730545
233	0xbe0ecf60	-0.13946295
234	0xbe01c304	-0.12672049
235	0xbdfd9a80	-0.12382984
236	0x3d97b874	0.074082285
237	0xbd6f5c33	-0.058437537
238	0xbdc4c305	-0.096075095
239	0xbdb9e6ce	-0.090772256
240	0xbc8bf557	-0.01708476
241	0xbe003bd1	-0.12522818
242	0x3da83263	0.082127355
243	0x3e612a7f	0.21988867
244	0xbd02798b	-0.031854194
245	0xbc0616fb	-0.00818419
246	0x3d5292aa	0.0514094
247	0xbcefea42	-0.029286508
248	0x3c602390	0.013680354
249	0xbd3fa7df	-0.046790954
250	0xbd91422c	-0.070926994
251	0xbc5d3bb0	-0.013503
252	0xbd064786	-0.032783054
253	0x3c3478b7	0.011015109
254	0x3d024f15	0.0318137
255	0x3e6a773b	0.22897045

4.bias f4 [2]
0	0xbd9423f2	-0.072334185
1	0xbc0db72b	-0.008649628
