checkpoints/dqn/20251120-2008/ckpt_ep200.pth (torch, 72697 bytes, 6 tensors)

0.weight f4 [128, 4]
000000 eb cf 97 3e d1 54 d8 3e 7c d1 3e 3d 1e a6 0b 3f
       0.29650816 0.4225221 0.0465865 0.5455035
000010 46 9a 6a be 2e c6 d0 3c 7e fc a7 bd 9a fe d1 3e
       -0.22910413 0.025485124 -0.08202456 0.41014558
000020 37 11 cf 3e fa 69 bf be 5c f2 f5 3e 94 57 e9 3d
       0.4044282 -0.3738554 0.48036468 0.11393657
000030 94 22 bd 3e 50 ae 8a 3d 5c e1 76 3e 60 94 90 bd
       0.36940444 0.06771529 0.24109405 -0.0705955
000040 07 60 d3 3e 04 07 a4 3d d1 55 82 be a0 94 ed 3d
       0.412842 0.080091506 -0.25456098 0.116006136
000050 f1 89 ad be c5 77 08 be e3 20 a4 bd b5 fd d7 3e
       -0.33894303 -0.13326938 -0.08014085 0.4218575
000060 5f 8c 9c be d2 47 8e be fb 0e 84 be 46 63 aa be
       -0.30575845 -0.2778917 -0.2579268 -0.33278865
000070 df 8a 6f 3d e9 ed 07 bf 54 c5 a0 3e bd ae 02 bf
       0.058482047 -0.530974 0.3140055 -0.5104788
000080 c6 96 aa 3e 6e b0 12 3e 14 ac 36 bd b5 0b b6 3e
       0.33318156 0.14325115 -0.0445977 0.35555807
000090 06 cc 0d 3e 47 65 b2 3e 64 69 2d bd 7a c8 4b be
       0.1384736 0.34842893 -0.042336836 -0.19900694
0000a0 ea a9 84 3d 47 6b ca bd 9b de bb 3e f2 90 07 3f
       0.06477721 -0.09883743 0.36693272 0.52955544
0000b0 1c 3e 74 3e 8e f8 5c be 34 94 de 3e 1d 49 2e 3e
       0.23851818 -0.21579191 0.43472445 0.17020078
0000c0 92 18 a2 3e 88 c5 9d be 30 29 17 bf 44 24 6e be
       0.3165937 -0.30814767 -0.5904722 -0.23256022
0000d0 9c 5b c4 be d6 0e d2 3e d8 78 13 3e cc 13 54 3e
       -0.38351142 0.41026944 0.14401567 0.20710677
0000e0 64 05 68 3e 84 7f 98 3c b4 85 99 3e d9 cc d4 be
       0.22658306 0.018615492 0.2998482 -0.41562536
0000f0 0c f9 0b bd 8c 9f c5 be cc 7c 7e 3e 2e dc c7 bd
       -0.034173056 -0.38598287 0.24852294 -0.09758793
000100 6e 45 57 3e 2b 79 b6 bd 52 c4 9f 3e a9 04 bb be
       0.21022579 -0.0890983 0.31204468 -0.36526993
000110 74 af c2 be 25 72 a1 be 66 28 17 3f 59 69 7d 3e
       -0.38024485 -0.31532398 0.5904602 0.24747218
000120 52 cb 08 3f 22 ea ce be b8 ed 1c bf 82 a2 ed be
       0.5343524 -0.40413004 -0.6130023 -0.46413046
000130 a0 08 d6 be 64 94 4f 3e 9f 3a af 3e e1 8f 05 3f
       -0.41803455 0.2027145 0.34224412 0.52172667
000140 93 56 a1 be dc a1 c4 be 7b 24 90 3e 89 72 41 be
       -0.31511363 -0.3840474 0.28152832 -0.18891348
000150 2f de c0 3e 72 05 b7 bd 23 c6 34 3e d8 ac eb be
       0.37669513 -0.089365855 0.17653708 -0.46030307
000160 d0 5c 29 be 88 85 44 3e 5e 64 29 3c 12 5c 3e be
       -0.16539311 0.19191563 0.010338871 -0.1858981
000170 70 62 aa 3e 9c 00 9d 3e fa 48 f1 be e4 74 a6 be
       0.33278227 0.30664527 -0.4712599 -0.32511055
000180 ac 16 f3 3e f0 94 1a be 5d 23 ab be 5a 42 1b bf
       0.47478235 -0.15095878 -0.33425418 -0.6064812
000190 ad e6 6c be 3f dd d7 3d 0e 13 40 be 91 5f dc be
       -0.23134871 0.10540246 -0.18757269 -0.4304166
0001a0 29 6e a0 bd 31 60 de be fd e0 1a bf 75 80 e3 be
       -0.078335114 -0.43432763 -0.60499555 -0.44433942
0001b0 da 10 fc be e2 ca 9c be 77 be 28 3f d6 97 3c 3e
       -0.49231607 -0.30623537 0.65915626 0.18417296
0001c0 d1 0a 95 3d 38 f7 19 bf 37 bb aa be 10 10 2d bd
       0.07277454 -0.6014285 -0.3334596 -0.042251647
0001d0 3f 2c 00 3e 91 a4 e5 be 04 a2 b8 be 6b ec cc be
       0.12516879 -0.44852117 -0.36061108 -0.40024123
0001e0 57 1e 07 3d 48 e9 80 be 5f 2f 3e be bf 33 d7 be
       0.03298792 -0.2517798 -0.18572758 -0.42031667
0001f0 f5 d0 8f be 38 d7 9f be e8 f5 95 be b2 0f ea be
       -0.2808911 -0.31218886 -0.29289174 -0.457151
000200 03 32 bf 3e a6 1e b3 bd 85 98 14 3f 27 24 70 3e
       0.37342843 -0.0874608 0.58045226 0.23451291
000210 ff 87 bc be 3d 18 b4 3e d5 7e 6f be 8f 9d 83 be
       -0.36822507 0.35174742 -0.23388226 -0.25706145
000220 25 3a ed be a1 d0 fd be c4 cf 8b 3e bc 74 ef bc
       -0.46333423 -0.49573234 0.2730695 -0.029230468
000230 2e fe 25 3e 44 85 ea be 29 98 d3 3e 20 b6 a1 be
       0.16210243 -0.458048 0.41327026 -0.31584263
000240 08 ba ff bd 06 3d 13 3e ec f6 c8 3e 00 f3 eb 3e
       -0.124866545 0.14378747 0.39250886 0.46083832
000250 50 a4 d8 3e 43 98 0a bf d1 e9 04 3e 56 25 8d bd
       0.4231286 -0.5413858 0.12979819 -0.06891887
000260 94 a2 a8 bc 72 c5 da be d5 df 92 3e 4e 89 ec be
       -0.020585336 -0.42728764 0.28686395 -0.46198505
000270 01 69 a8 3e 47 09 45 3e 04 1c 7b 3d f7 da aa be
       0.32892612 0.1924182 0.061306015 -0.33370182
000280 78 99 00 3f 44 76 c0 3d e0 61 57 bd 01 f3 01 bf
       0.50234175 0.093975574 -0.052583575 -0.5076142
000290 42 67 0d 3e 7d 5e aa bd 73 5f af bd a6 b3 03 3f
       0.13808921 -0.083188035 -0.08563127 0.51445997
0002a0 cb 35 7d 3d 3b 7d a5 be 29 bd 1d be 46 38 61 3d
       0.06181888 -0.32322106 -0.1540419 0.054985307
0002b0 c4 f0 8e 3e 54 d5 02 be 32 11 92 be ac 54 2f be
       0.27918065 -0.1277669 -0.28528744 -0.17122144
0002c0 5e e1 a5 be f6 f9 1d 3e bf 29 9c 3e d5 21 02 bf
       -0.32398504 0.15427384 0.305006 -0.50832874
0002d0 67 ac 45 3e 09 a9 96 3e bf a2 3d bc c8 c7 7e be
       0.19304048 0.2942584 -0.011574446 -0.24880898
0002e0 d8 67 ae 3e 7b 1e 99 3e 08 cf b8 3d 59 d7 1c be
       0.34063601 0.29906067 0.09023863 -0.15316524
0002f0 d4 1c 6e bd 7a 08 91 3d 51 6a 25 be 95 2b 3e be
       -0.05813296 0.07081695 -0.16153838 -0.18571313
000300 cc 7d c6 3e 18 59 e3 3e 8f 75 0f be 48 3a 2c be
       0.3876785 0.4440391 -0.14009689 -0.16819108
000310 a2 a7 23 bd 6e de b9 bc d7 35 8d 3e 5d 57 73 3e
       -0.03995479 -0.02268907 0.2758014 0.23763795
000320 2f 04 04 bf 75 a6 29 be 16 50 0f 3f 96 15 8a 3e
       -0.51568884 -0.16567405 0.55981576 0.26969594
000330 b8 e0 34 bb 89 ac 9d be 3f 18 fd be 7e 4b 16 bf
       -0.0027599763 -0.30795696 -0.4943256 -0.5870894
000340 fd b5 94 be 0d 4b eb 3d 7e 5f 03 3f 88 9e c3 3e
       -0.29045096 0.11488924 0.51317585 0.38206887
000350 8d 6c 09 bf 1d db a1 be bf 95 91 3d a6 41 12 3f
       -0.5368126 -0.31612483 0.0710864 0.5713142
000360 18 21 94 3d d0 97 04 be 7c d2 53 3e e8 02 43 be
       0.07232875 -0.12948537 0.20685762 -0.19044077
000370 26 f3 9c be 90 a7 bb 3e d6 55 8e be a8 55 01 be
       -0.30654258 0.36651278 -0.27799863 -0.12630332
000380 7e ab fe be 52 55 ab 3e 58 f4 c1 3e f4 98 3a 3e
       -0.49740213 0.33463532 0.37881732 0.1822241
000390 70 2f d5 be a8 92 09 bf 79 fd 9c be 97 b7 df 3e
       -0.41637754 -0.53739405 -0.30662134 0.43694755
0003a0 38 78 9e 3e 17 3a 01 3f 50 d8 c5 3e 82 74 7a 3e
       0.30951095 0.50479263 0.38641596 0.24458507
0003b0 05 b4 32 3c bb a0 c9 be 70 64 22 bf b6 f9 21 bf
       0.010907178 -0.3938044 -0.63434505 -0.63271654
0003c0 31 1a 64 3e 5e c2 83 be be 21 99 be 98 ae db be
       0.22275616 -0.25734228 -0.29908556 -0.42906642
0003d0 38 58 1e be 12 f4 bd be 85 ef 41 be 98 ac 81 3e
       -0.1546334 -0.37100273 -0.18939026 0.2532699
0003e0 70 6f 93 bd 5f 4f 99 3e 61 62 8d be f2 56 d9 be
       -0.071989894 0.29943368 -0.2761412 -0.42449147
0003f0 27 c2 1a bd 5e 95 89 be f3 3d 97 be 34 34 0f bf
       -0.037782814 -0.2687177 -0.2953945 -0.5593903

0.bias f4 [128]
000000 d1 59 38 3e 98 65 85 be 67 0f 9b be 7c d5 d4 be
       0.18003012 -0.26054072 -0.3028519 -0.41569126
000010 30 03 f9 3e 30 95 c8 be 45 c2 ed 3e 61 97 52 bd
       0.48635244 -0.3917632 0.46437278 -0.051413897
000020 4e e4 6b bd 8d a5 cf 3e e6 56 51 bd 91 d6 ce 3e
       -0.057590775 0.40555993 -0.051108263 0.40398076
000030 c3 02 d9 3e 04 43 de be 17 46 75 3e 6d a6 17 3e
       0.4238492 -0.43410504 0.23952518 0.1480958
000040 f5 32 de 3d 08 39 a7 3d 9d e7 d4 3d ff 0e 10 be
       0.10849563 0.08165175 0.10395739 -0.1406822
000050 5e 1a 3c bc dc b0 f9 3e 25 ef d2 3e ce 0a 70 bd
       -0.011480896 0.48767745 0.41198078 -0.058604054
000060 71 6b ac be cb 02 e2 bb 12 c6 31 be bd 44 f4 3e
       -0.3367572 -0.0068973056 -0.17360714 0.47708693
000070 d1 54 4c be 97 7b 6b bd 40 1d b3 bd a7 af 59 3d
       -0.1995423 -0.05749091 -0.08745813 0.05314603
000080 c0 dd 0b 3f c2 0c 31 3d f6 13 c1 3e a3 68 e9 3e
       0.5463524 0.043225057 0.3771054 0.45587644
000090 cc 98 f8 3e 34 c5 26 bd 94 fb 89 bd 1d fc 6e 3e
       0.48554075 -0.04071541 -0.06737438 0.23338361
0000a0 00 b5 11 be f7 96 71 3e 46 35 8a bd f2 a1 ad be
       -0.14229202 0.23592745 -0.06748442 -0.33912617
0000b0 67 88 87 3e 9a 95 e6 3d ee 95 8b 3e b7 20 13 3f
       0.26471254 0.11259003 0.27262825 0.57471794
0000c0 17 e3 c7 3e 23 38 0d 3f da 7b 7d 3c 39 9a 88 be
       0.39040443 0.5516378 0.015471423 -0.26680163
0000d0 ed a1 36 be cc 1b 7a be 7e 99 e1 be bb d4 7a be
       -0.17835207 -0.24424666 -0.44062418 -0.24495213
0000e0 54 aa eb be f8 b9 de be ba 24 41 be 55 dc 9b be
       -0.46028388 -0.43501258 -0.18861666 -0.30441537
0000f0 75 1b 14 be d6 35 67 3e af a9 f1 3e ad 18 ea bd
       -0.14463599 0.2257913 0.4719977 -0.11430488
000100 85 02 04 be 2d d1 b2 3e 1b a2 5f be b6 21 11 be
       -0.12891586 0.34925213 -0.21839182 -0.14173016
000110 f0 54 c3 3e da c0 b6 be b7 6c 51 3c 31 12 e9 3e
       0.3815074 -0.3569401 0.012782267 0.4552169
000120 0a e8 2d 3d a6 1e 26 3e 98 90 9c be 3a 76 1c bd
       0.042457618 0.16222629 -0.30579066 -0.038198687
000130 aa 56 a0 3d 24 01 a0 3d 1b e3 9a 3e 88 3d f9 3e
       0.0782903 0.078127176 0.30251393 0.48679757
000140 40 cb 87 be d0 a9 ba bc 0e 7b 12 be d5 fd 94 be
       -0.26522255 -0.022786051 -0.14304754 -0.29099908
000150 4a 80 87 bd a2 cf 9a be bf 01 d4 3e 03 94 33 3d
       -0.06616266 -0.30236536 0.41407582 0.043842327
000160 70 4d 5a be 93 ae 9a 3e 55 c6 c4 be 18 84 39 be
       -0.21318603 0.30211315 -0.38432565 -0.18116796
000170 74 0c 8c bd dc 8d df be 19 22 91 be 6c 3f 8e bd
       -0.06838313 -0.43662918 -0.28346327 -0.069456905
000180 cd 86 d1 3e e5 11 0e 3f 14 ff 9d 3e 3a e7 a6 be
       0.40923157 0.55496055 0.30858672 -0.32598287
000190 35 06 9c be 09 39 fc 3e 08 7e 61 3e 15 47 97 3c
       -0.30473486 0.49262264 0.22020733 0.018466512
0001a0 45 3e 08 3d ca b1 af be 0f bf 22 be 3d 5c 0c 3f
       0.03326251 -0.3431533 -0.15893196 0.54828244
0001b0 bf 76 7a bd 33 a1 b7 ba 66 f9 6c be d7 6b 68 be
       -0.0611484 -0.0014009833 -0.23142013 -0.22697388
0001c0 d6 81 41 bd 4e 04 9f be 5b 4c ff bd 4e c5 49 3e
       -0.04724296 -0.31057972 -0.124657355 0.19704172
0001d0 d4 69 fa be fe ba e6 3d fe 2d 82 be 3e ec 6b be
       -0.48908865 0.11266135 -0.25425714 -0.23039338
0001e0 ed 47 81 3e 3d da f6 3e 14 8e 9f bd 1c 36 52 be
       0.25250188 0.48213378 -0.07790771 -0.20528454
0001f0 46 f7 e3 be 28 d0 3e be 7d 9a ae be f9 e3 c6 bd
       -0.44524592 -0.18634093 -0.3410224 -0.09711451

2.weight f4 [128, 128]
000000 d6 eb 86 3d db 8b b5 bc 0a 13 08 3e c6 23 63 3d
       0.06587951 -0.022161415 0.13288513 0.055454038
000010 a4 a9 84 bd f6 c8 a3 3c 8d 3a ed 3c 56 c2 83 3c
       -0.06477669 0.019993287 0.028958583 0.016083878
000020 32 d1 0d 3d 3b 2b 6b bd 9b 8a 04 3e 63 16 58 bb
       0.034623332 -0.057414275 0.12943499 -0.0032972328
000030 05 25 31 3d 60 e0 ba 3b f5 b3 f0 bc 60 00 d8 3d
       0.043248195 0.005703017 -0.029382685 0.105469465
000040 8a a8 5f bd 2c c8 06 3c 35 61 4d bd a1 ed 20 3e
       -0.05460409 0.008226436 -0.050141532 0.15715648
000050 c9 38 ba 3b c9 74 16 bc 5c ef 8f bd 1e 2e 22 3d
       0.005683039 -0.009183117 -0.07028076 0.039594762
000060 ac 3d 10 3d 36 74 47 3b 62 78 93 3d 10 df 5c 3d
       0.035215065 0.0030434257 0.072006956 0.053923666
000070 31 6d f5 3c 0d 34 82 bd a7 72 27 3c e1 b8 0d 3d
       0.029959293 -0.06357584 0.010220206 0.034600142
000080 c0 9a 08 3e cb 12 06 3d fb 37 8d bc 6b a0 c3 3d
       0.13340282 0.032732766 -0.017238608 0.09552082
000090 cb c7 04 3d 1a 20 a1 bd 97 ac 76 bd a3 f0 72 bd
       0.0324171 -0.07867451 -0.06022319 -0.05931152
0000a0 7d 21 3a 3d 27 18 6f 3d 13 3a 3a bc 38 e1 de 3c
       0.045442093 0.058372643 -0.011366385 0.027207002
0000b0 a8 0a 5b bd 2e 1d 41 3d 74 53 c8 bd 1e 78 86 bc
       -0.05347696 0.04714697 -0.097815424 -0.016414698
0000c0 ee 76 e4 bd f6 5e 39 3c e1 aa bc 3d 97 09 de 3d
       -0.111554965 0.011314144 0.0921228 0.10841673
0000d0 d3 f5 e6 3d c2 e3 13 3e d4 aa 8d 3c 47 dc 15 3d
       0.11277356 0.14442351 0.017293371 0.036587026
0000e0 c9 1d 91 3d b4 9b 00 3e f3 36 85 bd 0a 08 e2 3d
       0.07085759 0.12559396 -0.06504621 0.110366896
0000f0 50 a5 b9 3d 00 67 ed 3a 6b e3 a1 bd ca 74 5d bd
       0.09064734 0.0018112361 -0.07904705 -0.054066457
000100 49 e0 9a 3d 40 91 17 bd 19 f5 50 3d 01 86 62 3d
       0.0756231 -0.037003756 0.051014993 0.055303577
000110 83 94 9a bd c9 71 d0 3b f0 46 a0 38 a1 95 ae 3d
       -0.075478576 0.0063612205 7.642608e-05 0.08524633
000120 ea bb e5 3c a7 34 72 bd 01 78 87 3d 9d 90 b1 3d
       0.028043706 -0.059132244 0.06614686 0.08670161
000130 b5 2f 6c 3d f9 e5 7f bc d8 13 1d 3d ab 47 e8 bc
       0.057662684 -0.015618795 0.038349003 -0.028354486
000140 be b6 4c 3d 77 15 36 3d 9d a1 e4 3d d7 5f cd 3d
       0.049978964 0.044454064 0.11163638 0.100280456
000150 c4 fa 64 bd 5d eb 26 3d 18 00 ac 3d 60 1a f2 bb
       -0.05590321 0.040751804 0.083984554 -0.007388398
000160 a4 97 af bd fa 75 87 ba 00 e1 3d 3d 77 56 bf bd
       -0.08573845 -0.0010334842 0.046357155 -0.09342664
000170 e6 ad c7 ba 72 d0 4a 3d 75 f6 06 3d 34 a4 ff 3d
       -0.0015234321 0.049515195 0.032949883 0.12482491
000180 ec e6 d3 bd 65 a6 8e bd 6c d7 d8 3b 92 33 5d 3d
       -0.10346779 -0.06965331 0.006617477 0.05400426
000190 2e 9f 58 3d 0d 52 ad 3c 76 cc ce bb bb bb 47 3d
       0.05288618 0.021157289 -0.0063109947 0.048763018
0001a0 8f ca 69 bd 20 04 73 3c e7 22 50 3d c2 c4 8b bc
       -0.05707794 0.014832526 0.050814535 -0.017061595
0001b0 7b da 1a 3c b7 e0 06 3e 25 41 86 3d 3c 60 93 3d
       0.009451504 0.1317166 0.06555394 0.071960896
0001c0 3e 2c d3 bc c0 e1 9f ba 0a 54 86 3d d0 57 c4 bd
       -0.025777932 -0.0012198016 0.06558998 -0.095870614
0001d0 00 2c 36 3a 1d 66 b5 3d 33 c2 14 bc e1 2a 10 3e
       0.00069493055 0.08857367 -0.009079504 0.14078857
0001e0 fb 46 b0 bc 9a bb cc 3c 5c f9 1b bd fc ec 6b bd
       -0.021518221 0.0249918 -0.038079605 -0.057599053
0001f0 bc a0 b1 bd 1f c9 e0 3d 5c 5e c0 3c 17 5a 88 bd
       -0.08673236 0.10975861 0.023482494 -0.06657808
000200 9d 22 05 be e9 e9 b2 3d 46 62 0a 3d 1e 44 11 3d
       -0.13001485 0.08736021 0.033785127 0.035465352
000210 be b2 8d bd 62 b7 1e bd cc cd 41 bb 70 c3 21 3d
       -0.06918858 -0.038749106 -0.0029572127 0.039493024
000220 fd b9 b6 bd 7c ac a7 38 19 a7 8d 3b 92 5b 88 bd
       -0.08922193 7.995308e-05 0.004322898 -0.06658091
000230 bd 18 db 3c 87 7e 0f bd 08 28 ec 3c a0 d5 6f 3d
       0.026745195 -0.035032775 0.028827682 0.058553338
000240 75 03 12 bd c7 e0 b3 bd 6c f4 9d 3d 14 b8 ac 3c
       -0.035647828 -0.08783107 0.077126354 0.021083869
000250 7b d0 2c bc 89 df b3 3d 8c 41 3e bd 5a 04 97 3d
       -0.0105477525 0.0878287 -0.04644923 0.07373877
000260 94 48 e0 3d 5e 94 6b bd 87 21 0d 3e 11 bd 13 be
       0.10951343 -0.05751454 0.13782321 -0.14427592
000270 d1 3b 00 bd 5b 5c 48 3d 1b 5d 2c bc 7c f7 ee 3d
       -0.031307045 0.048916202 -0.010520245 0.11668298
000280 1c 71 a1 bd a2 b1 27 3d 92 2d a5 bd 3a 1b 68 3d
       -0.07882902 0.04094089 -0.080653325 0.05666659
000290 47 38 10 be 1f 1c 07 bd f1 65 d9 3d 15 b9 35 3d
       -0.14083968 -0.032985803 0.10615147 0.04436596
0002a0 78 91 cb 3d 0a 13 02 be cb 25 0d bd 94 36 8b 3c
       0.09939855 -0.12702575 -0.03445987 0.016993798
0002b0 6f e0 e9 3c 52 62 12 3d 0c 63 22 3d b9 c8 c0 bc
       0.028549401 0.035738297 0.03964524 -0.023533212
0002c0 4f 9c 2a 3d af a8 9b 3c 93 34 11 bd d1 73 39 3e
       0.041652974 0.019001333 -0.03545053 0.18110587
0002d0 7a e2 30 3d 29 ab 9f 3d b4 bc 4d bd 60 a8 12 bd
       0.043184735 0.07796318 -0.05022879 -0.035805106
0002e0 e4 5b d1 bc 40 eb 92 3b ca ae cd bb 39 74 b9 3d
       -0.025556512 0.0044836104 -0.00627694 0.09055371
0002f0 f3 89 40 3e 59 b3 73 bd e4 e4 64 3d 98 81 27 3d
       0.18802623 -0.05949721 0.05588235 0.040895075
000300 b3 96 9e bd b3 6b 3c bd fd 60 6b bd 97 f9 f2 3d
       -0.07743587 -0.046001147 -0.057465542 0.11864012
000310 14 5e 97 bd da d9 98 3c 39 5d 62 3d 89 14 d8 bd
       -0.07390991 0.018658567 0.055264685 -0.10550792
000320 4a 6c 33 3d 4a bf 61 bd 18 b3 6d bd b2 e8 46 bd
       0.043804444 -0.055114068 -0.058032125 -0.04856176
000330 0b 7c 5a bd af 02 db bd 1d 59 e6 bd f4 ef 11 bd
       -0.053340953 -0.10693871 -0.11247466 -0.035629228
000340 1a 30 2a 3d 26 06 f5 3d 72 e5 01 3d 98 46 ff b9
       0.04154978 0.11964063 0.031712957 -0.00048689987
000350 2c d1 8b bd 2a a1 c1 3d 0e d8 52 bd 21 48 3b bb
       -0.06827006 0.09454568 -0.051475577 -0.0028576928
000360 a3 bb d1 3d b5 b3 36 bd 35 da a9 3d b2 b7 eb 3d
       0.10240867 -0.044604976 0.08293573 0.115096465
000370 3f 8e 8c 3c 52 a8 19 bd 87 8c ca 3d 8e e4 49 bd
       0.017157672 -0.03751404 0.09890085 -0.049290232
000380 de 67 2c bd 28 b9 9a 3d 77 62 8b 3d 88 57 49 3d
       -0.042091243 0.07554847 0.0680589 0.049155742
000390 24 21 20 3d 56 22 70 bd 70 4a 97 bb f8 48 b8 3d
       0.039094105 -0.058626495 -0.004617028 0.08998293
0003a0 b7 41 1b 3d f0 f9 f7 3b c7 62 15 3c 46 8f 4e bd
       0.037904467 0.0075676367 0.009117789 -0.050429605
0003b0 64 c5 15 3d 9a b2 a2 3c 72 88 6b 3d 24 29 80 bc
       0.0365652 0.019860554 0.05750317 -0.015644617
0003c0 5f 24 9d 3d 4c 70 15 3d 5d be ad 3c 67 1a 7d 3d
       0.07672953 0.036484048 0.021208936 0.061792757
0003d0 ba de 62 3d 52 a8 33 3c cf 29 8b 3d 51 d5 02 bd
       0.05538819 0.010965424 0.06795084 -0.031941716
0003e0 2b 46 8f bd 4a 6f af 3a 2b 5f 30 bd 94 db bc bc
       -0.06995805 0.0013384607 -0.04305951 -0.023053922
0003f0 37 3f 5f 3b c0 38 88 3b b7 b0 d1 3d 7c 3f 77 3d
       0.0034064779 0.0041571558 0.10238784 0.060363278

2.bias f4 [128]
000000 58 bc b3 3c e4 0a d0 bc 0a 14 f0 bc 51 74 cb bc
       0.021940395 -0.025395818 -0.02930643 -0.024835737
000010 dd ec 8f 3d 1e 4c c5 bd 0a fe 09 bc 8b 2b e6 3d
       0.070276 -0.09633659 -0.008422384 0.11238774
000020 19 5f 0d 3d cd eb 1d 3d d8 f8 c3 bc 36 06 f5 bc
       0.03451452 0.038554955 -0.023922369 -0.029910188
000030 57 68 87 bd 44 54 cd bc d2 6c f4 3b a9 c4 32 3e
       -0.06611698 -0.025064595 0.0074592615 0.17457832
000040 5f 69 e2 3d b9 b1 79 bd 1b 3e 24 3d 98 f4 81 bd
       0.11055254 -0.060960505 0.04009829 -0.06345481
000050 7c b5 b1 bd de 5f 3e bd db 38 76 bd 73 1a 21 3c
       -0.086771935 -0.046478145 -0.060112815 0.009832966
000060 cc b0 e2 3c 28 39 10 3d 25 0f 04 3d 24 28 8d 3c
       0.027672194 0.03521076 0.032241005 0.017231055
000070 a8 ce ef 3c e1 d7 80 3d ce 2c ab bd 27 6e 65 bd
       0.029273346 0.06291176 -0.08358155 -0.056013253
000080 ee 0f ac bd bc b6 8f bd 94 62 22 3c 6c 0e 90 3d
       -0.08401476 -0.07017276 0.009911198 0.07034001
000090 8a 37 4e 3d 3d 36 21 bd bb 03 24 3b c6 32 2f 3d
       0.050345935 -0.039358366 0.0025026638 0.04277303
0000a0 ca cd e9 3b 32 28 a5 bd 13 c4 fd 3a ea 5f 2d 3d
       0.0071351277 -0.08064307 0.0019360803 0.0423278
0000b0 6b 38 64 3b e1 34 a0 3d a5 a1 4a 3d d1 c5 65 bd
       0.0034823667 0.07822586 0.049470562 -0.056096856
0000c0 71 ed 6d 3d 05 e6 9c bd 85 7a a0 bd b4 b2 b2 3d
       0.05808777 -0.0766106 -0.07835869 0.08725491
0000d0 f7 e7 0b 3c 8c 3a 6a 3d e1 4f 01 3e 86 ec dd bc
       0.008539191 0.05718474 0.12628128 -0.027090322
0000e0 ad e8 95 3d ae 08 94 bd 9d 63 06 3c ae b0 53 3c
       0.0731977 -0.07228218 0.008202461 0.012920542
0000f0 34 01 3c 3d d5 ae 8c 3d 46 ee 3a 3e 6b b5 5a 3d
       0.045899585 0.06869284 0.18254957 0.05339567
000100 be 37 2a 3e e8 4e 0b 3e bf 85 5f bc fa 4e 48 3e
       0.16622826 0.13604319 -0.013642727 0.19561377
000110 d0 b3 66 3c 73 6f 48 bc 7c 1a a6 3c b6 0d 47 bc
       0.014080957 -0.012233603 0.0202763 -0.012149265
000120 c3 a3 e0 bb 47 db 80 3c e9 15 68 bc d1 b9 8d bd
       -0.0068554594 0.01572956 -0.01416538 -0.06920207
000130 00 ea 98 bd ca bf ec 3c b3 85 26 bd 62 5d a1 b9
       -0.07466507 0.028900046 -0.04065485 -0.0003077789
000140 48 04 bd 3d 98 4a bd 3d de cf 20 3d ca 92 01 3d
       0.09229332 0.09242743 0.039260738 0.03163413
000150 ca 48 54 3d d9 d4 9f bd 5f 18 be 3d 67 72 96 bd
       0.05182723 -0.07804269 0.09281992 -0.07346039
000160 aa 9a 6a bd c1 f3 23 bc 1c 48 f3 3d 2c 06 57 3d
       -0.057276405 -0.010006846 0.11878988 0.05249612
000170 da 7a 86 3c cc 3f 39 3d 0e 88 c3 bd 63 14 bc bd
       0.016416002 0.045226857 -0.09547435 -0.09183576
000180 62 9e 08 3d dd fb fe bc 0d a8 14 3d 7c 53 5c bd
       0.03335417 -0.031125957 0.03629308 -0.053790554
000190 19 0d 1f 3e 66 ea 9d bd 89 56 00 3d 11 93 d6 3c
       0.1553234 -0.077107236 0.031332526 0.026193174
0001a0 5c b8 82 bd 61 56 92 3d a7 29 45 3d 7f ec 52 bd
       -0.0638282 0.07145382 0.048135426 -0.05149507
0001b0 e2 33 43 bd ab 80 41 3d df db bb 3b ad ab 33 bc
       -0.0476569 0.047241848 0.005732998 -0.010966224
0001c0 24 ac d1 3c 6e e6 35 3d b3 7c 84 bd 5c 04 58 3e
       0.025594778 0.044409208 -0.06469097 0.21095413
0001d0 ec 54 05 3d d6 7b af 3c eb f0 4a bd 95 91 11 3d
       0.03255169 0.021421354 -0.049546164 0.03553923
0001e0 e4 55 00 bd 83 57 35 3d 0c 0a 21 3d 02 5b b3 3d
       -0.03133191 0.04427291 0.039316222 0.08757593
0001f0 52 73 53 bc 2d 57 72 3d 07 c5 74 3d ac 93 16 3e
       -0.0129059125 0.05916517 0.059758212 0.1470477

4.weight f4 [2, 128]
000000 2d 06 8a bd 1c af 04 be c4 14 e6 bd 16 43 aa 3b
       -0.06739459 -0.12957424 -0.112344295 0.0051959855
000010 ad 29 00 be 79 03 67 bd 90 e2 d0 3c c6 f8 e2 bd
       -0.12515898 -0.056399796 0.025498658 -0.11082606
000020 2a a7 f1 bd b3 09 cd bc 86 40 1c 3d d6 c3 09 be
       -0.11799462 -0.025029039 0.03814747 -0.13453612
000030 5b 4d 98 3c df 44 13 be d0 a5 1f bc 3d 20 83 3e
       0.018591573 -0.14381741 -0.009744123 0.25610533
000040 e2 17 82 3d b3 a3 a4 3d 7b a9 a7 bd 67 c6 f2 bd
       0.063522115 0.08039036 -0.08186623 -0.118542485
000050 4a 73 ec 3b 73 25 8d 3c 56 ca 21 bd f9 ef 9b bd
       0.007215892 0.017229771 -0.039499603 -0.076141305
000060 6c 56 cc bd 18 85 77 3c 62 28 b4 3c 49 53 20 bd
       -0.09977421 0.015107416 0.021991912 -0.039141927
000070 93 5e 76 3d 93 e8 07 be f0 11 28 bc 1e 7c 8c 3b
       0.060148787 -0.13272314 -0.010258183 0.004287257
000080 65 5c 04 be 7b 0b 90 3d cf 11 c7 bd d4 0a 92 3c
       -0.1292587 0.0703344 -0.097201936 0.017827429
000090 fc 17 25 bd 70 57 c2 bd c1 b8 7f 3d 0d 91 7e bd
       -0.040306076 -0.09489334 0.062432054 -0.06215005
0000a0 85 51 34 3c ca 5b 9a 3d c2 77 aa bd f2 ed 52 3d
       0.011005764 0.075370386 -0.08323623 0.051496454
0000b0 f0 8f b2 bd 2b cc e3 bd 7e f4 f9 3c 11 a2 ac bc
       -0.0871886 -0.11122926 0.03051209 -0.021073373
0000c0 25 5d af bd 94 70 d1 bd 4e dc 28 3d 9c 37 fb 3d
       -0.08562688 -0.10226551 0.041225724 0.12266466
0000d0 34 bf 80 bd 9b 6d b6 3c dd 76 df 3d 8b ef 71 bd
       -0.06286469 0.02226906 0.10911343 -0.059066337
0000e0 41 8d e3 3a 9f e5 80 3d 0c e8 c8 3a 39 04 6b bd
       0.0017360823 0.06293797 0.0015327944 -0.057377074
0000f0 78 f6 8c 3d c4 16 c4 bd e1 bc 9b 3e c0 10 8e 3e
       0.06882948 -0.09574655 0.3041754 0.27747154
000100 f5 41 76 3e f5 f8 ca 3d 39 0e 00 3c c1 45 45 3e
       0.24048598 0.09910766 0.007815891 0.1926489
000110 10 ed a5 bd 5e f9 a2 bd 75 a7 cd bd ca 53 d3 bc
       -0.08101857 -0.07957719 -0.100417055 -0.02579679
000120 0b 35 e0 bd f1 b5 a1 bd 14 18 18 be 2a 8e 64 bd
       -0.10947617 -0.07896031 -0.14852935 -0.05579964
000130 60 e1 a1 3c ea 0e 5d 3d 1c 35 39 bd 33 8f d8 bd
       0.019760787 0.0539693 -0.045216665 -0.10574188
000140 83 7b bc bd cf 48 bb bd 6a 51 3a be 17 75 7d 3d
       -0.092032455 -0.091447465 -0.1819512 0.061879244
000150 04 05 15 3d 65 1f 3f 3d 19 2f e1 bd 78 25 e7 bd
       0.036381736 0.0466608 -0.10995311 -0.112864435
000160 bd 83 ad 3d 34 4d da bd a0 fd 09 be 29 3f f9 bd
       0.08472393 -0.106592566 -0.13475657 -0.1217025
000170 22 d6 a8 3c 25 a7 bd bd eb 8b e8 bd 30 8a 7d 3d
       0.020609919 -0.09260396 -0.11354812 0.061899364
000180 d7 ee f1 bd e4 d2 38 bd 6b d3 1b 3d b4 ea 82 bb
       -0.11813133 -0.045122996 0.03804342 -0.003995264
000190 2b 5a 17 3e c8 69 33 bc a6 17 d1 3c b2 48 54 bd
       0.1478049 -0.010950513 0.025523972 -0.05182714
0001a0 65 e0 8f bb e0 69 e5 bd 2e b3 87 3b a7 82 75 bc
       -0.0043907636 -0.11201835 0.004141233 -0.014984763
0001b0 7f ec e1 3b 89 73 68 bd c2 b4 ed 3d 32 0f 0f be
       0.0068946476 -0.056750808 0.116067424 -0.1397064
0001c0 e9 3a 5f 3d 59 a0 7e 3d 57 05 e6 3c 36 33 1f 3e
       0.05449954 0.06216464 0.028078718 0.15546879
0001d0 4a f9 01 be 24 27 c4 bc f9 12 80 bd b5 47 b3 bd
       -0.12692752 -0.023944445 -0.06253619 -0.087539114
0001e0 18 a2 54 3d 7b 9b 77 bd 36 0b a8 3d 19 1d d1 bd
       0.051912397 -0.060451012 0.08205263 -0.10210628
0001f0 fc 24 c7 bd dc 90 e4 bd 62 b4 ec 3c 11 1f 2c 3e
       -0.09723851 -0.11160442 0.028894607 0.16808726
000200 5f 9f 8c 3b 6d 86 75 3c 5f ef db 3c b2 96 0b be
       0.0042914595 0.014985663 0.02684754 -0.13631704
000210 98 3c 54 bd 13 6c 81 3d 96 9a 29 3d d0 be 47 b9
       -0.0518156 0.06319442 0.04140719 -0.00019049202
000220 34 f9 c7 bd 61 9b 06 be 0f 7b ae 3d db 2b bb bd
       -0.097643286 -0.1314521 0.08519565 -0.09139224
000230 34 b4 0e 3d b0 9f c0 bd d1 89 ae bd 31 55 55 3e
       0.034839824 -0.09405458 -0.0852238 0.20833279
000240 5e 82 43 3e 20 a0 ac bc 6f 32 87 bc 22 4d 4f bd
       0.190927 -0.021072447 -0.01650354 -0.05061067
000250 99 4f 04 bb e9 7b b0 3c b0 94 f0 3c c4 e1 76 3d
       -0.0020189045 0.02154346 0.029367775 0.0602739
000260 b3 83 bd bd 1f 20 3d 3d 22 8d ba bc 14 cd 0e 3d
       -0.09253635 0.04617321 -0.022772375 0.034863546
000270 56 46 c5 bd 1e 66 59 3c 51 90 98 3d c8 13 f5 3b
       -0.09632556 0.013268976 0.07449401 0.0074791647
000280 8a 1b 98 bd a0 99 fc 3b ed ca 02 be 30 da fb bd
       -0.07427128 0.007708743 -0.12772723 -0.12297475
000290 6b b7 54 3d 7e 23 12 be f2 94 16 bd 6a f1 e6 bd
       0.051932734 -0.14271352 -0.03676314 -0.11276515
0002a0 0d 47 95 bd 33 ec d8 bc 68 bf 06 3c 44 08 ed bd
       -0.072889425 -0.026479816 0.008224346 -0.11573842
0002b0 d4 69 fe bd 11 12 e7 bd 43 95 b6 3b 23 a7 7d bc
       -0.12422529 -0.11282743 0.0055719926 -0.015481743
0002c0 3a 2e 4b 3d 7f 50 24 be 16 6e ed bd f2 01 46 3d
       0.049604632 -0.16046332 -0.11593263 0.0483417
0002d0 95 78 4c 3d ba cc ae 3d 34 19 6e 3d fa a5 80 bc
       0.049919683 0.08535142 0.058129504 -0.015704144
0002e0 0e 89 86 bb 3b 5a a8 bb da 10 87 3b 3f be ba bd
       -0.0041056937 -0.0051377094 0.004121882 -0.09118318
0002f0 ab d4 89 bb e2 1a 79 bd df c0 87 3e b4 e1 c9 3d
       -0.00420626 -0.060816653 0.26514336 0.098575026
000300 06 6d e7 3d 76 86 28 3e c1 b4 41 3d 86 d3 56 3e
       0.113000914 0.16457543 0.04729152 0.20979127
000310 b8 9d af bc 04 74 fa bc 52 f0 ae bd 26 86 75 3d
       -0.02143751 -0.030572899 -0.08541931 0.059942387
000320 d1 c3 12 3b 47 ad 1b be 17 be 4a bd 73 b3 b1 3d
       0.0022394548 -0.15202819 -0.04949769 0.08676805
000330 63 5b 0c 3d 48 c7 f7 bd b1 55 3b 3d 3f 21 5d bd
       0.03426684 -0.12098557 0.04573602 -0.053986784
000340 21 17 9f bd 27 0a ad 3b 09 9f ed bc 5f 55 2c 3d
       -0.07768083 0.0052807513 -0.029006498 0.042073604
000350 b8 f5 d3 bd e8 eb 09 3d a5 62 dc bd 42 f0 1f be
       -0.103496015 0.033672243 -0.107610025 -0.15618995
000360 6d 90 33 bd 09 55 e5 3c a6 97 16 3d 23 81 e6 bc
       -0.043838907 0.02799465 0.036765717 -0.028137749
000370 e7 e7 43 3d b5 c9 18 be b9 09 e6 bd 2d b1 8e bd
       0.04782858 -0.14920695 -0.11232323 -0.06967387
000380 23 24 07 be 51 84 f1 bd 8c e8 69 bd fd 86 18 be
       -0.13197379 -0.117928155 -0.05710654 -0.14895244
000390 ae db 4f 3e 87 bf 28 bd 90 a1 76 bc 8d 26 80 bd
       0.20298645 -0.04119828 -0.015053168 -0.06257353
0003a0 cd 70 99 3c ba fc 18 be b0 66 0a be af ed 03 be
       0.018730545 -0.14940158 -0.13515735 -0.12883638
0003b0 74 b8 97 3d 2a 92 62 bd 11 b6 a3 bd f9 85 c7 bd
       0.074082285 -0.055315174 -0.07993711 -0.0974235
0003c0 5a f5 8b bc 18 69 03 be 63 32 a8 3d cd d5 8d 3e
       -0.017084766 -0.12833059 0.082127355 0.2770218
0003d0 55 7c d9 bc 52 16 06 bc aa 92 52 3d ec dc c8 bc
       -0.026548544 -0.0081840325 0.0514094 -0.024519406
0003e0 90 23 60 3c 0e 09 34 bd 2c 42 91 bd 4d 4a d2 bb
       0.013680354 -0.043953948 -0.070926994 -0.0064175487
0003f0 83 50 f8 bc b5 15 9a 3c 12 4f 02 3d fa 24 94 3e
       -0.030311828 0.018809179 0.03181369 0.2893446

4.bias f4 [2]
000000 4a 63 83 bd 47 d6 11 3c
       -0.06415422 0.008901185
