checkpoints/ddqn/ddqn_cartpole.pth (torch, 10795 bytes, 12 tensors)

fc1.weight f4 [24, 4]
0	0xbebea10a	-0.37232238
1	0x3ea164e6	0.31522292
2	0x3f09f416	0.5388807
3	0x3f28a999	0.65883785
4	0xbfadc3a3	-1.3575329
5	0xbedbc026	-0.42920035
6	0x3e2864a5	0.16444643
7	0xbda949d5	-0.082660355
8	0xbf255a3c	-0.6459081
9	0xbec08034	-0.3759781
10	0xbfdfc8a0	-1.7483101
11	0xbf4f9a0f	-0.8109445
12	0xbc603f94	-0.013687033
13	0xbeb9964d	-0.36247483
14	0xbe92ca08	-0.28669763
15	0xbebaa576	-0.36454362
16	0x3d093f1f	0.033507463
17	0xbebb0ba6	-0.36532325
18	0x3f0c58d0	0.5482302
19	0xbdf40998	-0.11915892
20	0x3f8bbd28	1.0917101
21	0x3eccbf60	0.39989758
22	0xbeaf31b0	-0.34217596
23	0xbe2c5de4	-0.16832691
24	0xbf610608	-0.8789983
25	0xbf4f65d3	-0.81014746
26	0x3e167a6b	0.14695136
27	0x3e037622	0.12838033
28	0x3d0e8ee5	0.034804244
29	0xbdd64893	-0.10463061
30	0x3c8fe791	0.017566474
31	0x3ea99736	0.33123177
32	0xbe72256b	-0.23647086
33	0xbe2a6737	-0.16640936
34	0xbe43aabb	-0.19108097
35	0xbd3dc710	-0.04633242
36	0xbea465ac	-0.3210882
37	0x3ef22542	0.4729405
38	0x3e8187d6	0.25298947
39	0xbe2cfc9e	-0.16893241
40	0x3ebdd0f1	0.37073472
41	0xbe837a46	-0.25679225
42	0x3edc78b9	0.43060854
43	0xbe80797b	-0.25092682
44	0xbdea2c2c	-0.11434206
45	0xbdb06f25	-0.08614949
46	0xbe7c953a	-0.246663
47	0xbebecc2c	-0.37265146
48	0x3c35eb75	0.011103501
49	0x3e0bb17c	0.13641924
50	0xbef0edf7	-0.47056553
51	0x3d8885ae	0.066661224
52	0x3d164d03	0.036694538
53	0xbea6a3db	-0.32546887
54	0x3e8e438a	0.27785903
55	0xbdf26118	-0.118349254
56	0x3bf0104a	0.0073261606
57	0xbefa6b26	-0.48909873
58	0x3e63e61a	0.22255746
59	0xbeb21a0a	-0.3478549
60	0xbed6e42f	-0.41970965
61	0xbe8b390d	-0.27191964
62	0xbf98354e	-1.1891267
63	0xbf19af52	-0.6003314
64	0xbe877b4a	-0.2646125
65	0xbed5667f	-0.4167976
66	0xbfa83992	-1.3142569
67	0xbedb73b8	-0.42861724
68	0xbf47a752	-0.77989686
69	0x3ec565ed	0.38554326
70	0x3feb6fca	1.839349
71	0x3ebbfd3d	0.36716643
72	0xbe3b146c	-0.18269509
73	0x3db52dbc	0.08846614
74	0x3fdba332	1.7159178
75	0x3f1cb93c	0.61220145
76	0x3f14b042	0.5808145
77	0x3eaea9bc	0.34113872
78	0x3fd8f471	1.6949598
79	0x3f1f8a12	0.62320054
80	0x3eb11ff8	0.34594703
81	0xbef7b776	-0.48382157
82	0xbed1db16	-0.40987462
83	0x3db3d4cc	0.08780822
84	0xbe5f4bec	-0.21806306
85	0xbe415dcf	-0.18883441
86	0x3e67fe72	0.22655657
87	0xbc466311	-0.01210858
88	0xbf85998d	-1.0437485
89	0xbd23eafc	-0.04001902
90	0x3f1fca48	0.6241803
91	0x3e2a6d7f	0.16643332
92	0x3d6855b0	0.056722343
93	0xbe91784f	-0.284121
94	0xbe6477cc	-0.22311324
95	0xbee32c42	-0.44369704

fc1.bias f4 [24]
0	0x3f9b8f29	1.2153064
1	0xbe4abf9a	-0.19799653
2	0xbe8a2e5a	-0.26988488
3	0x3f9e3a5a	1.2361557
4	0x3f767e6b	0.9628665
5	0xbec30531	-0.38089898
6	0xbeddd10c	-0.43323553
7	0x3eac0696	0.33598775
8	0x3f9abd76	1.2089069
9	0x3eb4d8f1	0.35321763
10	0xbeb1049f	-0.34573838
11	0x3f8e9988	1.1140604
12	0xbec5b369	-0.38613442
13	0xbf13665e	-0.57578075
14	0x3fad5bea	1.3543675
15	0xbe58890b	-0.21146028
16	0xbdf18f5c	-0.11794922
17	0xbdb03ed6	-0.08605735
18	0xbe218cfa	-0.15776435
19	0xbebbc813	-0.36676082
20	0xbec61b40	-0.38692665
21	0x3f92b8fb	1.1462702
22	0xbe58ad92	-0.21159962
23	0x3f901835	1.1257387

fc2.weight f4 [24, 24]
0	0xbe572ed4	-0.21013957
1	0xbe0121b1	-0.12610509
2	0x3dbf1ed3	0.09332051
3	0x3c400e97	0.0117222285
4	0x3e040113	0.12891035
5	0x3ee503c6	0.4472944
6	0x3de6c17a	0.112673715
7	0x3e61ab49	0.22037996
8	0xbc3638af	-0.011121913
9	0x3e977dfa	0.295883
10	0xbe42f683	-0.1903935
11	0x3e691d70	0.22765136
12	0x3e0f2430	0.13978648
13	0xbdc21e52	-0.094784394
14	0xbe214c51	-0.15751769
15	0x3c78c5bf	0.015183865
16	0x3d262a0c	0.040567443
17	0xbd4a72b9	-0.049425814
18	0xbfa642e5	-1.2989165
19	0x3d0e498f	0.03473812
20	0x3f16bb48	0.5887952
21	0xbe8a6f1a	-0.2703789
22	0xbecd170a	-0.4005664
23	0x3c863905	0.01638461
24	0x3f3dbcb9	0.7411609
25	0xbf4ea8c9	-0.80726296
26	0xbf0a97b2	-0.5413772
27	0x3ebd2ef6	0.3694989
28	0x3f159b13	0.5843975
29	0xbf224287	-0.6338276
30	0xbebb28d9	-0.36554602
31	0xbd2bd035	-0.04194661
32	0x3f28b1d4	0.65896344
33	0x3e0a2c0e	0.13493368
34	0x3e03333c	0.12812513
35	0x3f0e10ea	0.5549456
36	0x3df6cb57	0.12050503
37	0x3d58a837	0.052894797
38	0x3f20cbcd	0.62810975
39	0xbed2292d	-0.4104704
40	0xbeadca55	-0.3394343
41	0xbf449225	-0.767855
42	0xbf1bebf2	-0.609069
43	0xbf272f55	-0.653066
44	0x3d923b18	0.071401775
45	0x3f011cff	0.5043487
46	0xbf57652d	-0.84138757
47	0x3f0928ec	0.53578067
48	0x3f636083	0.8881914
49	0xbf0edf13	-0.55809134
50	0xbf312631	-0.691989
51	0x3ed0d0d0	0.4078431
52	0x3f629ec3	0.885235
53	0xbf26949f	-0.6507053
54	0xbf3214cd	-0.6956299
55	0x3eba7e11	0.36424306
56	0x3f799350	0.97490406
57	0x3e7809ca	0.24222484
58	0x3d98aa94	0.0745441
59	0x3ebe7fc0	0.3720684
60	0x3e27b195	0.16376336
61	0xbdb1e432	-0.08686103
62	0x3f425052	0.7590381
63	0xbef23a97	-0.47310326
64	0xbf1f4212	-0.6221019
65	0xbee71569	-0.45133522
66	0xbed9fdf0	-0.4257655
67	0xbf4f74d5	-0.81037647
68	0x3c73e0f1	0.014885173
69	0x3f7ad519	0.9798141
70	0xbf11d1ad	-0.56960565
71	0x3f217d07	0.630814
72	0xbeb56d43	-0.35434923
73	0xbee35761	-0.44402602
74	0x3d73500f	0.05940252
75	0x3ee80e29	0.45323303
76	0xbd49e764	-0.049292937
77	0x3d78de6f	0.060759004
78	0xbe19b02a	-0.15008608
79	0xbe76ab9b	-0.240889
80	0x3e2f7a9c	0.17136616
81	0xb9f41cc8	-0.0004656075
82	0xbc2da2ef	-0.010597928
83	0x3db94470	0.090462565
84	0xbdfbdbbe	-0.12297772
85	0x3debd2bf	0.11514806
86	0x3e808fa1	0.2510958
87	0x3e027f90	0.12743974
88	0x3d4db3e9	0.050220404
89	0xbefb3713	-0.49065456
90	0xbe7eb0d6	-0.24872145
91	0xbeec657a	-0.4617117
92	0x3ef00dbc	0.46885478
93	0xbe40957f	-0.18807028
94	0xbcc24d2a	-0.023718435
95	0x3ec21beb	0.37911925
96	0x3f6b5c8c	0.9193809
97	0xbf354dd1	-0.70821863
98	0xbf855262	-1.0415766
99	0x3f34c25b	0.7060906
100	0x3f61fdeb	0.88278073
101	0xbf2f274f	-0.68419355
102	0xbf2b523f	-0.6692237
103	0x3d821502	0.06351663
104	0x3f7eadbc	0.9948385
105	0x3ed8aa59	0.42317465
106	0x3d830e9b	0.0639927
107	0x3eeb2c91	0.4593244
108	0x3b08b037	0.0020856985
109	0x3e0b793c	0.13620466
110	0x3f729297	0.9475493
111	0xbf45165c	-0.7698724
112	0xbf1f659d	-0.62264425
113	0xbf64aa8d	-0.8932274
114	0xbf20c291	-0.62796885
115	0xbf80e6c5	-1.0070425
116	0x3ddc3066	0.10751419
117	0x3f7abe04	0.9794619
118	0xbf34015b	-0.7031457
119	0x3f3c3560	0.73518944
120	0xbf81c80f	-1.0139178
121	0x3ed1ac41	0.40951732
122	0x3f664a22	0.8995687
123	0x3e4e2434	0.20130998
124	0xbe0e3f3c	-0.1389131
125	0x3f1376d0	0.5760317
126	0x3e243bb0	0.16038394
127	0xbdec5021	-0.11538721
128	0x3c0d5f2d	0.008628649
129	0xbf46f4f9	-0.7771755
130	0xbe91824a	-0.28419715
131	0x3e90b35d	0.28261843
132	0xbe188e12	-0.14897946
133	0xbc23df32	-0.010001944
134	0x3ecce9c2	0.40022093
135	0x3f2a38b5	0.6649278
136	0x3f322ff2	0.6960441
137	0xbcc83190	-0.024437696
138	0xbe232ef6	-0.15935883
139	0xbeaa4ab7	-0.33260128
140	0xbcaa6f5e	-0.020805057
141	0xbe003932	-0.12521818
142	0x3e63423a	0.22193232
143	0x3ed4178a	0.4142421
144	0x3f099313	0.5374004
145	0x3d4ed362	0.05049456
146	0xbf4dd4e4	-0.8040297
147	0x3e3503a6	0.17677173
148	0x3ee2ca6a	0.44295055
149	0xbe328dee	-0.17436954
150	0x3e88bf27	0.26708338
151	0x3c3af6e2	0.0114114005
152	0x3f313949	0.69228035
153	0x3ce6cdef	0.028174369
154	0xbeb448fd	-0.35211936
155	0x3ebefd1a	0.37302476
156	0x3e0f7816	0.14010653
157	0xbdebc541	-0.115122326
158	0x3e0df841	0.13864233
159	0xbf5a6071	-0.8530341
160	0xbfbb66d5	-1.4640757
161	0x3e3e6871	0.18594529
162	0x3dd01708	0.10160643
163	0xbe47f7ba	-0.19528094
164	0xbe047708	-0.12936032
165	0x3f2eb942	0.6825143
166	0x3e03f1b5	0.12885173
167	0x3e98a0e2	0.29810244
168	0xbc953225	-0.018212387
169	0x3f80de8b	1.0067915
170	0x3f5caf4a	0.8620497
171	0x3e072810	0.13198876
172	0xbd8ba705	-0.06818966
173	0x3f8988bf	1.0744857
174	0x3f32f777	0.6990885
175	0x3da5a3de	0.08087896
176	0xbea7c55d	-0.32767764
177	0xbd4ef81f	-0.050529595
178	0x3dca78a3	0.09886291
179	0x3e3f807f	0.18701361
180	0x3e03c3d7	0.12867676
181	0xbe703303	-0.2345696
182	0x3d07af1d	0.033125985
183	0x3f456c27	0.7711815
184	0x3f0c55fe	0.54818714
185	0x3e8eeff3	0.27917442
186	0x3f000dfe	0.5002135
187	0x3f5f648a	0.87262785
188	0xbdcf1f8e	-0.101134405
189	0xbe021a30	-0.12705302
190	0x3f81fc54	1.015513
191	0xbd1619d6	-0.036645733
192	0x3e07bbaf	0.1325519
193	0xbe4cd596	-0.20003352
194	0xbc174520	-0.009232789
195	0xbd03348c	-0.032032534
196	0x3e2eee2d	0.17083044
197	0x3e2a486d	0.1662919
198	0x3d4794f0	0.048726022
199	0x3d3f4e22	0.046705373
200	0xbe029ba5	-0.12754686
201	0xbe6f84ff	-0.23390578
202	0xbd3e464c	-0.04645376
203	0xbd7a9c1a	-0.061184026
204	0xbd028f8c	-0.03187518
205	0x3bbbba20	0.005728975
206	0xbe4c5724	-0.19955117
207	0xbd7c6a00	-0.061624527
208	0x3e3d7852	0.1850293
209	0x3d65862e	0.056036167
210	0x3e049430	0.12947154
211	0xbe53752a	-0.20650163
212	0x3cc7bdd0	0.024382502
213	0xbdc356ff	-0.095380776
214	0x3d86e700	0.065870285
215	0xbe54cce8	-0.2078129
216	0x3f429e35	0.76022655
217	0xbf4f7e84	-0.8105242
218	0xbf0dfb01	-0.55461127
219	0x3f0d625e	0.5522822
220	0x3f37375f	0.71568865
221	0xbf3aa5d5	-0.7290929
222	0xbf2e4a5d	-0.6808222
223	0xbc0c872a	-0.0085771475
224	0x3f34e780	0.7066574
225	0x3ee7eacb	0.4529632
226	0x3d8ba758	0.06819028
227	0x3f0b8e3f	0.54513925
228	0x3e40287f	0.18765448
229	0xbe1809e0	-0.14847517
230	0x3f3d1788	0.7386403
231	0xbee9ef8b	-0.4569057
232	0xbea1d5a5	-0.3160831
233	0xbf163eac	-0.5868938
234	0xbeeb50ea	-0.4596017
235	0xbf2f7e36	-0.6855196
236	0x3e6c1105	0.23053367
237	0x3f20ac5e	0.6276301
238	0xbf5af997	-0.85537094
239	0x3ed73460	0.42032146
240	0x3f1e8b6d	0.61931497
241	0x3e9b7431	0.30362085
242	0xbe526f07	-0.20550166
243	0xbfb12500	-1.3839417
244	0x3da16d7a	0.07882209
245	0x3d4169be	0.047219984
246	0x3e782bb8	0.24235427
247	0x3e3c310a	0.18378082
248	0xbef7d409	-0.48403957
249	0x3f14a1b5	0.58059245
250	0xbd949391	-0.072547086
251	0xbf0009a1	-0.5001469
252	0xbd8f7f01	-0.07006646
253	0x3dccd13d	0.100008465
254	0xbf278ae5	-0.6544631
255	0xbd9bd1f5	-0.076084055

fc2.bias f4 [24]
0	0x3d4fc501	0.050724987
1	0x3f38a260	0.72122765
2	0x3f2fd4ac	0.68683887
3	0x3e8a5854	0.27020514
4	0x3f4cf365	0.8005889
5	0x3dd809cc	0.105487436
6	0x3e30483a	0.17215052
7	0xbd0f7fe8	-0.03503409
8	0xbe69f426	-0.22847041
9	0x3f46b998	0.77626944
10	0xbc54fb55	-0.012999375
11	0xbe00e952	-0.12589005
12	0x3edb7820	0.42865086
13	0x3f697996	0.9120115
14	0x3e8aa074	0.2707554
15	0x3f24fcb1	0.64448076
16	0xbe03794b	-0.12839238
17	0xbe5cbf66	-0.21557388
18	0x3f42eeb2	0.7614547
19	0xbbbe4580	-0.005806625
20	0xbdd43e55	-0.103634514
21	0xbe7d4232	-0.24732283
22	0x3ddfea13	0.10933318
23	0x3c2bd2be	0.010487257

fc3.weight f4 [2, 24]
0	0x3d1dbd3e	0.038510554
1	0x3f82a0f8	1.0205374
2	0x3f52af15	0.82298404
3	0x3ebcc7a5	0.36871067
4	0x3f922199	1.1416503
5	0xbf54a6ea	-0.8306719
6	0xbda1b1bf	-0.078952305
7	0xbf763c76	-0.96186006
8	0x3e0ac76e	0.13552639
9	0x3f81aa5d	1.0130116
10	0xbf35b855	-0.70984393
11	0xbde1261e	-0.109935984
12	0x3f64149f	0.89093965
13	0x3f988f9e	1.1918828
14	0x3f45504a	0.77075636
15	0x3f4af1e8	0.7927537
16	0xbf03f17e	-0.5154036
17	0xbe3f14f2	-0.18660334
18	0x3f79dba9	0.976008
19	0x3deb9404	0.11502841
20	0xbf54e989	-0.83168846
21	0x3d649683	0.0558076
22	0xbecc8b07	-0.3994982
23	0xbef827f8	-0.48467994
24	0xbe9ba616	-0.3040015
25	0x3f3ff686	0.7498554
26	0x3fa2e574	1.2726274
27	0x3d8a7a52	0.06761612
28	0x3f970def	1.1801127
29	0xbe825db1	-0.25462106
30	0x3f364345	0.71196395
31	0xbf623b97	-0.88372177
32	0xbdf00572	-0.117197886
33	0x3f456161	0.77101713
34	0xbf3cfc54	-0.7382252
35	0xbdb68487	-0.08911996
36	0x3f1aa6a9	0.60410553
37	0x3f601f47	0.87547725
38	0x3c9f1894	0.0194209
39	0x3f950add	1.164394
40	0xbf4bd01f	-0.7961444
41	0x3e0a8855	0.13528569
42	0x3f9a8895	1.2072932
43	0xbe19ef6c	-0.15032738
44	0xbf5f3b7e	-0.8720015
45	0x3d9321d6	0.07184188
46	0xbf4b2849	-0.79358345
47	0xbec436d9	-0.38323095

fc3.bias f4 [2]
0	0x3ef5f00e	0.4803471
1	0x3f1f2eb3	0.6218063

fc1.weight f4 [24, 4]
0	0xbec70920	-0.3887415
1	0x3e95a529	0.2922757
2	0x3f035935	0.51307994
3	0x3f2313cb	0.63702077
4	0xbfab1969	-1.336713
5	0xbece73d1	-0.40322736
6	0x3e470353	0.19434862
7	0xbd5fc064	-0.054626837
8	0xbf202d03	-0.6256868
9	0xbeb2eeee	-0.34947914
10	0xbfdbefe1	-1.718258
11	0xbf48a3ea	-0.78375113
12	0xbcea76c8	-0.028621092
13	0xbec44985	-0.3833734
14	0xbe9f74c8	-0.31143785
15	0xbec716e1	-0.38884643
16	0x3c8fd4d9	0.017557548
17	0xbec678d4	-0.3876406
18	0x3f05c32d	0.5225094
19	0xbe123a7e	-0.14280125
20	0x3f8a6fa1	1.0815316
21	0x3ec4236c	0.38308275
22	0xbebd9bbd	-0.3703288
23	0xbe35eee2	-0.17766908
24	0xbf5bb9de	-0.85830486
25	0xbf48a5de	-0.78378093
26	0x3e35f90b	0.17770784
27	0x3e2135db	0.157432
28	0x3c8ca541	0.017168643
29	0xbe093a63	-0.13401179
30	0xbc905514	-0.017618693
31	0x3e9ccb23	0.3062373
32	0xbe80c95d	-0.25153628
33	0xbe4084b8	-0.18800628
34	0xbe5dadbd	-0.21648307
35	0xbd8fc1d8	-0.07019395
36	0xbeb01e5e	-0.34398168
37	0x3ee5d104	0.4488603
38	0x3e69ceda	0.22832814
39	0xbe449bd1	-0.19200064
40	0x3eadcc20	0.33944798
41	0xbe937f17	-0.288079
42	0x3eec7d7e	0.46189493
43	0xbe60e958	-0.21964014
44	0xbe04d91b	-0.12973444
45	0xbddc0994	-0.107440144
46	0xbe8b022b	-0.27150092
47	0xbecb1d82	-0.3967095
48	0x3c35eb75	0.011103501
49	0x3e0bb17c	0.13641924
50	0xbef0edf7	-0.47056553
51	0x3d8885ae	0.066661224
52	0x3d164d03	0.036694538
53	0xbea6a3db	-0.32546887
54	0x3e8e438a	0.27785903
55	0xbdf26118	-0.118349254
56	0xbbf22920	-0.0073901564
57	0xbf028649	-0.5098615
58	0x3e4acd91	0.1980498
59	0xbebe6677	-0.3718755
60	0xbeccc30a	-0.39992553
61	0xbe7b6f77	-0.24554239
62	0xbf945f04	-1.1591496
63	0xbf12c942	-0.57338345
64	0xbe7b7957	-0.24558006
65	0xbec76a4f	-0.38948295
66	0xbfa43899	-1.2829772
67	0xbecf466e	-0.4048342
68	0xbf474e0e	-0.77853477
69	0x3ec66001	0.3874512
70	0x3fec69fe	1.8469846
71	0x3eccb3d2	0.39980942
72	0xbe36a186	-0.17835054
73	0x3dbf7234	0.093479544
74	0x3fdc5ba3	1.7215465
75	0x3f1df59f	0.61702913
76	0x3f118b40	0.56853104
77	0x3ea4f30a	0.32216674
78	0x3fd547cd	1.6662537
79	0x3f1f361a	0.6219193
80	0x3eb814da	0.35953408
81	0xbef65619	-0.48112562
82	0xbed12193	-0.40845928
83	0x3dcd3579	0.10019965
84	0xbe6e6803	-0.23281865
85	0xbe578162	-0.2104545
86	0x3e4de395	0.20106347
87	0xbd111f9a	-0.03543053
88	0xbf82cd7c	-1.0218959
89	0xbc7c9ced	-0.015418273
90	0x3f27889b	0.6544282
91	0x3e4ef4cf	0.20210575
92	0x3d2af34a	0.041735925
93	0xbe9c12b4	-0.3048302
94	0xbe7d5de2	-0.24742845
95	0xbeef896f	-0.4678454

fc1.bias f4 [24]
0	0x3f9bafea	1.216306
1	0xbe599078	-0.21246517
2	0xbe92161a	-0.28532487
3	0x3f9f0250	1.2422581
4	0x3f77aa80	0.9674454
5	0xbecbe154	-0.3982035
6	0xbee6e58c	-0.45097005
7	0x3eb0a16d	0.34498158
8	0x3f9b60f0	1.2138958
9	0x3eb4eb9f	0.35336015
10	0xbec10970	-0.37702513
11	0x3f8f5d3a	1.1200325
12	0xbec5b369	-0.38613442
13	0xbf13665e	-0.57578075
14	0x3fae0370	1.3594799
15	0xbe686dee	-0.22698185
16	0xbe08f71d	-0.13375516
17	0xbd6bcfb7	-0.05757114
18	0xbe1bdcad	-0.152209
19	0xbec42ef5	-0.38317075
20	0xbec42274	-0.38307536
21	0x3f9332d6	1.1499889
22	0xbe6af734	-0.22945863
23	0x3f90de8c	1.1317916

fc2.weight f4 [24, 24]
0	0xbe38a2b0	-0.1803081
1	0xbd9b5874	-0.075852305
2	0x3e125790	0.14291215
3	0x3d7ff172	0.06248612
4	0x3e364776	0.17800698
5	0x3ee237e1	0.44183257
6	0x3e273629	0.16329254
7	0x3e85791b	0.2606896
8	0x3d1f0204	0.03882028
9	0x3e9b00f7	0.30274174
10	0xbe22ed75	-0.15910895
11	0x3e8c906b	0.27453932
12	0x3e0f2430	0.13978648
13	0xbdc21e52	-0.094784394
14	0xbdda4322	-0.10657336
15	0x3d854970	0.06508148
16	0x3db9a546	0.090647265
17	0xbd056669	-0.03256837
18	0xbfa5862f	-1.2931575
19	0x3cd6a055	0.0261995
20	0x3f1e2d05	0.61787444
21	0xbe624956	-0.22098288
22	0xbeb2d75b	-0.34929928
23	0x3d847801	0.064682014
24	0x3f3c5575	0.735679
25	0xbf48c6e1	-0.78428465
26	0xbf03af19	-0.5143905
27	0x3ec31e1a	0.38108903
28	0x3f185989	0.5951162
29	0xbf1d7e00	-0.61520386
30	0xbeae7fc2	-0.34081846
31	0xbd0c7910	-0.03429514
32	0x3f2b41f7	0.6689753
33	0x3e0545a6	0.1301485
34	0x3dc653a6	0.096839234
35	0x3f10d90f	0.56581205
36	0x3df6cb57	0.12050503
37	0x3d58a837	0.052894797
38	0x3f23a7df	0.63928026
39	0xbec4646e	-0.38357872
40	0xbea04ceb	-0.31308684
41	0xbf484859	-0.78235394
42	0xbf1e838a	-0.6191946
43	0xbf218b92	-0.6310359
44	0x3de9bb32	0.11412658
45	0x3f038d64	0.5138762
46	0xbf5369cf	-0.82583326
47	0x3f0c28d7	0.54749817
48	0x3f60c459	0.877996
49	0xbf096c73	-0.53681105
50	0xbf2a7afc	-0.6659391
51	0x3ed60636	0.41801614
52	0x3f64ff55	0.89452106
53	0xbf2297f5	-0.6351312
54	0xbf2c1962	-0.6722623
55	0x3ebe4b6e	0.37166923
56	0x3f7b84dc	0.982496
57	0x3e695052	0.22784546
58	0x3d312f20	0.043257833
59	0x3ec2efd1	0.3807359
60	0x3e27b195	0.16376336
61	0xbdb1e432	-0.08686103
62	0x3f44cc51	0.7687426
63	0xbee51f19	-0.44750288
64	0xbf186d63	-0.5954191
65	0xbef3cd21	-0.47617438
66	0xbedeb9b4	-0.43501055
67	0xbf4aca20	-0.7921467
68	0x3d7e7c52	0.06213028
69	0x3f7c9f48	0.98680544
70	0xbf0ecf7c	-0.55785346
71	0x3f242984	0.6412585
72	0xbeb5c408	-0.35501122
73	0xbed68454	-0.41897833
74	0x3db3e2b3	0.08783474
75	0x3eef52ca	0.4674285
76	0xbd138ec9	-0.036024842
77	0x3d7f3a67	0.062311556
78	0xbdfcfb79	-0.12352652
79	0xbe6e4525	-0.23268564
80	0x3e3d3ad3	0.18479471
81	0x3b103c36	0.0022008545
82	0xbd2b80f6	-0.041871034
83	0x3dd57460	0.104225874
84	0xbdfbdbbe	-0.12297772
85	0x3debd2bf	0.11514806
86	0x3e87a9ea	0.26496822
87	0x3e1fd303	0.15607838
88	0x3d9e0da4	0.077174455
89	0xbef7302d	-0.48278943
90	0xbe8714ef	-0.2638316
91	0xbee8d04c	-0.45471418
92	0x3ef7c7b0	0.48394537
93	0xbe333df1	-0.17504098
94	0xbb87878e	-0.0041360324
95	0x3ec944cd	0.39310303
96	0x3f6961f4	0.9116509
97	0xbf2f9633	-0.6858856
98	0xbf81e8ed	-1.0149208
99	0x3f379282	0.7170793
100	0x3f6494d1	0.89289576
101	0xbf2af20f	-0.667756
102	0xbf251f9b	-0.6450135
103	0x3d91bf81	0.071166046
104	0x3f807dc4	1.0038381
105	0x3ed3c63e	0.41362184
106	0x3d05f739	0.032706473
107	0x3ef041a8	0.46925092
108	0x3b08b037	0.0020856985
109	0x3e0b793c	0.13620466
110	0x3f75462d	0.95810205
111	0xbf3e5337	-0.74345726
112	0xbf189bdd	-0.5961283
113	0xbf69e184	-0.91359735
114	0xbf233c05	-0.6376346
115	0xbf7cceb2	-0.9875289
116	0x3e1c936e	0.15290615
117	0x3f7ce8c1	0.98792654
118	0xbf306c6f	-0.68915457
119	0x3f3f10e8	0.7463517
120	0xbf7adf51	-0.97997004
121	0x3ec5960e	0.38591045
122	0x3f5f5a3e	0.87247074
123	0x3e4fc2f7	0.20289217
124	0xbe0aeea5	-0.13567598
125	0x3f1b5df5	0.6069024
126	0x3e0a586d	0.13510294
127	0xbddbdb60	-0.10735202
128	0x3c3de1b5	0.011589457
129	0xbf38ac91	-0.72138315
130	0xbe817dce	-0.25291294
131	0x3e9394a4	0.2882434
132	0xbe188e12	-0.14897946
133	0xbc23df32	-0.010001944
134	0x3ecdc471	0.40188935
135	0x3f234048	0.6376996
136	0x3f2b9666	0.67026365
137	0x3c524c21	0.012835533
138	0xbe2da227	-0.16956387
139	0xbe9d30ce	-0.30701298
140	0xbd50bb28	-0.050959736
141	0xbdf8e52a	-0.121530846
142	0x3e511674	0.20418721
143	0x3ed61d3a	0.41819173
144	0x3f04e101	0.5190583
145	0x3c623531	0.013806627
146	0xbf57fc45	-0.8436931
147	0x3e15ee27	0.14641629
148	0x3ed4762d	0.4149641
149	0xbe2be2c0	-0.16785717
150	0x3e6ebf51	0.23315169
151	0xbb380e37	-0.0028084645
152	0x3f2933d6	0.6609472
153	0x3bdd086c	0.0067453887
154	0xbec44db1	-0.38340524
155	0x3eb01da4	0.34397614
156	0x3e0f7816	0.14010653
157	0xbdebc541	-0.115122326
158	0x3dddbf70	0.108275294
159	0xbf64fce9	-0.8944841
160	0xbfbfe4ea	-1.4991734
161	0x3e20a8b3	0.15689354
162	0x3dbf9baf	0.09355866
163	0xbe3f0d97	-0.18657528
164	0xbda0c34b	-0.07849749
165	0x3f26d53e	0.6516913
166	0x3db82599	0.08991546
167	0x3e8a5759	0.27019766
168	0xbd0f0797	-0.034919348
169	0x3f7c1525	0.98469764
170	0x3f55df9d	0.8354433
171	0x3ddd3168	0.10800439
172	0xbdbc7350	-0.092016816
173	0x3f899b51	1.0750524
174	0x3f2cd776	0.6751627
175	0x3d6951dd	0.056962837
176	0xbeb3a2e4	-0.35085213
177	0xbd91ac7e	-0.071129784
178	0x3e0545c4	0.13014895
179	0x3e270ece	0.16314241
180	0x3e03c3d7	0.12867676
181	0xbe703303	-0.2345696
182	0x3c19b8bb	0.009382422
183	0x3f3eb09e	0.74488246
184	0x3f0588cf	0.5216188
185	0x3e951dab	0.29124197
186	0x3f047b71	0.51750857
187	0x3f5eac89	0.8698202
188	0xbe155417	-0.14582859
189	0xbe19a78a	-0.15005317
190	0x3f80327e	1.0015409
191	0xbd79746b	-0.06090204
192	0x3e07bbaf	0.1325519
193	0xbe4cd596	-0.20003352
194	0xbc174520	-0.009232789
195	0xbd03348c	-0.032032534
196	0x3e2eee2d	0.17083044
197	0x3e2a486d	0.1662919
198	0x3d4794f0	0.048726022
199	0x3d3f4e22	0.046705373
200	0xbe029ba5	-0.12754686
201	0xbe6f84ff	-0.23390578
202	0xbd3e464c	-0.04645376
203	0xbd7a9c1a	-0.061184026
204	0xbd028f8c	-0.03187518
205	0x3bbbba20	0.005728975
206	0xbe4c5724	-0.19955117
207	0xbd7c6a00	-0.061624527
208	0x3e3d7852	0.1850293
209	0x3d65862e	0.056036167
210	0x3e049430	0.12947154
211	0xbe53752a	-0.20650163
212	0x3cc7bdd0	0.024382502
213	0xbdc356ff	-0.095380776
214	0x3d86e700	0.065870285
215	0xbe54cce8	-0.2078129
216	0x3f412983	0.75453967
217	0xbf49a1ee	-0.7876271
218	0xbf0715af	-0.5276746
219	0x3f105581	0.5638047
220	0x3f39f16f	0.72634023
221	0xbf35e6e3	-0.7105543
222	0xbf27fa83	-0.65616626
223	0xba749de0	-0.00093313865
224	0x3f3770d5	0.71656543
225	0x3ee5420b	0.4477695
226	0x3d172906	0.036904357
227	0x3f0e5035	0.55591136
228	0x3e40287f	0.18765448
229	0xbe1809e0	-0.14847517
230	0x3f3fef19	0.7497421
231	0xbedc3319	-0.43007734
232	0xbe945955	-0.28974405
233	0xbf1a1d47	-0.60200924
234	0xbef072c0	-0.46962547
235	0xbf29e102	-0.6635896
236	0x3e8c0e26	0.27354544
237	0x3f2315bb	0.63705033
238	0xbf570903	-0.83998126
239	0x3edd2c11	0.43197682
240	0x3f1ae24a	0.6050154
241	0x3e9b7431	0.30362085
242	0xbe526f07	-0.20550166
243	0xbfb4bf43	-1.4120868
244	0x3d5c7c9e	0.05382978
245	0x3d1858ec	0.037194178
246	0x3e782bb8	0.24235427
247	0x3e25df28	0.16198409
248	0xbf02f0f2	-0.51148903
249	0x3f107f07	0.5644383
250	0xbd949391	-0.072547086
251	0xbf058b7d	-0.5216597
252	0xbd8f7f01	-0.07006646
253	0x3dccd13d	0.100008465
254	0xbf2ed73a	-0.6829716
255	0xbd9bd1f5	-0.076084055

fc2.bias f4 [24]
0	0x3db0ca1c	0.08632299
1	0x3f39aa33	0.7252533
2	0x3f300fc2	0.68774045
3	0x3e8e0348	0.27736878
4	0x3f4da09a	0.80323184
5	0x3e0288d5	0.1274751
6	0x3e1aeadc	0.15128654
7	0xbd63046c	-0.05542414
8	0xbe69f426	-0.22847041
9	0x3f47b913	0.78016776
10	0xbcdc27e8	-0.026874498
11	0xbe00e952	-0.12589005
12	0x3eddbb46	0.4330694
13	0x3f6a4731	0.9151488
14	0x3e8e754c	0.27823865
15	0x3f2490dc	0.6428354
16	0xbe03794b	-0.12839238
17	0xbe5cbf66	-0.21557388
18	0x3f436be1	0.76336485
19	0xbbbe4580	-0.005806625
20	0xbdfd3478	-0.12363523
21	0xbe7d4232	-0.24732283
22	0x3ddfea13	0.10933318
23	0xb91ef064	-0.00015157607

fc3.weight f4 [2, 24]
0	0x3d6cbc8f	0.05779701
1	0x3f828c9b	1.0199159
2	0x3f52efdb	0.8239724
3	0x3ec696e7	0.38787004
4	0x3f91fc6a	1.1405156
5	0xbf4e4d7a	-0.8058697
6	0xbdedfe29	-0.11620743
7	0xbf6fce1a	-0.9367386
8	0x3e0ac76e	0.13552639
9	0x3f818bfc	1.0120845
10	0xbf3ce6d0	-0.7378969
11	0xbde1261e	-0.109935984
12	0x3f6404a3	0.89069575
13	0x3f98b3d0	1.1929874
14	0x3f47c8c5	0.78040725
15	0x3f49f874	0.78894734
16	0xbf03f17e	-0.5154036
17	0xbe3f14f2	-0.18660334
18	0x3f796bf8	0.9743037
19	0x3deb9404	0.11502841
20	0xbf4e7ea8	-0.8066201
21	0x3d649683	0.0558076
22	0xbecc8b07	-0.3994982
23	0xbeea9648	-0.4581778
24	0xbe9a1c79	-0.30099848
25	0x3f3a605d	0.7280329
26	0x3f9fe1c9	1.2490779
27	0x3d790247	0.060793187
28	0x3f9409e4	1.1565518
29	0xbe88bfc9	-0.2670882
30	0x3f2ffc02	0.6874391
31	0xbf6395c1	-0.8890038
32	0xbdf00572	-0.117197886
33	0x3f3fb0c5	0.74879104
34	0xbf3beea8	-0.73411036
35	0xbdb68487	-0.08911996
36	0x3f14e783	0.5816576
37	0x3f59d9ac	0.85097766
38	0x3b9909d5	0.0046703615
39	0x3f926819	1.1438018
40	0xbf4bd01f	-0.7961444
41	0x3e0a8855	0.13528569
42	0x3f97a9c2	1.1848681
43	0xbe19ef6c	-0.15032738
44	0xbf606878	-0.87659407
45	0x3d9321d6	0.07184188
46	0xbf4b2849	-0.79358345
47	0xbec99eaf	-0.39378878

fc3.bias f4 [2]
0	0x3ef7d547	0.48404905
1	0x3f1a20f3	0.60206527
